GRU_Quantized_Model.tflite (tflite, 489160 bytes, 14 tensors)

sequential/dense/BiasAdd/ReadVariableOp f4 [16]
0	0x3cc97266	0.024590682
1	0x3da50d85	0.08059219
2	0xbccfa7ae	-0.02534851
3	0x3b32be7c	0.0027274182
4	0x3dcb588b	0.099289976
5	0x3dca62d8	0.09882134
6	0xbdf57b00	-0.11986351
7	0x3cece394	0.028917111
8	0xbd2e6049	-0.042572293
9	0xbd7bb2a2	-0.061449654
10	0x3d8eb87a	0.0696878
11	0xbcbe1b8d	-0.023206497
12	0x3dac09ee	0.084003314
13	0xbd67b979	-0.056573365
14	0xbdaf8b8a	-0.08571537
15	0xbd7fa000	-0.062408447

unstack f4 [384]
0	0xbdddc675	-0.10828868
1	0x3e0dfac5	0.13865192
2	0x3d860436	0.06543772
3	0xbd47469a	-0.048651315
4	0xbe4eec37	-0.20207296
5	0xbe7ebcbb	-0.24876682
6	0xbd95fb07	-0.0732327
7	0xbe6c1f17	-0.23058735
8	0xbed1328d	-0.4085888
9	0x3d4d66b9	0.050146792
10	0xbc2e9c4e	-0.010657383
11	0xbdcb0c0d	-0.09914408
12	0xbe9da83f	-0.30792424
13	0xbdcd982f	-0.10038792
14	0xbe56e286	-0.2098485
15	0xbddeb0df	-0.10873579
16	0x3e1c8b1d	0.15287443
17	0xbd579256	-0.05262979
18	0xbe0eada3	-0.13933425
19	0x3d507476	0.050892316
20	0xbe3eb074	-0.18621999
21	0xbd17cebc	-0.03706239
22	0xbc3c3de2	-0.011489363
23	0xbe2a66f2	-0.16640833
24	0x3d659b0b	0.056056064
25	0xbe0caea3	-0.13738494
26	0xbe399a0e	-0.18125173
27	0xbe452c32	-0.1925514
28	0xbceffc49	-0.029295104
29	0x3e479e99	0.19494094
30	0xbe1fc87d	-0.15603824
31	0x3d77447f	0.060368057
32	0xbd8f981b	-0.07011434
33	0xbeb5efad	-0.3553442
34	0xbe6db02a	-0.23211733
35	0xbeb05b9c	-0.34444892
36	0xbe5f13c4	-0.21784884
37	0xbe6d259e	-0.23158881
38	0xbe314669	-0.17312016
39	0x3c641a63	0.013922307
40	0xbd902a5c	-0.070393294
41	0x3a36669b	0.00069580384
42	0x3e5a4fb8	0.21319473
43	0x3bea88d5	0.007157425
44	0xbcc55fe3	-0.024093574
45	0xbe0673c6	-0.13130102
46	0xbe39e389	-0.18153204
47	0x3c58ee86	0.013240462
48	0xbe404b1d	-0.18778653
49	0xbe1075ab	-0.14107387
50	0xbe8b1df7	-0.271713
51	0x3c8edba3	0.017438715
52	0xbe6b7772	-0.22994784
53	0xbe7be4c4	-0.24598986
54	0xbeda8b80	-0.42684555
55	0x3ccd25f5	0.025042513
56	0xbd8f47c5	-0.06996111
57	0xbcb3f485	-0.021967182
58	0x3d19a891	0.037514273
59	0x3d06062a	0.032720722
60	0xbd66523a	-0.05623076
61	0xbd971ebe	-0.073789105
62	0xbb9d25ca	-0.0047957646
63	0xbe090f8e	-0.1338484
64	0xbe056e75	-0.13030417
65	0xbd17ad64	-0.037030593
66	0x3e7914e4	0.24324375
67	0xbdbd649a	-0.09247704
68	0xbe3e830c	-0.18604678
69	0x3e1a4e8e	0.15069029
70	0xbdf7339e	-0.12070392
71	0xbd3317a9	-0.043723736
72	0xbe40efa1	-0.18841411
73	0xbe0065a8	-0.12538779
74	0x3d0b894a	0.034066476
75	0xbde04a8e	-0.1095172
76	0xbe05595f	-0.13022374
77	0xbe5d8b7c	-0.2163524
78	0xbe8df1ae	-0.2772345
79	0xbd901b46	-0.07036452
80	0xbcd5b049	-0.026085036
81	0xbdf7c492	-0.1209804
82	0xbe473719	-0.19454612
83	0x3d97c788	0.074111044
84	0xbda7be72	-0.081906214
85	0xbbe7a2ab	-0.007068952
86	0x3d4e230e	0.0503264
87	0xbdf172d1	-0.117894776
88	0xbe0af6c8	-0.13570702
89	0xbe2e8256	-0.17041907
90	0xbe4cf09b	-0.20013659
91	0xbe2474ad	-0.16060133
92	0xbd864042	-0.06555225
93	0xbe45cce4	-0.19316441
94	0x3df42dcc	0.119227976
95	0xbd2bf25e	-0.041979186
96	0xbe544e1b	-0.2073292
97	0xbd5a859c	-0.053350076
98	0xbe3ba518	-0.18324697
99	0xbd7d239c	-0.061801538
100	0xbe9e58f7	-0.3092725
101	0xbe31c5d7	-0.17360626
102	0xbdcbe60d	-0.09955988
103	0xbda064df	-0.0783174
104	0xbd536ef5	-0.05161949
105	0xbe8f9900	-0.28046417
106	0xbe774c8d	-0.24150296
107	0x3dfd1eb5	0.123593725
108	0x3dd8013c	0.105471104
109	0x3d4a394f	0.04937106
110	0xbceb8832	-0.028751466
111	0xbdea7616	-0.11448304
112	0x3bc3825b	0.0059664673
113	0xbdef19c6	-0.11674838
114	0xbe26f1e3	-0.1630321
115	0x3e32a992	0.17447498
116	0xbe7650ef	-0.24054311
117	0xbe924bf6	-0.2857358
118	0xbdaa85cd	-0.08326302
119	0xbd46867e	-0.048468105
120	0xbd6d3440	-0.057911158
121	0x3d8e131c	0.069372386
122	0xbe871e77	-0.2639043
123	0xbe9d2c47	-0.30697843
124	0x3bb1f387	0.005430642
125	0xbd26c151	-0.040711705
126	0xbe5925c0	-0.21205807
127	0xbdaadb99	-0.08342666
128	0xbe05c44e	-0.13063166
129	0xbe2e262a	-0.17006746
130	0xbe44f704	-0.19234854
131	0x3db9550a	0.09049423
132	0xbc5055d5	-0.012715776
133	0xbe448184	-0.19190031
134	0xbe266a05	-0.1625138
135	0xbe6384e8	-0.22218668
136	0xbe3d7d18	-0.1850475
137	0xbe560413	-0.20899992
138	0xbe94cf5e	-0.2906446
139	0xbe06f767	-0.13180314
140	0xbe92d86e	-0.28680748
141	0xbea38633	-0.31938323
142	0xbe8acb16	-0.27108067
143	0xbe94fd2d	-0.29099408
144	0xbe3e6c54	-0.18596011
145	0xbd1e37b9	-0.03862736
146	0xbe1a2e06	-0.15056619
147	0xbe0b3f41	-0.13598348
148	0xbe9bf861	-0.30462936
149	0xbe30658f	-0.17226242
150	0xbe0d9149	-0.13824953
151	0xbe049579	-0.12947644
152	0xbe652457	-0.22377144
153	0xbe53e818	-0.20694005
154	0xbe8167b4	-0.25274432
155	0x3d316953	0.043313336
156	0xbdfea690	-0.12434113
157	0xbe1e98c4	-0.15487963
158	0xbe4c58ac	-0.199557
159	0xbe6abb01	-0.22922899
160	0xbda92103	-0.082582496
161	0xbe376736	-0.17910466
162	0xbe38548a	-0.18000999
163	0xbe107baf	-0.14109682
164	0xbe85a88c	-0.26105154
165	0xbeb73646	-0.35783595
166	0xbe62beb4	-0.2214306
167	0xbe3f09f6	-0.18656144
168	0xbe866f5f	-0.26256844
169	0xbe45f11a	-0.19330254
170	0xbe83c1c2	-0.25733763
171	0xbde60135	-0.11230699
172	0xbd22cdae	-0.039746933
173	0xbe5e958f	-0.2173674
174	0xbe8e7e82	-0.27830893
175	0xbe843ae4	-0.2582618
176	0xbdfa7f9c	-0.12231371
177	0xbe6bab17	-0.23014484
178	0xbd3fa759	-0.046790455
179	0xbd8e4cb6	-0.06948225
180	0xbdefb7fd	-0.11705015
181	0xbe9dce58	-0.3082149
182	0xbe331dda	-0.17491856
183	0xbe45d831	-0.19320752
184	0xbe976dd0	-0.29575968
185	0xbd3b6c1f	-0.04575741
186	0xbe3de2e3	-0.18543582
187	0xbec35db6	-0.38157433
188	0xbd54cab2	-0.051951118
189	0xbe022ef4	-0.12713224
190	0xbe4caaa6	-0.19986972
191	0xbe59b8d7	-0.21261917
192	0xbe7cda34	-0.24692613
193	0xbe93f4a4	-0.28897583
194	0xbea51ee4	-0.3225013
195	0xbe99b33d	-0.3001956
196	0xbec59b39	-0.38594988
197	0xbe3f6e57	-0.18694435
198	0xbe7e968d	-0.24862118
199	0xbe68c429	-0.22731079
200	0xbe261365	-0.16218336
201	0xbea28069	-0.31738594
202	0xbdadfa23	-0.084949754
203	0xbeaf33fd	-0.3421935
204	0xbe82fb86	-0.25582522
205	0xbe26e7e2	-0.16299394
206	0xbe8cffe6	-0.27538985
207	0xbe731fe8	-0.2374264
208	0xbe1e52c0	-0.15461254
209	0xbeabc1aa	-0.3354619
210	0xbeb768b9	-0.35822085
211	0xbe1984d6	-0.14992079
212	0xbe4c62a0	-0.19959497
213	0x3e29bf18	0.16576803
214	0x3d6ade3d	0.05734085
215	0xbe6a8b15	-0.22904618
216	0xbe5b0bef	-0.21391271
217	0xbe13fbb7	-0.1445149
218	0xbe1fc3b7	-0.15602003
219	0xbea4249e	-0.32059187
220	0xbe0b4860	-0.13601828
221	0xbe8dafb9	-0.27673128
222	0xbe93d3a5	-0.2887241
223	0xbdf3e4f1	-0.119089015
224	0x3bd3d48f	0.006464548
225	0xbe8955a5	-0.26823154
226	0xbe8aa5d5	-0.27079645
227	0xbeb7f0af	-0.35925815
228	0xbe8a0d73	-0.26963386
229	0xbdd775b9	-0.10520501
230	0xbe6b9cb1	-0.23008992
231	0xbddfed05	-0.1093388
232	0xbdf9bf02	-0.12194635
233	0xbe30d567	-0.17268907
234	0xbe1b1118	-0.1514324
235	0xbe03101e	-0.12799117
236	0xbe4d4eb4	-0.20049554
237	0xbe911905	-0.283394
238	0xbe36dd75	-0.17857917
239	0xbea16f97	-0.3153045
240	0xbece8e71	-0.4034305
241	0xbea3c36f	-0.31985041
242	0xbe4f1b10	-0.20225167
243	0xbdb11a19	-0.08647556
244	0xbdca7811	-0.09886182
245	0xbca69801	-0.020336153
246	0xbd81bc04	-0.06334689
247	0xbe33d943	-0.17563348
248	0xbe9ae211	-0.302506
249	0xbe2d6597	-0.16933285
250	0xbe3aa433	-0.182267
251	0xbe377b91	-0.1791823
252	0xbe8ce969	-0.27521828
253	0xbe309103	-0.17242818
254	0xbe0c7181	-0.13715173
255	0xbdfe3b38	-0.12413639

unstack1 f4 [384]
0	0xbdddc675	-0.10828868
1	0x3e0dfac5	0.13865192
2	0x3d860436	0.06543772
3	0xbd47469a	-0.048651315
4	0xbe4eec37	-0.20207296
5	0xbe7ebcbb	-0.24876682
6	0xbd95fb07	-0.0732327
7	0xbe6c1f17	-0.23058735
8	0xbed1328d	-0.4085888
9	0x3d4d66b9	0.050146792
10	0xbc2e9c4e	-0.010657383
11	0xbdcb0c0d	-0.09914408
12	0xbe9da83f	-0.30792424
13	0xbdcd982f	-0.10038792
14	0xbe56e286	-0.2098485
15	0xbddeb0df	-0.10873579
16	0x3e1c8b1d	0.15287443
17	0xbd579256	-0.05262979
18	0xbe0eada3	-0.13933425
19	0x3d507476	0.050892316
20	0xbe3eb074	-0.18621999
21	0xbd17cebc	-0.03706239
22	0xbc3c3de2	-0.011489363
23	0xbe2a66f2	-0.16640833
24	0x3d659b0b	0.056056064
25	0xbe0caea3	-0.13738494
26	0xbe399a0e	-0.18125173
27	0xbe452c32	-0.1925514
28	0xbceffc49	-0.029295104
29	0x3e479e99	0.19494094
30	0xbe1fc87d	-0.15603824
31	0x3d77447f	0.060368057
32	0xbd8f981b	-0.07011434
33	0xbeb5efad	-0.3553442
34	0xbe6db02a	-0.23211733
35	0xbeb05b9c	-0.34444892
36	0xbe5f13c4	-0.21784884
37	0xbe6d259e	-0.23158881
38	0xbe314669	-0.17312016
39	0x3c641a63	0.013922307
40	0xbd902a5c	-0.070393294
41	0x3a36669b	0.00069580384
42	0x3e5a4fb8	0.21319473
43	0x3bea88d5	0.007157425
44	0xbcc55fe3	-0.024093574
45	0xbe0673c6	-0.13130102
46	0xbe39e389	-0.18153204
47	0x3c58ee86	0.013240462
48	0xbe404b1d	-0.18778653
49	0xbe1075ab	-0.14107387
50	0xbe8b1df7	-0.271713
51	0x3c8edba3	0.017438715
52	0xbe6b7772	-0.22994784
53	0xbe7be4c4	-0.24598986
54	0xbeda8b80	-0.42684555
55	0x3ccd25f5	0.025042513
56	0xbd8f47c5	-0.06996111
57	0xbcb3f485	-0.021967182
58	0x3d19a891	0.037514273
59	0x3d06062a	0.032720722
60	0xbd66523a	-0.05623076
61	0xbd971ebe	-0.073789105
62	0xbb9d25ca	-0.0047957646
63	0xbe090f8e	-0.1338484
64	0xbe056e75	-0.13030417
65	0xbd17ad64	-0.037030593
66	0x3e7914e4	0.24324375
67	0xbdbd649a	-0.09247704
68	0xbe3e830c	-0.18604678
69	0x3e1a4e8e	0.15069029
70	0xbdf7339e	-0.12070392
71	0xbd3317a9	-0.043723736
72	0xbe40efa1	-0.18841411
73	0xbe0065a8	-0.12538779
74	0x3d0b894a	0.034066476
75	0xbde04a8e	-0.1095172
76	0xbe05595f	-0.13022374
77	0xbe5d8b7c	-0.2163524
78	0xbe8df1ae	-0.2772345
79	0xbd901b46	-0.07036452
80	0xbcd5b049	-0.026085036
81	0xbdf7c492	-0.1209804
82	0xbe473719	-0.19454612
83	0x3d97c788	0.074111044
84	0xbda7be72	-0.081906214
85	0xbbe7a2ab	-0.007068952
86	0x3d4e230e	0.0503264
87	0xbdf172d1	-0.117894776
88	0xbe0af6c8	-0.13570702
89	0xbe2e8256	-0.17041907
90	0xbe4cf09b	-0.20013659
91	0xbe2474ad	-0.16060133
92	0xbd864042	-0.06555225
93	0xbe45cce4	-0.19316441
94	0x3df42dcc	0.119227976
95	0xbd2bf25e	-0.041979186
96	0xbe544e1b	-0.2073292
97	0xbd5a859c	-0.053350076
98	0xbe3ba518	-0.18324697
99	0xbd7d239c	-0.061801538
100	0xbe9e58f7	-0.3092725
101	0xbe31c5d7	-0.17360626
102	0xbdcbe60d	-0.09955988
103	0xbda064df	-0.0783174
104	0xbd536ef5	-0.05161949
105	0xbe8f9900	-0.28046417
106	0xbe774c8d	-0.24150296
107	0x3dfd1eb5	0.123593725
108	0x3dd8013c	0.105471104
109	0x3d4a394f	0.04937106
110	0xbceb8832	-0.028751466
111	0xbdea7616	-0.11448304
112	0x3bc3825b	0.0059664673
113	0xbdef19c6	-0.11674838
114	0xbe26f1e3	-0.1630321
115	0x3e32a992	0.17447498
116	0xbe7650ef	-0.24054311
117	0xbe924bf6	-0.2857358
118	0xbdaa85cd	-0.08326302
119	0xbd46867e	-0.048468105
120	0xbd6d3440	-0.057911158
121	0x3d8e131c	0.069372386
122	0xbe871e77	-0.2639043
123	0xbe9d2c47	-0.30697843
124	0x3bb1f387	0.005430642
125	0xbd26c151	-0.040711705
126	0xbe5925c0	-0.21205807
127	0xbdaadb99	-0.08342666
128	0xbe05c44e	-0.13063166
129	0xbe2e262a	-0.17006746
130	0xbe44f704	-0.19234854
131	0x3db9550a	0.09049423
132	0xbc5055d5	-0.012715776
133	0xbe448184	-0.19190031
134	0xbe266a05	-0.1625138
135	0xbe6384e8	-0.22218668
136	0xbe3d7d18	-0.1850475
137	0xbe560413	-0.20899992
138	0xbe94cf5e	-0.2906446
139	0xbe06f767	-0.13180314
140	0xbe92d86e	-0.28680748
141	0xbea38633	-0.31938323
142	0xbe8acb16	-0.27108067
143	0xbe94fd2d	-0.29099408
144	0xbe3e6c54	-0.18596011
145	0xbd1e37b9	-0.03862736
146	0xbe1a2e06	-0.15056619
147	0xbe0b3f41	-0.13598348
148	0xbe9bf861	-0.30462936
149	0xbe30658f	-0.17226242
150	0xbe0d9149	-0.13824953
151	0xbe049579	-0.12947644
152	0xbe652457	-0.22377144
153	0xbe53e818	-0.20694005
154	0xbe8167b4	-0.25274432
155	0x3d316953	0.043313336
156	0xbdfea690	-0.12434113
157	0xbe1e98c4	-0.15487963
158	0xbe4c58ac	-0.199557
159	0xbe6abb01	-0.22922899
160	0xbda92103	-0.082582496
161	0xbe376736	-0.17910466
162	0xbe38548a	-0.18000999
163	0xbe107baf	-0.14109682
164	0xbe85a88c	-0.26105154
165	0xbeb73646	-0.35783595
166	0xbe62beb4	-0.2214306
167	0xbe3f09f6	-0.18656144
168	0xbe866f5f	-0.26256844
169	0xbe45f11a	-0.19330254
170	0xbe83c1c2	-0.25733763
171	0xbde60135	-0.11230699
172	0xbd22cdae	-0.039746933
173	0xbe5e958f	-0.2173674
174	0xbe8e7e82	-0.27830893
175	0xbe843ae4	-0.2582618
176	0xbdfa7f9c	-0.12231371
177	0xbe6bab17	-0.23014484
178	0xbd3fa759	-0.046790455
179	0xbd8e4cb6	-0.06948225
180	0xbdefb7fd	-0.11705015
181	0xbe9dce58	-0.3082149
182	0xbe331dda	-0.17491856
183	0xbe45d831	-0.19320752
184	0xbe976dd0	-0.29575968
185	0xbd3b6c1f	-0.04575741
186	0xbe3de2e3	-0.18543582
187	0xbec35db6	-0.38157433
188	0xbd54cab2	-0.051951118
189	0xbe022ef4	-0.12713224
190	0xbe4caaa6	-0.19986972
191	0xbe59b8d7	-0.21261917
192	0xbe7cda34	-0.24692613
193	0xbe93f4a4	-0.28897583
194	0xbea51ee4	-0.3225013
195	0xbe99b33d	-0.3001956
196	0xbec59b39	-0.38594988
197	0xbe3f6e57	-0.18694435
198	0xbe7e968d	-0.24862118
199	0xbe68c429	-0.22731079
200	0xbe261365	-0.16218336
201	0xbea28069	-0.31738594
202	0xbdadfa23	-0.084949754
203	0xbeaf33fd	-0.3421935
204	0xbe82fb86	-0.25582522
205	0xbe26e7e2	-0.16299394
206	0xbe8cffe6	-0.27538985
207	0xbe731fe8	-0.2374264
208	0xbe1e52c0	-0.15461254
209	0xbeabc1aa	-0.3354619
210	0xbeb768b9	-0.35822085
211	0xbe1984d6	-0.14992079
212	0xbe4c62a0	-0.19959497
213	0x3e29bf18	0.16576803
214	0x3d6ade3d	0.05734085
215	0xbe6a8b15	-0.22904618
216	0xbe5b0bef	-0.21391271
217	0xbe13fbb7	-0.1445149
218	0xbe1fc3b7	-0.15602003
219	0xbea4249e	-0.32059187
220	0xbe0b4860	-0.13601828
221	0xbe8dafb9	-0.27673128
222	0xbe93d3a5	-0.2887241
223	0xbdf3e4f1	-0.119089015
224	0x3bd3d48f	0.006464548
225	0xbe8955a5	-0.26823154
226	0xbe8aa5d5	-0.27079645
227	0xbeb7f0af	-0.35925815
228	0xbe8a0d73	-0.26963386
229	0xbdd775b9	-0.10520501
230	0xbe6b9cb1	-0.23008992
231	0xbddfed05	-0.1093388
232	0xbdf9bf02	-0.12194635
233	0xbe30d567	-0.17268907
234	0xbe1b1118	-0.1514324
235	0xbe03101e	-0.12799117
236	0xbe4d4eb4	-0.20049554
237	0xbe911905	-0.283394
238	0xbe36dd75	-0.17857917
239	0xbea16f97	-0.3153045
240	0xbece8e71	-0.4034305
241	0xbea3c36f	-0.31985041
242	0xbe4f1b10	-0.20225167
243	0xbdb11a19	-0.08647556
244	0xbdca7811	-0.09886182
245	0xbca69801	-0.020336153
246	0xbd81bc04	-0.06334689
247	0xbe33d943	-0.17563348
248	0xbe9ae211	-0.302506
249	0xbe2d6597	-0.16933285
250	0xbe3aa433	-0.182267
251	0xbe377b91	-0.1791823
252	0xbe8ce969	-0.27521828
253	0xbe309103	-0.17242818
254	0xbe0c7181	-0.13715173
255	0xbdfe3b38	-0.12413639

unstack2 f4 [768]
0	0xbc6386a3	-0.01388708
1	0xbdb6ce29	-0.08926041
2	0xbe086508	-0.1331979
3	0xbe04c469	-0.1296555
4	0xbe6e1a85	-0.23252304
5	0xbdfd9ee9	-0.12383825
6	0x3e10acee	0.14128467
7	0xbe2545b0	-0.16139865
8	0xbd8ad791	-0.06779397
9	0xbdb76999	-0.08955688
10	0xbd199a75	-0.037500817
11	0x3c8a0681	0.016848804
12	0xbd04a183	-0.032380592
13	0xbe4261f3	-0.18982677
14	0x3dae98db	0.085252486
15	0xbe01cabe	-0.12674996
16	0xbdaf5c19	-0.08562488
17	0x3d2ca1be	0.042146437
18	0xbe0f268d	-0.1397955
19	0xbda0128e	-0.07816039
20	0xbd3ac7e5	-0.04560079
21	0xbd551803	-0.052024852
22	0xbe3543a3	-0.17701583
23	0x3ba6c16c	0.0050889757
24	0xbd97e178	-0.074160516
25	0xbe04ebd5	-0.12980588
26	0xbe872b1b	-0.26400074
27	0xbc5156a2	-0.0127770025
28	0x3e63464e	0.22194788
29	0xbc86cd99	-0.016455458
30	0xbe372600	-0.1788559
31	0xbe3386bf	-0.1753187
32	0x3cfa1c77	0.030531151
33	0xbdcd2597	-0.10016935
34	0x3d055538	0.032551974
35	0xbe100e03	-0.14067845
36	0xbdd2d6ce	-0.10294877
37	0xbd62c6a5	-0.055365223
38	0x3e4c25b2	0.19936255
39	0x3e2a6e78	0.16643703
40	0xbe58c0f1	-0.21167351
41	0xbbb9f50c	-0.005674964
42	0x3b49f0ac	0.0030813618
43	0x3dd14430	0.10218084
44	0xbd183cee	-0.037167482
45	0x3e626515	0.22108872
46	0x3dc12e3b	0.09432646
47	0xbe24edf5	-0.16106398
48	0xbde1e96b	-0.11030849
49	0xbe166b05	-0.14689262
50	0x3d8b9398	0.06815261
51	0xbe50275a	-0.20327511
52	0x3e32d662	0.17464593
53	0xbd41240c	-0.047153518
54	0xbe029366	-0.1275154
55	0xbd9df58b	-0.07712849
56	0xbdfa4a03	-0.12221148
57	0x3e520a3d	0.20511718
58	0xbd9f7996	-0.077868626
59	0x3d11818a	0.03552393
60	0xbe14bbcf	-0.14524768
61	0xbdc3780d	-0.09544382
62	0xbe4abeb4	-0.1979931
63	0xbd8f23a9	-0.069892235
64	0xbdbd8435	-0.09253732
65	0xbd495768	-0.049155623
66	0x3e97e924	0.2967006
67	0xbe25f573	-0.16206913
68	0xbe1ab5f2	-0.15108469
69	0x3d872eb9	0.066007085
70	0xbde9ddd3	-0.11419263
71	0xbe77637d	-0.24159046
72	0x3e569733	0.20956115
73	0xbd036362	-0.0320772
74	0xbdb3fd8c	-0.087885946
75	0x3d209a33	0.039209556
76	0x3cd67786	0.02618004
77	0xbc5ac66a	-0.01335297
78	0xbda23d1f	-0.07921814
79	0x3dfc7238	0.12326473
80	0xbc2f5ff2	-0.0107040275
81	0xbe4320c0	-0.19055462
82	0x3e0bc0c3	0.13647752
83	0xbe178f16	-0.14800677
84	0xbdec8784	-0.11549285
85	0x3d7bead7	0.061503258
86	0xbe5aa5b0	-0.21352267
87	0x3e29a04b	0.16565053
88	0x3e15bf4b	0.14623754
89	0x3e0362be	0.12830636
90	0x3e5f7d99	0.21825255
91	0xbdb7b400	-0.08969879
92	0x3dd5c24f	0.10437452
93	0xbe227cef	-0.15867971
94	0xbe2515cd	-0.16121598
95	0xbe842081	-0.2580605
96	0x3e0f7cc3	0.14012437
97	0xbdec91bd	-0.11551235
98	0x3e05254d	0.1300251
99	0x3e837bca	0.2568038
100	0x3e1b4fc1	0.15167142
101	0xbdcc39b4	-0.099719435
102	0xbe870738	-0.26372695
103	0xbd23b03d	-0.039962996
104	0xbd003cd6	-0.031308018
105	0xbe31890f	-0.1733744
106	0x3dbf585f	0.09343027
107	0xbe4a30be	-0.19745156
108	0x3dafe080	0.08587742
109	0xbe0f051e	-0.13966796
110	0xbc20191f	-0.009771614
111	0x3db88ed3	0.090116166
112	0xbe3fa5ec	-0.18715638
113	0xbde8194b	-0.11332949
114	0xbd54396e	-0.05181258
115	0xbd6ba888	-0.05753377
116	0xbe809784	-0.25115597
117	0xbbf004e5	-0.007324802
118	0xbd532375	-0.051547486
119	0xbc24e62e	-0.010064645
120	0xbdc4382c	-0.095810264
121	0x3d882f21	0.06649614
122	0x3e691d43	0.22765069
123	0xbdf9606f	-0.121765964
124	0xbe89c3ed	-0.26907292
125	0x3d3483b3	0.04407091
126	0xbd88bb9c	-0.06676409
127	0x3e39034d	0.18067665
128	0x3d6a0ebf	0.05714297
129	0xbda66ec8	-0.081265986
130	0x3d9187de	0.07105993
131	0xbddebaff	-0.108755104
132	0x3e78f092	0.2431052
133	0xbe6a27d2	-0.22866753
134	0xbd4b4335	-0.04962464
135	0xbde7fa76	-0.113270685
136	0xbe564a94	-0.20926887
137	0xbda83039	-0.08212323
138	0x3c45e162	0.012077661
139	0x3e146ae3	0.14493899
140	0xbe4c52eb	-0.19953506
141	0x3deb9d1f	0.11504578
142	0xbd34edbc	-0.044172034
143	0x3e003784	0.12521178
144	0x3e8f381b	0.27972493
145	0xbd8cb08f	-0.068696134
146	0xbe2cffbd	-0.16894431
147	0x3e1b4e62	0.1516662
148	0x3db11332	0.08646239
149	0x3e34cbc2	0.17655852
150	0xbe2e201a	-0.17004433
151	0xbd7c14b7	-0.061543193
152	0xbe8529e6	-0.26008528
153	0xbd8daf89	-0.06918246
154	0xbe27e200	-0.16394806
155	0xbd4ce6ec	-0.05002491
156	0xbe9bb2ed	-0.30409947
157	0xbdf3d3b2	-0.11905612
158	0x3db110cd	0.086457826
159	0x3de23963	0.11046102
160	0x3dfa42e9	0.12219793
161	0xbe112457	-0.14174019
162	0xbd9b2cdf	-0.07576918
163	0xbe8e2bfc	-0.27767932
164	0xbe76158f	-0.24031661
165	0x3cc4e46d	0.024034703
166	0xbe313ea5	-0.17309053
167	0xbc957f66	-0.018249225
168	0x3d2de75a	0.042456962
169	0xbbd56eb2	-0.00651344
170	0xbe044d37	-0.1292008
171	0xbe1e608c	-0.15466517
172	0xbd370ab7	-0.044687953
173	0xbd618156	-0.055054985
174	0x3d91091c	0.070818156
175	0x3d182275	0.037142236
176	0xbe4b5e2f	-0.19860147
177	0x3cda42d6	0.026643198
178	0x3e820a39	0.25398424
179	0x3d1be3f6	0.038059197
180	0xbe0594f8	-0.13045108
181	0xbc50bd2b	-0.012740414
182	0xbd5e58a2	-0.054283746
183	0xbd6c187f	-0.05764055
184	0xba7a0643	-0.0009537676
185	0xbe4a3cbc	-0.19749731
186	0xbe47efe8	-0.1952511
187	0xbe004e4f	-0.12529872
188	0xbe631157	-0.22174583
189	0xbe063167	-0.13104783
190	0x3d3791bb	0.044816714
191	0xbd359d9c	-0.04433976
192	0x3e3e6250	0.1859219
193	0x3d7767b9	0.060401652
194	0xbd7484bd	-0.0596969
195	0x3e2135c5	0.15743168
196	0x3de72097	0.11285513
197	0x3c704ceb	0.014666776
198	0x3d342b68	0.043986708
199	0xbe0b2848	-0.13589585
200	0xbe4991c9	-0.19684519
201	0x3bf2e94e	0.007413066
202	0xbe5f054c	-0.21779364
203	0xbd2e0da8	-0.042493492
204	0xbd61c448	-0.05511883
205	0xbd9b7a5e	-0.07591699
206	0xbe0d76a6	-0.13814792
207	0xbb8d64aa	-0.0043149786
208	0xbdd7439d	-0.10510943
209	0xbe1addfc	-0.15123743
210	0x3dc1d583	0.09464552
211	0x3da796c4	0.08183053
212	0xbde082fd	-0.10962484
213	0xbd25032e	-0.040286236
214	0xbe15c448	-0.14625657
215	0xbd507d3c	-0.050900683
216	0xbde1e932	-0.110308066
217	0xbe74a30d	-0.23890324
218	0xbdd905c0	-0.105968
219	0xbd71fdbd	-0.059079874
220	0xbccc3b5e	-0.024930652
221	0xbe1bc334	-0.15211183
222	0xbc58f643	-0.013242307
223	0xbdd18800	-0.10231018
224	0xbd9f8485	-0.07788948
225	0x3e0cddf3	0.13756542
226	0xbe6804de	-0.22658107
227	0x3d7aa713	0.06119449
228	0xbd2309b4	-0.039804175
229	0xbda5950d	-0.0808507
230	0xbe0a39c0	-0.13498592
231	0xbd63d952	-0.055627175
232	0xbddb9868	-0.107224286
233	0x3d6fdd50	0.05856067
234	0xbb9b6e4a	-0.004743372
235	0xbe423a8b	-0.18967645
236	0xbe5f1894	-0.2178672
237	0x3dce0a98	0.10060614
238	0xbbfa6d89	-0.007642452
239	0x3dc8c622	0.09803416
240	0xbdcdc4bd	-0.100472905
241	0x3c3c5403	0.011494639
242	0xbd034593	-0.032048773
243	0xbd0f45a5	-0.034978528
244	0xbe5b9d4d	-0.21446724
245	0x3e00ab51	0.12565352
246	0xbe0dc8c2	-0.13846114
247	0x3cb02bf2	0.02150533
248	0x3d5dc2a9	0.05414072
249	0x3c38b11c	0.011272695
250	0xbd547246	-0.051866792
251	0x39fa181d	0.00047701682
252	0x3c5b84b9	0.013398343
253	0xbc33b80c	-0.010969173
254	0x3e1d817f	0.1538143
255	0x3dc11f0e	0.09429751

unstack3 f4 [768]
0	0xbc6386a3	-0.01388708
1	0xbdb6ce29	-0.08926041
2	0xbe086508	-0.1331979
3	0xbe04c469	-0.1296555
4	0xbe6e1a85	-0.23252304
5	0xbdfd9ee9	-0.12383825
6	0x3e10acee	0.14128467
7	0xbe2545b0	-0.16139865
8	0xbd8ad791	-0.06779397
9	0xbdb76999	-0.08955688
10	0xbd199a75	-0.037500817
11	0x3c8a0681	0.016848804
12	0xbd04a183	-0.032380592
13	0xbe4261f3	-0.18982677
14	0x3dae98db	0.085252486
15	0xbe01cabe	-0.12674996
16	0xbdaf5c19	-0.08562488
17	0x3d2ca1be	0.042146437
18	0xbe0f268d	-0.1397955
19	0xbda0128e	-0.07816039
20	0xbd3ac7e5	-0.04560079
21	0xbd551803	-0.052024852
22	0xbe3543a3	-0.17701583
23	0x3ba6c16c	0.0050889757
24	0xbd97e178	-0.074160516
25	0xbe04ebd5	-0.12980588
26	0xbe872b1b	-0.26400074
27	0xbc5156a2	-0.0127770025
28	0x3e63464e	0.22194788
29	0xbc86cd99	-0.016455458
30	0xbe372600	-0.1788559
31	0xbe3386bf	-0.1753187
32	0x3cfa1c77	0.030531151
33	0xbdcd2597	-0.10016935
34	0x3d055538	0.032551974
35	0xbe100e03	-0.14067845
36	0xbdd2d6ce	-0.10294877
37	0xbd62c6a5	-0.055365223
38	0x3e4c25b2	0.19936255
39	0x3e2a6e78	0.16643703
40	0xbe58c0f1	-0.21167351
41	0xbbb9f50c	-0.005674964
42	0x3b49f0ac	0.0030813618
43	0x3dd14430	0.10218084
44	0xbd183cee	-0.037167482
45	0x3e626515	0.22108872
46	0x3dc12e3b	0.09432646
47	0xbe24edf5	-0.16106398
48	0xbde1e96b	-0.11030849
49	0xbe166b05	-0.14689262
50	0x3d8b9398	0.06815261
51	0xbe50275a	-0.20327511
52	0x3e32d662	0.17464593
53	0xbd41240c	-0.047153518
54	0xbe029366	-0.1275154
55	0xbd9df58b	-0.07712849
56	0xbdfa4a03	-0.12221148
57	0x3e520a3d	0.20511718
58	0xbd9f7996	-0.077868626
59	0x3d11818a	0.03552393
60	0xbe14bbcf	-0.14524768
61	0xbdc3780d	-0.09544382
62	0xbe4abeb4	-0.1979931
63	0xbd8f23a9	-0.069892235
64	0xbdbd8435	-0.09253732
65	0xbd495768	-0.049155623
66	0x3e97e924	0.2967006
67	0xbe25f573	-0.16206913
68	0xbe1ab5f2	-0.15108469
69	0x3d872eb9	0.066007085
70	0xbde9ddd3	-0.11419263
71	0xbe77637d	-0.24159046
72	0x3e569733	0.20956115
73	0xbd036362	-0.0320772
74	0xbdb3fd8c	-0.087885946
75	0x3d209a33	0.039209556
76	0x3cd67786	0.02618004
77	0xbc5ac66a	-0.01335297
78	0xbda23d1f	-0.07921814
79	0x3dfc7238	0.12326473
80	0xbc2f5ff2	-0.0107040275
81	0xbe4320c0	-0.19055462
82	0x3e0bc0c3	0.13647752
83	0xbe178f16	-0.14800677
84	0xbdec8784	-0.11549285
85	0x3d7bead7	0.061503258
86	0xbe5aa5b0	-0.21352267
87	0x3e29a04b	0.16565053
88	0x3e15bf4b	0.14623754
89	0x3e0362be	0.12830636
90	0x3e5f7d99	0.21825255
91	0xbdb7b400	-0.08969879
92	0x3dd5c24f	0.10437452
93	0xbe227cef	-0.15867971
94	0xbe2515cd	-0.16121598
95	0xbe842081	-0.2580605
96	0x3e0f7cc3	0.14012437
97	0xbdec91bd	-0.11551235
98	0x3e05254d	0.1300251
99	0x3e837bca	0.2568038
100	0x3e1b4fc1	0.15167142
101	0xbdcc39b4	-0.099719435
102	0xbe870738	-0.26372695
103	0xbd23b03d	-0.039962996
104	0xbd003cd6	-0.031308018
105	0xbe31890f	-0.1733744
106	0x3dbf585f	0.09343027
107	0xbe4a30be	-0.19745156
108	0x3dafe080	0.08587742
109	0xbe0f051e	-0.13966796
110	0xbc20191f	-0.009771614
111	0x3db88ed3	0.090116166
112	0xbe3fa5ec	-0.18715638
113	0xbde8194b	-0.11332949
114	0xbd54396e	-0.05181258
115	0xbd6ba888	-0.05753377
116	0xbe809784	-0.25115597
117	0xbbf004e5	-0.007324802
118	0xbd532375	-0.051547486
119	0xbc24e62e	-0.010064645
120	0xbdc4382c	-0.095810264
121	0x3d882f21	0.06649614
122	0x3e691d43	0.22765069
123	0xbdf9606f	-0.121765964
124	0xbe89c3ed	-0.26907292
125	0x3d3483b3	0.04407091
126	0xbd88bb9c	-0.06676409
127	0x3e39034d	0.18067665
128	0x3d6a0ebf	0.05714297
129	0xbda66ec8	-0.081265986
130	0x3d9187de	0.07105993
131	0xbddebaff	-0.108755104
132	0x3e78f092	0.2431052
133	0xbe6a27d2	-0.22866753
134	0xbd4b4335	-0.04962464
135	0xbde7fa76	-0.113270685
136	0xbe564a94	-0.20926887
137	0xbda83039	-0.08212323
138	0x3c45e162	0.012077661
139	0x3e146ae3	0.14493899
140	0xbe4c52eb	-0.19953506
141	0x3deb9d1f	0.11504578
142	0xbd34edbc	-0.044172034
143	0x3e003784	0.12521178
144	0x3e8f381b	0.27972493
145	0xbd8cb08f	-0.068696134
146	0xbe2cffbd	-0.16894431
147	0x3e1b4e62	0.1516662
148	0x3db11332	0.08646239
149	0x3e34cbc2	0.17655852
150	0xbe2e201a	-0.17004433
151	0xbd7c14b7	-0.061543193
152	0xbe8529e6	-0.26008528
153	0xbd8daf89	-0.06918246
154	0xbe27e200	-0.16394806
155	0xbd4ce6ec	-0.05002491
156	0xbe9bb2ed	-0.30409947
157	0xbdf3d3b2	-0.11905612
158	0x3db110cd	0.086457826
159	0x3de23963	0.11046102
160	0x3dfa42e9	0.12219793
161	0xbe112457	-0.14174019
162	0xbd9b2cdf	-0.07576918
163	0xbe8e2bfc	-0.27767932
164	0xbe76158f	-0.24031661
165	0x3cc4e46d	0.024034703
166	0xbe313ea5	-0.17309053
167	0xbc957f66	-0.018249225
168	0x3d2de75a	0.042456962
169	0xbbd56eb2	-0.00651344
170	0xbe044d37	-0.1292008
171	0xbe1e608c	-0.15466517
172	0xbd370ab7	-0.044687953
173	0xbd618156	-0.055054985
174	0x3d91091c	0.070818156
175	0x3d182275	0.037142236
176	0xbe4b5e2f	-0.19860147
177	0x3cda42d6	0.026643198
178	0x3e820a39	0.25398424
179	0x3d1be3f6	0.038059197
180	0xbe0594f8	-0.13045108
181	0xbc50bd2b	-0.012740414
182	0xbd5e58a2	-0.054283746
183	0xbd6c187f	-0.05764055
184	0xba7a0643	-0.0009537676
185	0xbe4a3cbc	-0.19749731
186	0xbe47efe8	-0.1952511
187	0xbe004e4f	-0.12529872
188	0xbe631157	-0.22174583
189	0xbe063167	-0.13104783
190	0x3d3791bb	0.044816714
191	0xbd359d9c	-0.04433976
192	0x3e3e6250	0.1859219
193	0x3d7767b9	0.060401652
194	0xbd7484bd	-0.0596969
195	0x3e2135c5	0.15743168
196	0x3de72097	0.11285513
197	0x3c704ceb	0.014666776
198	0x3d342b68	0.043986708
199	0xbe0b2848	-0.13589585
200	0xbe4991c9	-0.19684519
201	0x3bf2e94e	0.007413066
202	0xbe5f054c	-0.21779364
203	0xbd2e0da8	-0.042493492
204	0xbd61c448	-0.05511883
205	0xbd9b7a5e	-0.07591699
206	0xbe0d76a6	-0.13814792
207	0xbb8d64aa	-0.0043149786
208	0xbdd7439d	-0.10510943
209	0xbe1addfc	-0.15123743
210	0x3dc1d583	0.09464552
211	0x3da796c4	0.08183053
212	0xbde082fd	-0.10962484
213	0xbd25032e	-0.040286236
214	0xbe15c448	-0.14625657
215	0xbd507d3c	-0.050900683
216	0xbde1e932	-0.110308066
217	0xbe74a30d	-0.23890324
218	0xbdd905c0	-0.105968
219	0xbd71fdbd	-0.059079874
220	0xbccc3b5e	-0.024930652
221	0xbe1bc334	-0.15211183
222	0xbc58f643	-0.013242307
223	0xbdd18800	-0.10231018
224	0xbd9f8485	-0.07788948
225	0x3e0cddf3	0.13756542
226	0xbe6804de	-0.22658107
227	0x3d7aa713	0.06119449
228	0xbd2309b4	-0.039804175
229	0xbda5950d	-0.0808507
230	0xbe0a39c0	-0.13498592
231	0xbd63d952	-0.055627175
232	0xbddb9868	-0.107224286
233	0x3d6fdd50	0.05856067
234	0xbb9b6e4a	-0.004743372
235	0xbe423a8b	-0.18967645
236	0xbe5f1894	-0.2178672
237	0x3dce0a98	0.10060614
238	0xbbfa6d89	-0.007642452
239	0x3dc8c622	0.09803416
240	0xbdcdc4bd	-0.100472905
241	0x3c3c5403	0.011494639
242	0xbd034593	-0.032048773
243	0xbd0f45a5	-0.034978528
244	0xbe5b9d4d	-0.21446724
245	0x3e00ab51	0.12565352
246	0xbe0dc8c2	-0.13846114
247	0x3cb02bf2	0.02150533
248	0x3d5dc2a9	0.05414072
249	0x3c38b11c	0.011272695
250	0xbd547246	-0.051866792
251	0x39fa181d	0.00047701682
252	0x3c5b84b9	0.013398343
253	0xbc33b80c	-0.010969173
254	0x3e1d817f	0.1538143
255	0x3dc11f0e	0.09429751

sequential/dense/MatMul i1 [16, 3840] scale=0.0055395532 zero_point=0
0	0xea	-0.121870175
1	0xe2	-0.1661866
2	0xdf	-0.18280526
3	0x1a	0.14402838
4	0x1d	0.16064705
5	0xde	-0.1883448
6	0xf6	-0.055395532
7	0xe6	-0.14402838
8	0x31	0.27143812
9	0x34	0.28805676
10	0x00	0.0
11	0xf0	-0.08863285
12	0xe7	-0.13848883
13	0x15	0.116330616
14	0x19	0.13848883
15	0xf4	-0.06647464
16	0x28	0.22158213
17	0x0b	0.060935088
18	0xee	-0.099711955
19	0xf5	-0.060935088
20	0xc9	-0.30467543
21	0xfb	-0.027697766
22	0x0b	0.060935088
23	0x2e	0.25481945
24	0x0b	0.060935088
25	0x1d	0.16064705
26	0x17	0.12740973
27	0x0d	0.07201419
28	0x26	0.21050303
29	0xe1	-0.17172615
30	0xf4	-0.06647464
31	0xed	-0.10525151
32	0xe8	-0.13294928
33	0x1c	0.1551075
34	0x1a	0.14402838
35	0xde	-0.1883448
36	0x19	0.13848883
37	0xd6	-0.23266123
38	0x14	0.110791065
39	0xe9	-0.12740973
40	0x0c	0.06647464
41	0x2a	0.23266123
42	0xed	-0.10525151
43	0x05	0.027697766
44	0xef	-0.0941724
45	0xd9	-0.21604258
46	0xff	-0.0055395532
47	0xfd	-0.01661866
48	0x0a	0.055395532
49	0x0a	0.055395532
50	0x03	0.01661866
51	0x0a	0.055395532
52	0x10	0.08863285
53	0xef	-0.0941724
54	0x11	0.0941724
55	0xf2	-0.07755375
56	0xe3	-0.16064705
57	0x1c	0.1551075
58	0x0c	0.06647464
59	0xfd	-0.01661866
60	0x05	0.027697766
61	0xde	-0.1883448
62	0xf7	-0.049855977
63	0x25	0.20496348
64	0xf5	-0.060935088
65	0x07	0.038776875
66	0xe1	-0.17172615
67	0x1c	0.1551075
68	0x02	0.0110791065
69	0x18	0.13294928
70	0xf7	-0.049855977
71	0xf2	-0.07755375
72	0xfd	-0.01661866
73	0xe0	-0.1772657
74	0xec	-0.110791065
75	0xde	-0.1883448
76	0x1b	0.14956793
77	0xf3	-0.07201419
78	0x05	0.027697766
79	0xfc	-0.022158213
80	0x10	0.08863285
81	0xf1	-0.0830933
82	0xf7	-0.049855977
83	0x0f	0.0830933
84	0x37	0.30467543
85	0x12	0.099711955
86	0xfc	-0.022158213
87	0xe2	-0.1661866
88	0x12	0.099711955
89	0x2a	0.23266123
90	0xdc	-0.19942391
91	0xe1	-0.17172615
92	0x0d	0.07201419
93	0x2b	0.23820078
94	0x06	0.03323732
95	0x18	0.13294928
96	0x25	0.20496348
97	0x16	0.121870175
98	0xe7	-0.13848883
99	0x15	0.116330616
100	0x31	0.27143812
101	0x10	0.08863285
102	0x29	0.22712168
103	0xfd	-0.01661866
104	0x1f	0.17172615
105	0xf1	-0.0830933
106	0xf7	-0.049855977
107	0x0f	0.0830933
108	0x07	0.038776875
109	0xf2	-0.07755375
110	0xee	-0.099711955
111	0xf0	-0.08863285
112	0xed	-0.10525151
113	0xff	-0.0055395532
114	0xf4	-0.06647464
115	0x09	0.049855977
116	0x01	0.0055395532
117	0x06	0.03323732
118	0x25	0.20496348
119	0x23	0.19388436
120	0x24	0.19942391
121	0x1e	0.1661866
122	0x14	0.110791065
123	0x0c	0.06647464
124	0xf6	-0.055395532
125	0x3e	0.3434523
126	0x18	0.13294928
127	0xfc	-0.022158213
128	0xf4	-0.06647464
129	0xf3	-0.07201419
130	0xee	-0.099711955
131	0xf8	-0.044316426
132	0x09	0.049855977
133	0x0c	0.06647464
134	0x08	0.044316426
135	0x00	0.0
136	0x13	0.10525151
137	0x07	0.038776875
138	0xfa	-0.03323732
139	0x02	0.0110791065
140	0xfd	-0.01661866
141	0xf9	-0.038776875
142	0x10	0.08863285
143	0xf7	-0.049855977
144	0x09	0.049855977
145	0x13	0.10525151
146	0x06	0.03323732
147	0x02	0.0110791065
148	0xf4	-0.06647464
149	0x06	0.03323732
150	0xf5	-0.060935088
151	0x00	0.0
152	0xf9	-0.038776875
153	0x11	0.0941724
154	0x14	0.110791065
155	0xf6	-0.055395532
156	0xfc	-0.022158213
157	0xee	-0.099711955
158	0x17	0.12740973
159	0xfa	-0.03323732
160	0xf5	-0.060935088
161	0xf8	-0.044316426
162	0x06	0.03323732
163	0xe3	-0.16064705
164	0xf4	-0.06647464
165	0xe8	-0.13294928
166	0x0c	0.06647464
167	0xec	-0.110791065
168	0xf2	-0.07755375
169	0x18	0.13294928
170	0xf8	-0.044316426
171	0xf3	-0.07201419
172	0xf0	-0.08863285
173	0xf8	-0.044316426
174	0xf6	-0.055395532
175	0xec	-0.110791065
176	0xfb	-0.027697766
177	0x0d	0.07201419
178	0x0d	0.07201419
179	0xf3	-0.07201419
180	0x0a	0.055395532
181	0x05	0.027697766
182	0xfe	-0.0110791065
183	0xf7	-0.049855977
184	0xf7	-0.049855977
185	0x2c	0.24374035
186	0xfe	-0.0110791065
187	0x03	0.01661866
188	0x01	0.0055395532
189	0xf1	-0.0830933
190	0xf0	-0.08863285
191	0x04	0.022158213
192	0xea	-0.121870175
193	0x11	0.0941724
194	0x09	0.049855977
195	0x02	0.0110791065
196	0x04	0.022158213
197	0x17	0.12740973
198	0xfa	-0.03323732
199	0xfa	-0.03323732
200	0xff	-0.0055395532
201	0xec	-0.110791065
202	0xde	-0.1883448
203	0xeb	-0.116330616
204	0x11	0.0941724
205	0xe3	-0.16064705
206	0xfa	-0.03323732
207	0xf6	-0.055395532
208	0x0f	0.0830933
209	0xe9	-0.12740973
210	0x02	0.0110791065
211	0x09	0.049855977
212	0x13	0.10525151
213	0x0b	0.060935088
214	0xf5	-0.060935088
215	0xf5	-0.060935088
216	0x09	0.049855977
217	0x11	0.0941724
218	0xef	-0.0941724
219	0xf8	-0.044316426
220	0xff	-0.0055395532
221	0x0f	0.0830933
222	0x03	0.01661866
223	0xf8	-0.044316426
224	0x12	0.099711955
225	0x10	0.08863285
226	0x06	0.03323732
227	0x0a	0.055395532
228	0x0e	0.07755375
229	0x10	0.08863285
230	0x0f	0.0830933
231	0xfc	-0.022158213
232	0x14	0.110791065
233	0xf4	-0.06647464
234	0xf5	-0.060935088
235	0xfe	-0.0110791065
236	0xfc	-0.022158213
237	0xf2	-0.07755375
238	0xf7	-0.049855977
239	0xfa	-0.03323732
240	0x00	0.0
241	0x05	0.027697766
242	0xf5	-0.060935088
243	0x03	0.01661866
244	0xf3	-0.07201419
245	0xf4	-0.06647464
246	0x0a	0.055395532
247	0x10	0.08863285
248	0xf6	-0.055395532
249	0x02	0.0110791065
250	0x06	0.03323732
251	0xf9	-0.038776875
252	0xeb	-0.116330616
253	0x20	0.1772657
254	0xfc	-0.022158213
255	0x01	0.0055395532

unstack4 f4 [768]
0	0xbc6386a3	-0.01388708
1	0xbdb6ce29	-0.08926041
2	0xbe086508	-0.1331979
3	0xbe04c469	-0.1296555
4	0xbe6e1a85	-0.23252304
5	0xbdfd9ee9	-0.12383825
6	0x3e10acee	0.14128467
7	0xbe2545b0	-0.16139865
8	0xbd8ad791	-0.06779397
9	0xbdb76999	-0.08955688
10	0xbd199a75	-0.037500817
11	0x3c8a0681	0.016848804
12	0xbd04a183	-0.032380592
13	0xbe4261f3	-0.18982677
14	0x3dae98db	0.085252486
15	0xbe01cabe	-0.12674996
16	0xbdaf5c19	-0.08562488
17	0x3d2ca1be	0.042146437
18	0xbe0f268d	-0.1397955
19	0xbda0128e	-0.07816039
20	0xbd3ac7e5	-0.04560079
21	0xbd551803	-0.052024852
22	0xbe3543a3	-0.17701583
23	0x3ba6c16c	0.0050889757
24	0xbd97e178	-0.074160516
25	0xbe04ebd5	-0.12980588
26	0xbe872b1b	-0.26400074
27	0xbc5156a2	-0.0127770025
28	0x3e63464e	0.22194788
29	0xbc86cd99	-0.016455458
30	0xbe372600	-0.1788559
31	0xbe3386bf	-0.1753187
32	0x3cfa1c77	0.030531151
33	0xbdcd2597	-0.10016935
34	0x3d055538	0.032551974
35	0xbe100e03	-0.14067845
36	0xbdd2d6ce	-0.10294877
37	0xbd62c6a5	-0.055365223
38	0x3e4c25b2	0.19936255
39	0x3e2a6e78	0.16643703
40	0xbe58c0f1	-0.21167351
41	0xbbb9f50c	-0.005674964
42	0x3b49f0ac	0.0030813618
43	0x3dd14430	0.10218084
44	0xbd183cee	-0.037167482
45	0x3e626515	0.22108872
46	0x3dc12e3b	0.09432646
47	0xbe24edf5	-0.16106398
48	0xbde1e96b	-0.11030849
49	0xbe166b05	-0.14689262
50	0x3d8b9398	0.06815261
51	0xbe50275a	-0.20327511
52	0x3e32d662	0.17464593
53	0xbd41240c	-0.047153518
54	0xbe029366	-0.1275154
55	0xbd9df58b	-0.07712849
56	0xbdfa4a03	-0.12221148
57	0x3e520a3d	0.20511718
58	0xbd9f7996	-0.077868626
59	0x3d11818a	0.03552393
60	0xbe14bbcf	-0.14524768
61	0xbdc3780d	-0.09544382
62	0xbe4abeb4	-0.1979931
63	0xbd8f23a9	-0.069892235
64	0xbdbd8435	-0.09253732
65	0xbd495768	-0.049155623
66	0x3e97e924	0.2967006
67	0xbe25f573	-0.16206913
68	0xbe1ab5f2	-0.15108469
69	0x3d872eb9	0.066007085
70	0xbde9ddd3	-0.11419263
71	0xbe77637d	-0.24159046
72	0x3e569733	0.20956115
73	0xbd036362	-0.0320772
74	0xbdb3fd8c	-0.087885946
75	0x3d209a33	0.039209556
76	0x3cd67786	0.02618004
77	0xbc5ac66a	-0.01335297
78	0xbda23d1f	-0.07921814
79	0x3dfc7238	0.12326473
80	0xbc2f5ff2	-0.0107040275
81	0xbe4320c0	-0.19055462
82	0x3e0bc0c3	0.13647752
83	0xbe178f16	-0.14800677
84	0xbdec8784	-0.11549285
85	0x3d7bead7	0.061503258
86	0xbe5aa5b0	-0.21352267
87	0x3e29a04b	0.16565053
88	0x3e15bf4b	0.14623754
89	0x3e0362be	0.12830636
90	0x3e5f7d99	0.21825255
91	0xbdb7b400	-0.08969879
92	0x3dd5c24f	0.10437452
93	0xbe227cef	-0.15867971
94	0xbe2515cd	-0.16121598
95	0xbe842081	-0.2580605
96	0x3e0f7cc3	0.14012437
97	0xbdec91bd	-0.11551235
98	0x3e05254d	0.1300251
99	0x3e837bca	0.2568038
100	0x3e1b4fc1	0.15167142
101	0xbdcc39b4	-0.099719435
102	0xbe870738	-0.26372695
103	0xbd23b03d	-0.039962996
104	0xbd003cd6	-0.031308018
105	0xbe31890f	-0.1733744
106	0x3dbf585f	0.09343027
107	0xbe4a30be	-0.19745156
108	0x3dafe080	0.08587742
109	0xbe0f051e	-0.13966796
110	0xbc20191f	-0.009771614
111	0x3db88ed3	0.090116166
112	0xbe3fa5ec	-0.18715638
113	0xbde8194b	-0.11332949
114	0xbd54396e	-0.05181258
115	0xbd6ba888	-0.05753377
116	0xbe809784	-0.25115597
117	0xbbf004e5	-0.007324802
118	0xbd532375	-0.051547486
119	0xbc24e62e	-0.010064645
120	0xbdc4382c	-0.095810264
121	0x3d882f21	0.06649614
122	0x3e691d43	0.22765069
123	0xbdf9606f	-0.121765964
124	0xbe89c3ed	-0.26907292
125	0x3d3483b3	0.04407091
126	0xbd88bb9c	-0.06676409
127	0x3e39034d	0.18067665
128	0x3d6a0ebf	0.05714297
129	0xbda66ec8	-0.081265986
130	0x3d9187de	0.07105993
131	0xbddebaff	-0.108755104
132	0x3e78f092	0.2431052
133	0xbe6a27d2	-0.22866753
134	0xbd4b4335	-0.04962464
135	0xbde7fa76	-0.113270685
136	0xbe564a94	-0.20926887
137	0xbda83039	-0.08212323
138	0x3c45e162	0.012077661
139	0x3e146ae3	0.14493899
140	0xbe4c52eb	-0.19953506
141	0x3deb9d1f	0.11504578
142	0xbd34edbc	-0.044172034
143	0x3e003784	0.12521178
144	0x3e8f381b	0.27972493
145	0xbd8cb08f	-0.068696134
146	0xbe2cffbd	-0.16894431
147	0x3e1b4e62	0.1516662
148	0x3db11332	0.08646239
149	0x3e34cbc2	0.17655852
150	0xbe2e201a	-0.17004433
151	0xbd7c14b7	-0.061543193
152	0xbe8529e6	-0.26008528
153	0xbd8daf89	-0.06918246
154	0xbe27e200	-0.16394806
155	0xbd4ce6ec	-0.05002491
156	0xbe9bb2ed	-0.30409947
157	0xbdf3d3b2	-0.11905612
158	0x3db110cd	0.086457826
159	0x3de23963	0.11046102
160	0x3dfa42e9	0.12219793
161	0xbe112457	-0.14174019
162	0xbd9b2cdf	-0.07576918
163	0xbe8e2bfc	-0.27767932
164	0xbe76158f	-0.24031661
165	0x3cc4e46d	0.024034703
166	0xbe313ea5	-0.17309053
167	0xbc957f66	-0.018249225
168	0x3d2de75a	0.042456962
169	0xbbd56eb2	-0.00651344
170	0xbe044d37	-0.1292008
171	0xbe1e608c	-0.15466517
172	0xbd370ab7	-0.044687953
173	0xbd618156	-0.055054985
174	0x3d91091c	0.070818156
175	0x3d182275	0.037142236
176	0xbe4b5e2f	-0.19860147
177	0x3cda42d6	0.026643198
178	0x3e820a39	0.25398424
179	0x3d1be3f6	0.038059197
180	0xbe0594f8	-0.13045108
181	0xbc50bd2b	-0.012740414
182	0xbd5e58a2	-0.054283746
183	0xbd6c187f	-0.05764055
184	0xba7a0643	-0.0009537676
185	0xbe4a3cbc	-0.19749731
186	0xbe47efe8	-0.1952511
187	0xbe004e4f	-0.12529872
188	0xbe631157	-0.22174583
189	0xbe063167	-0.13104783
190	0x3d3791bb	0.044816714
191	0xbd359d9c	-0.04433976
192	0x3e3e6250	0.1859219
193	0x3d7767b9	0.060401652
194	0xbd7484bd	-0.0596969
195	0x3e2135c5	0.15743168
196	0x3de72097	0.11285513
197	0x3c704ceb	0.014666776
198	0x3d342b68	0.043986708
199	0xbe0b2848	-0.13589585
200	0xbe4991c9	-0.19684519
201	0x3bf2e94e	0.007413066
202	0xbe5f054c	-0.21779364
203	0xbd2e0da8	-0.042493492
204	0xbd61c448	-0.05511883
205	0xbd9b7a5e	-0.07591699
206	0xbe0d76a6	-0.13814792
207	0xbb8d64aa	-0.0043149786
208	0xbdd7439d	-0.10510943
209	0xbe1addfc	-0.15123743
210	0x3dc1d583	0.09464552
211	0x3da796c4	0.08183053
212	0xbde082fd	-0.10962484
213	0xbd25032e	-0.040286236
214	0xbe15c448	-0.14625657
215	0xbd507d3c	-0.050900683
216	0xbde1e932	-0.110308066
217	0xbe74a30d	-0.23890324
218	0xbdd905c0	-0.105968
219	0xbd71fdbd	-0.059079874
220	0xbccc3b5e	-0.024930652
221	0xbe1bc334	-0.15211183
222	0xbc58f643	-0.013242307
223	0xbdd18800	-0.10231018
224	0xbd9f8485	-0.07788948
225	0x3e0cddf3	0.13756542
226	0xbe6804de	-0.22658107
227	0x3d7aa713	0.06119449
228	0xbd2309b4	-0.039804175
229	0xbda5950d	-0.0808507
230	0xbe0a39c0	-0.13498592
231	0xbd63d952	-0.055627175
232	0xbddb9868	-0.107224286
233	0x3d6fdd50	0.05856067
234	0xbb9b6e4a	-0.004743372
235	0xbe423a8b	-0.18967645
236	0xbe5f1894	-0.2178672
237	0x3dce0a98	0.10060614
238	0xbbfa6d89	-0.007642452
239	0x3dc8c622	0.09803416
240	0xbdcdc4bd	-0.100472905
241	0x3c3c5403	0.011494639
242	0xbd034593	-0.032048773
243	0xbd0f45a5	-0.034978528
244	0xbe5b9d4d	-0.21446724
245	0x3e00ab51	0.12565352
246	0xbe0dc8c2	-0.13846114
247	0x3cb02bf2	0.02150533
248	0x3d5dc2a9	0.05414072
249	0x3c38b11c	0.011272695
250	0xbd547246	-0.051866792
251	0x39fa181d	0.00047701682
252	0x3c5b84b9	0.013398343
253	0xbc33b80c	-0.010969173
254	0x3e1d817f	0.1538143
255	0x3dc11f0e	0.09429751

unstack5 f4 [768]
0	0xbc6386a3	-0.01388708
1	0xbdb6ce29	-0.08926041
2	0xbe086508	-0.1331979
3	0xbe04c469	-0.1296555
4	0xbe6e1a85	-0.23252304
5	0xbdfd9ee9	-0.12383825
6	0x3e10acee	0.14128467
7	0xbe2545b0	-0.16139865
8	0xbd8ad791	-0.06779397
9	0xbdb76999	-0.08955688
10	0xbd199a75	-0.037500817
11	0x3c8a0681	0.016848804
12	0xbd04a183	-0.032380592
13	0xbe4261f3	-0.18982677
14	0x3dae98db	0.085252486
15	0xbe01cabe	-0.12674996
16	0xbdaf5c19	-0.08562488
17	0x3d2ca1be	0.042146437
18	0xbe0f268d	-0.1397955
19	0xbda0128e	-0.07816039
20	0xbd3ac7e5	-0.04560079
21	0xbd551803	-0.052024852
22	0xbe3543a3	-0.17701583
23	0x3ba6c16c	0.0050889757
24	0xbd97e178	-0.074160516
25	0xbe04ebd5	-0.12980588
26	0xbe872b1b	-0.26400074
27	0xbc5156a2	-0.0127770025
28	0x3e63464e	0.22194788
29	0xbc86cd99	-0.016455458
30	0xbe372600	-0.1788559
31	0xbe3386bf	-0.1753187
32	0x3cfa1c77	0.030531151
33	0xbdcd2597	-0.10016935
34	0x3d055538	0.032551974
35	0xbe100e03	-0.14067845
36	0xbdd2d6ce	-0.10294877
37	0xbd62c6a5	-0.055365223
38	0x3e4c25b2	0.19936255
39	0x3e2a6e78	0.16643703
40	0xbe58c0f1	-0.21167351
41	0xbbb9f50c	-0.005674964
42	0x3b49f0ac	0.0030813618
43	0x3dd14430	0.10218084
44	0xbd183cee	-0.037167482
45	0x3e626515	0.22108872
46	0x3dc12e3b	0.09432646
47	0xbe24edf5	-0.16106398
48	0xbde1e96b	-0.11030849
49	0xbe166b05	-0.14689262
50	0x3d8b9398	0.06815261
51	0xbe50275a	-0.20327511
52	0x3e32d662	0.17464593
53	0xbd41240c	-0.047153518
54	0xbe029366	-0.1275154
55	0xbd9df58b	-0.07712849
56	0xbdfa4a03	-0.12221148
57	0x3e520a3d	0.20511718
58	0xbd9f7996	-0.077868626
59	0x3d11818a	0.03552393
60	0xbe14bbcf	-0.14524768
61	0xbdc3780d	-0.09544382
62	0xbe4abeb4	-0.1979931
63	0xbd8f23a9	-0.069892235
64	0xbdbd8435	-0.09253732
65	0xbd495768	-0.049155623
66	0x3e97e924	0.2967006
67	0xbe25f573	-0.16206913
68	0xbe1ab5f2	-0.15108469
69	0x3d872eb9	0.066007085
70	0xbde9ddd3	-0.11419263
71	0xbe77637d	-0.24159046
72	0x3e569733	0.20956115
73	0xbd036362	-0.0320772
74	0xbdb3fd8c	-0.087885946
75	0x3d209a33	0.039209556
76	0x3cd67786	0.02618004
77	0xbc5ac66a	-0.01335297
78	0xbda23d1f	-0.07921814
79	0x3dfc7238	0.12326473
80	0xbc2f5ff2	-0.0107040275
81	0xbe4320c0	-0.19055462
82	0x3e0bc0c3	0.13647752
83	0xbe178f16	-0.14800677
84	0xbdec8784	-0.11549285
85	0x3d7bead7	0.061503258
86	0xbe5aa5b0	-0.21352267
87	0x3e29a04b	0.16565053
88	0x3e15bf4b	0.14623754
89	0x3e0362be	0.12830636
90	0x3e5f7d99	0.21825255
91	0xbdb7b400	-0.08969879
92	0x3dd5c24f	0.10437452
93	0xbe227cef	-0.15867971
94	0xbe2515cd	-0.16121598
95	0xbe842081	-0.2580605
96	0x3e0f7cc3	0.14012437
97	0xbdec91bd	-0.11551235
98	0x3e05254d	0.1300251
99	0x3e837bca	0.2568038
100	0x3e1b4fc1	0.15167142
101	0xbdcc39b4	-0.099719435
102	0xbe870738	-0.26372695
103	0xbd23b03d	-0.039962996
104	0xbd003cd6	-0.031308018
105	0xbe31890f	-0.1733744
106	0x3dbf585f	0.09343027
107	0xbe4a30be	-0.19745156
108	0x3dafe080	0.08587742
109	0xbe0f051e	-0.13966796
110	0xbc20191f	-0.009771614
111	0x3db88ed3	0.090116166
112	0xbe3fa5ec	-0.18715638
113	0xbde8194b	-0.11332949
114	0xbd54396e	-0.05181258
115	0xbd6ba888	-0.05753377
116	0xbe809784	-0.25115597
117	0xbbf004e5	-0.007324802
118	0xbd532375	-0.051547486
119	0xbc24e62e	-0.010064645
120	0xbdc4382c	-0.095810264
121	0x3d882f21	0.06649614
122	0x3e691d43	0.22765069
123	0xbdf9606f	-0.121765964
124	0xbe89c3ed	-0.26907292
125	0x3d3483b3	0.04407091
126	0xbd88bb9c	-0.06676409
127	0x3e39034d	0.18067665
128	0x3d6a0ebf	0.05714297
129	0xbda66ec8	-0.081265986
130	0x3d9187de	0.07105993
131	0xbddebaff	-0.108755104
132	0x3e78f092	0.2431052
133	0xbe6a27d2	-0.22866753
134	0xbd4b4335	-0.04962464
135	0xbde7fa76	-0.113270685
136	0xbe564a94	-0.20926887
137	0xbda83039	-0.08212323
138	0x3c45e162	0.012077661
139	0x3e146ae3	0.14493899
140	0xbe4c52eb	-0.19953506
141	0x3deb9d1f	0.11504578
142	0xbd34edbc	-0.044172034
143	0x3e003784	0.12521178
144	0x3e8f381b	0.27972493
145	0xbd8cb08f	-0.068696134
146	0xbe2cffbd	-0.16894431
147	0x3e1b4e62	0.1516662
148	0x3db11332	0.08646239
149	0x3e34cbc2	0.17655852
150	0xbe2e201a	-0.17004433
151	0xbd7c14b7	-0.061543193
152	0xbe8529e6	-0.26008528
153	0xbd8daf89	-0.06918246
154	0xbe27e200	-0.16394806
155	0xbd4ce6ec	-0.05002491
156	0xbe9bb2ed	-0.30409947
157	0xbdf3d3b2	-0.11905612
158	0x3db110cd	0.086457826
159	0x3de23963	0.11046102
160	0x3dfa42e9	0.12219793
161	0xbe112457	-0.14174019
162	0xbd9b2cdf	-0.07576918
163	0xbe8e2bfc	-0.27767932
164	0xbe76158f	-0.24031661
165	0x3cc4e46d	0.024034703
166	0xbe313ea5	-0.17309053
167	0xbc957f66	-0.018249225
168	0x3d2de75a	0.042456962
169	0xbbd56eb2	-0.00651344
170	0xbe044d37	-0.1292008
171	0xbe1e608c	-0.15466517
172	0xbd370ab7	-0.044687953
173	0xbd618156	-0.055054985
174	0x3d91091c	0.070818156
175	0x3d182275	0.037142236
176	0xbe4b5e2f	-0.19860147
177	0x3cda42d6	0.026643198
178	0x3e820a39	0.25398424
179	0x3d1be3f6	0.038059197
180	0xbe0594f8	-0.13045108
181	0xbc50bd2b	-0.012740414
182	0xbd5e58a2	-0.054283746
183	0xbd6c187f	-0.05764055
184	0xba7a0643	-0.0009537676
185	0xbe4a3cbc	-0.19749731
186	0xbe47efe8	-0.1952511
187	0xbe004e4f	-0.12529872
188	0xbe631157	-0.22174583
189	0xbe063167	-0.13104783
190	0x3d3791bb	0.044816714
191	0xbd359d9c	-0.04433976
192	0x3e3e6250	0.1859219
193	0x3d7767b9	0.060401652
194	0xbd7484bd	-0.0596969
195	0x3e2135c5	0.15743168
196	0x3de72097	0.11285513
197	0x3c704ceb	0.014666776
198	0x3d342b68	0.043986708
199	0xbe0b2848	-0.13589585
200	0xbe4991c9	-0.19684519
201	0x3bf2e94e	0.007413066
202	0xbe5f054c	-0.21779364
203	0xbd2e0da8	-0.042493492
204	0xbd61c448	-0.05511883
205	0xbd9b7a5e	-0.07591699
206	0xbe0d76a6	-0.13814792
207	0xbb8d64aa	-0.0043149786
208	0xbdd7439d	-0.10510943
209	0xbe1addfc	-0.15123743
210	0x3dc1d583	0.09464552
211	0x3da796c4	0.08183053
212	0xbde082fd	-0.10962484
213	0xbd25032e	-0.040286236
214	0xbe15c448	-0.14625657
215	0xbd507d3c	-0.050900683
216	0xbde1e932	-0.110308066
217	0xbe74a30d	-0.23890324
218	0xbdd905c0	-0.105968
219	0xbd71fdbd	-0.059079874
220	0xbccc3b5e	-0.024930652
221	0xbe1bc334	-0.15211183
222	0xbc58f643	-0.013242307
223	0xbdd18800	-0.10231018
224	0xbd9f8485	-0.07788948
225	0x3e0cddf3	0.13756542
226	0xbe6804de	-0.22658107
227	0x3d7aa713	0.06119449
228	0xbd2309b4	-0.039804175
229	0xbda5950d	-0.0808507
230	0xbe0a39c0	-0.13498592
231	0xbd63d952	-0.055627175
232	0xbddb9868	-0.107224286
233	0x3d6fdd50	0.05856067
234	0xbb9b6e4a	-0.004743372
235	0xbe423a8b	-0.18967645
236	0xbe5f1894	-0.2178672
237	0x3dce0a98	0.10060614
238	0xbbfa6d89	-0.007642452
239	0x3dc8c622	0.09803416
240	0xbdcdc4bd	-0.100472905
241	0x3c3c5403	0.011494639
242	0xbd034593	-0.032048773
243	0xbd0f45a5	-0.034978528
244	0xbe5b9d4d	-0.21446724
245	0x3e00ab51	0.12565352
246	0xbe0dc8c2	-0.13846114
247	0x3cb02bf2	0.02150533
248	0x3d5dc2a9	0.05414072
249	0x3c38b11c	0.011272695
250	0xbd547246	-0.051866792
251	0x39fa181d	0.00047701682
252	0x3c5b84b9	0.013398343
253	0xbc33b80c	-0.010969173
254	0x3e1d817f	0.1538143
255	0x3dc11f0e	0.09429751
