Hierarchical_Quantized_Model.tflite (tflite, 176712 bytes, 12 tensors)

sequential/time_distributed/dense/BiasAdd/ReadVariableOp f4 [64]
00000000: 6e25 dc3d 2a9a acbd ba66 543d df7b dc3d
00000010: abc5 adbd 2ffa ef3c bf46 b5bc 31f3 3b3d
00000020: 880e 1dbd eff3 3abc 2a0c 2d3d 1edf 15bb
00000030: 3ce7 b0bd 009f 983d 1478 853d 2a08 cd3d
00000040: 4456 f83d 6895 333d 4352 32bb a5c6 b73d
00000050: cdef cc3d 058e b4bc 9d12 b13d 6bca b5bd
00000060: 7bf8 1ebd e4c1 0cbe 1016 643d 9836 0abd
00000070: 22b3 523d bcda e8bc 5df6 d7bd b0e3 f4bc
00000080: e507 f23b 2191 a4bd c917 e43c c7ac 01bd
00000090: 5046 6c3d 5e2e 0b3d d3d1 e63d ad32 703d
000000a0: d7c8 863d 38b0 cbbd 5f8f 41bd 6c35 353d
000000b0: 2474 49bd 4b85 b0bd 92ba b43d 4062 0c3d
000000c0: f818 31bd 5cfb 0fbd 592c 333c c6da 613c
000000d0: 6826 2ebd 3d42 3cbd 9ac6 aa3b 0542 0c3d
000000e0: 20eb c9bd f514 70bd dd34 06bd f598 003d
000000f0: 1bdc 113e 2c8e 583d 965f 98bc 4dff 373d
0.10749327 -0.08427842 0.05185578 0.10765814 -0.08484968 0.029294102 -0.02212846 0.045886222
-0.038343936 -0.011410697 0.04224793 -0.0022868584 -0.086378545 0.07452202 0.06517044 0.10011323
0.12125829 0.043843657 -0.0027209676 0.08973435 0.10006676 -0.022040376 0.08646128 -0.08876499
-0.03881119 -0.13745838 0.055685103 -0.03374347 0.051440366 -0.028424613 -0.10545037 -0.029893726
0.007386195 -0.08035494 0.027843373 -0.031658914 0.057684243 0.033979766 0.112704895 0.05864208
0.06581276 -0.099457204 -0.04725587 0.0442404 -0.049183026 -0.086191736 0.08824648 0.034273386
-0.043236703 -0.035151824 0.010935866 0.01378507 -0.042517096 -0.045961607 0.0052116634 0.03424265
-0.098593 -0.058613736 -0.032765258 0.03139587 0.1424412 0.05286996 -0.018600266 0.04492121

sequential/lstm/Read_2/ReadVariableOp f4 [512]
00000000: 3ec5 573d 761a 453c 4401 a3ba 55ee 92bd
00000010: 24be e7bd 1db0 ebbc bc5d 82bd 0002 ebbd
00000020: f9ae d1bd 79de f83c 8f5e b4bd 8db1 113d
00000030: fcb9 ddbd 39cc 5cbe 366e ccbc fcf6 10bd
00000040: 9ce4 6ebd 9ce4 8aba 057b e0bc 3555 0fbd
00000050: 60a5 23be 63b4 8cbb a5f2 3fbd a25a 2dbd
00000060: f412 7a3d 9938 8a3b eb73 3bbd 4a30 9dbd
00000070: 3757 45bd 7c63 503d 03fd bebd 997d 90bc
00000080: 9645 843a c6e8 92bd 675f a83c a8a6 0ebe
00000090: f7ec 61bd de2c 9fbd b6c6 e0bc b572 bcbd
000000a0: 8d7e 52bd f41c 203d 0a45 e1bd d84c e7bd
000000b0: 656f ddbd 68af a6bd 36d4 bb3a e3a2 88bd
000000c0: 3bf2 35bc 6d8d 853d 80f4 013d 8a71 7d3d
000000d0: 4c1c 00bd eefe 8dbd 65b8 5ebd 77b1 1abd
000000e0: ab76 ccbd 6425 51bd 1db0 7d3d fc64 24be
000000f0: ba14 213d 3d39 e0bd c8cb 3abc 13ec dcbd
00000100: 2c4f 7cbd a437 b23c ea7d 9cbd 58ee 76bc
00000110: 4b75 8bbb 5d3f 1dbe f728 423c 8d52 cfbd
00000120: 0023 d6bc 6c3a d2bc 5ac9 78bd 8a1f 343d
00000130: 03fd 80bd 5abf fabd 9986 36be b901 12bd
00000140: e1b4 28bd dabf 74bb d7b2 a2bd 5a9f 8ebd
00000150: 5a1a c33b 8db9 06be 55a4 94bd 9032 80bd
00000160: 7504 adbd a4e0 80bd 6bb7 f4bb 0f6f 813d
00000170: 65c1 b8bc 8d54 eabd 1383 b6bd fe88 19bd
00000180: ce16 16be ebc7 0ebe ea5e 0bbc e620 723d
00000190: 0a1f 4fbd 8a35 72bd c9c2 053b 8c44 46bd
000001a0: d1fc 24bd 4ec1 ed3b 7ddd 10bd 0466 edbd
000001b0: 1743 97bd 0684 84bb ed44 12be faf4 9cbd
000001c0: 63f9 15bd c98a bebd b75a 72bd 6d99 b5bd
000001d0: 0dec 9fbd 99c5 98bd e871 a8bd 25d7 c1bd
000001e0: 72d6 b8bd 52bf e0bd c928 eb3b 9cb1 1bbe
000001f0: a8ed 0abe c47b b0bd 9e6a abbd 5a7a 5fbd
00000200: 6772 883f 667a 893f 5cbf 7a3f 3f2a 793f
00000210: 91af 6c3f e7c1 813f 128a 7e3f 84df 613f
00000220: d0cc 8e3f d3ef 813f f895 643f 9fbb 803f
00000230: 0e52 713f 9dff 6d3f 053e 8d3f d282 6b3f
00000240: ad36 7c3f e00e 813f 432b 8c3f 4454 7e3f
00000250: df55 583f 8654 863f 2847 733f 30bd 763f
00000260: 2021 943f 7b05 843f 23a8 7b3f 4203 763f
00000270: fb9a 6d3f 0fcb 7e3f f0d0 7e3f a82b 8b3f
00000280: de3b 863f c696 783f bfd9 873f aea1 643f
00000290: 278f 7f3f 3858 703f 70ec 8a3f 1f00 753f
000002a0: 12cc 903f 30e6 883f 9189 663f 9c4a 703f
000002b0: 0528 753f e8f5 773f 6873 8f3f e05e 833f
000002c0: 3aec 783f dfba 883f 56b4 863f 029d 7a3f
000002d0: 4e9a 803f 9014 813f a8cd 6c3f 8434 7d3f
000002e0: ebd0 6c3f 692e 8d3f 749f 793f 4936 713f
000002f0: e079 903f 2014 743f 826b 853f b86b 6e3f
00000300: 8000 823f a57a 8b3f 26c5 6c3f c115 863f
00000310: 2589 763f fd42 763f e5d7 903f 9ff4 803f
00000320: 3816 863f aa44 863f 7a59 733f d0b9 873f
00000330: f49b 763f 07c9 753f 9166 573f 94dc 853f
00000340: 3292 7a3f cc29 7a3f a7a5 703f e96e 823f
00000350: c38b 773f 8301 7d3f f63d 793f 5f17 843f
00000360: d7d1 6d3f 074c 753f 441e 803f f18a 7d3f
00000370: e0bd 7a3f 842f 833f 27d3 863f 04b8 863f
00000380: 2e94 733f fc48 613f 332d 8c3f f5d9 833f
00000390: a3eb 8a3f 67cd 803f d2b7 7d3f ce35 6d3f
000003a0: 4050 883f fafc 7b3f 12cf 6d3f 2b61 693f
000003b0: 29b1 833f 0fac 8a3f 51c9 673f d828 703f
000003c0: 238d 833f d5bd 703f 5203 7e3f 8ded 793f
000003d0: 78af 7c3f e081 793f acbd 833f 1fb0 763f
000003e0: aa04 773f 09b8 6e3f ee0e a13f a30d 813f
000003f0: 79c1 7a3f dccd 833f b854 853f fab4 793f
0.05267834 0.012030235 -0.001243629 -0.071743645 -0.11315563 -0.0287705 -0.06365535 -0.11474991
-0.102384515 0.03037952 -0.08807098 0.035569716 -0.10826489 -0.2156228 -0.024954896 -0.035391793
-0.058323488 -0.0010596695 -0.02740241 -0.03499337 -0.15981054 -0.0042939647 -0.046862263 -0.042322762
0.06105323 0.0042181727 -0.045764845 -0.07675226 -0.048178878 0.050876126 -0.09325602 -0.017638015
0.0010091539 -0.07173304 0.020553304 -0.13930762 -0.055157628 -0.077722296 -0.027438503 -0.09201566
-0.05139022 0.03909011 -0.10999496 -0.11293954 -0.108122624 -0.08138925 0.0014330212 -0.06671693
-0.0111051155 0.065211155 0.031727314 0.061875857 -0.031276986 -0.069333896 -0.05437507 -0.0377669
-0.099835716 -0.05106105 0.061935533 -0.16054147 0.039326407 -0.10948417 -0.011401124 -0.10787215
-0.06159894 0.021755047 -0.07641204 -0.015071474 -0.004255926 -0.15356202 0.011850587 -0.10123167
-0.026139736 -0.025662623 -0.0607389 0.04397539 -0.06298258 -0.12243529 -0.17824782 -0.035646174
-0.041188125 -0.0037345798 -0.07944267 -0.06963988 0.005954069 -0.1315672 -0.07257906 -0.06259644
-0.08448116 -0.06292847 -0.007468154 0.06320011 -0.022553155 -0.11441908 -0.08911719 -0.03748416
-0.14657137 -0.1394345 -0.008506516 0.059113406 -0.05056671 -0.05913309 0.002041029 -0.048405215
-0.040280167 0.0072557097 -0.035367478 -0.115917236 -0.07385843 -0.0040440587 -0.14284106 -0.07663913
-0.036614787 -0.09303815 -0.059168544 -0.08867154 -0.07808695 -0.07459564 -0.08224851 -0.09464864
-0.09025277 -0.109739915 0.007176493 -0.15204471 -0.13567221 -0.086173564 -0.08369945 -0.054560043
1.0659913 1.0740478 0.9794824 0.9733009 0.92455393 1.0137299 0.9942943 0.8823168
1.1156254 1.0151314 0.89291334 1.0057257 0.9426583 0.9296816 1.1034552 0.9199649
0.9852093 1.0082664 1.0950702 0.9934733 0.8450603 1.0494545 0.9503045 0.9638243
1.1572609 1.0314173 0.9830343 0.9609872 0.92814606 0.9952859 0.99537563 1.0872698
1.048702 0.9710506 1.0613326 0.89309204 0.9982781 0.9388461 1.0853405 0.9570331
1.1312277 1.0695248 0.9005366 0.93863845 0.9576419 0.968596 1.1207094 1.0263329
0.97235453 1.0682029 1.0523784 0.97895825 1.004709 1.00844 0.92501307 0.9890826
0.92506284 1.1029788 0.9750893 0.9422346 1.1287193 0.9534321 1.0423434 0.93133116
1.0156403 1.0896803 0.92488325 1.0475389 0.96303016 0.96195966 1.1315886 1.0074652
1.0475531 1.0489705 0.95058405 1.060358 0.96331716 0.9600987 0.8414088 1.045794
0.97879326 0.97720027 0.94002765 1.0190097 0.96697634 0.9883043 0.9736017 1.0319632
0.92898315 0.95819134 1.0009236 0.9904013 0.97945976 1.0248876 1.0533189 1.0524907
0.9514798 0.8800199 1.0951294 1.030089 1.0853161 1.0062684 0.9910861 0.92660224
1.064949 0.98432887 0.9289409 0.9116389 1.028844 1.0833758 0.9054156 0.9381232
1.0277447 0.9403966 0.99223816 0.976281 0.98705244 0.974638 1.0292258 0.9636249
0.9649149 0.93249565 1.2582681 1.0082287 0.97951466 1.0297198 1.0416479 0.97541773

sequential/lstm_1/Read_2/ReadVariableOp f4 [256]
00000000: 5bf4 c33b ccca 9abd f897 b93d a9b8 8f3d
00000010: f98e 043d f3d6 8f3d 75b7 c03d ae32 783d
00000020: 01a3 843d 7159 993d 67fe 7fbd 4943 16bd
00000030: 8b93 d23d 37ac af3c 0b67 5b3d ef95 113e
00000040: b16e d53d 3a1b 25bc c712 633d 12cb 89bd
00000050: 1821 163e fd11 203e 7529 ce3c 6af2 953d
00000060: 3c51 febd 0381 973d 7676 e13d 4b1f 6e3d
00000070: 0a09 89bd 803a 973d a56d 6bbc 4ad2 ab3d
00000080: 95ee 203e 87ff 5a3c 78d8 af3c 82ce 353c
00000090: 9faa bb3c d557 903d 7601 853d 0ae7 65bd
000000a0: 1f93 7fbc 1b61 c33d 98f9 1e3e 2e44 f93d
000000b0: fad5 2b3e a224 c33c a481 75bd f6cd 29bc
000000c0: b831 643d 0d81 d2bb 269d a2bd 2f03 0e3d
000000d0: 8283 f03a 2395 643d a113 123e 80ca 6dbc
000000e0: 7af7 2f3d 98fc 2a3d 5569 483e 453a 21bd
000000f0: 260e 29bc 7779 a73d c9d9 123d da51 d73d
00000100: 76ec 893f dda6 8c3f 3ba6 863f d1f8 863f
00000110: ad52 893f 4c86 8c3f 7d0c 813f 1e09 853f
00000120: 2213 7b3f e400 933f cb8a 7d3f 3382 8f3f
00000130: 9988 8a3f 8a83 893f 15f8 883f 7098 773f
00000140: 34ca 853f 1ea7 8f3f 7c07 903f 2cea 8c3f
00000150: fb50 873f 1cf7 643f 4030 8a3f 53bf 853f
00000160: 36d0 843f 9b2c 8f3f f32d 8e3f 096b 8d3f
00000170: 5bc7 703f 714f 7c3f 3ad3 8b3f cd83 883f
00000180: d854 8a3f 1eb3 8b3f d918 8b3f 3668 883f
00000190: 7c69 8b3f 01a6 7c3f cb2f 8b3f d5b2 913f
000001a0: ad49 883f b7ca 883f b6e8 8b3f aa19 803f
000001b0: 2025 7b3f 3d8d 903f 954b 9a3f 968e 843f
000001c0: 798b 883f ed6a 7c3f cfb8 853f 5160 8a3f
000001d0: b089 8e3f cd7f 8e3f 3f38 833f 9d7d 8a3f
000001e0: 244b 953f 5def 843f 6eed 823f e3bc 8b3f
000001f0: d744 843f 4bdb 873f 6802 843f 9e69 8e3f
00000200: ce8f 223d 7c1c 2abc 0ea4 90bc a14c 64bc
00000210: adc0 b13d 0e4b 84bd 81f9 0d3c cb87 d13c
00000220: 909b 8cbd af92 073d 55d2 49bb c5d0 8d3d
00000230: d792 8fbd a5b3 303d a975 0b3c 3efc 8fbc
00000240: 6f7a 0bbb fc6e 6d3d cd95 093b 0b4b 7fbd
00000250: 8845 413c b42a e13c 5549 9dbd 252e 63bd
00000260: 836a 723d b2a9 95bc 5f8d b1bd c2c6 593d
00000270: f4fa e73c 8c06 143d 734f 83bd f0cf 84bd
00000280: aa2c 11bd ee1f 7fbd fca5 b7bd b11d ba3c
00000290: 85f2 893c bd0c f9bc 1725 04bd a5b7 82bc
000002a0: 8945 8ebc 0388 463d b742 aabd 4960 86bd
000002b0: 1fb7 62bd d294 b5bc ee05 b93d 2902 e6bb
000002c0: 512a b53c 35dd 213d b9ec 65bd fefc 9e3d
000002d0: 3ef7 1b3c 678e a3bd 8ab0 f73c b0c6 8fbd
000002e0: 0931 a83d 0424 13bd c1ad 8fbb daf1 c9bb
000002f0: 21c9 d2bc d4c7 63bd c2ec 17bd 6b89 03bd
00000300: 1b7b ee3d ee6a 9a3d ec42 fa3d 8f6b 353e
00000310: ba48 4c3e 8b25 d13d 8933 203e fe09 133e
00000320: 2c66 d43d a618 643e 467b fe3d 238f d23d
00000330: 3cf3 973e b475 0a3e da91 253e ae93 5b3e
00000340: cfb9 1d3e f910 3d3e b344 d43d 6011 093d
00000350: 6240 323e c4f0 1f3e 57fa f43d 7a2d 983e
00000360: 3845 25bc 0603 6d3e d439 5d3e 5b67 0c3e
00000370: f4b7 db3c 390e 1c3e d070 f43d f4fc 9f3e
00000380: 8213 323e d889 5c3e 2f7d 0a3e b485 343e
00000390: 9a89 df3d 7360 893d 295a c93d 9164 b33d
000003a0: 4194 993d f802 7b3e 0284 f43d 7172 963e
000003b0: 7348 6a3e 075f 143e 7769 7d3d 08f8 253e
000003c0: b37b d73d 7b16 703e fa57 de3c 7494 1d3e
000003d0: 788f 4d3e 5e73 e03d f068 8c3e 1621 d83d
000003e0: cd10 f93d 9062 4b3e 0e5d 633e 5d18 b23d
000003f0: b4ed 9a3d 8e84 253e da97 aa3d 28a1 263e
0.005980057 -0.07558212 0.09062189 0.07017643 0.03236291 0.0702342 0.09409992 0.060595207
0.06476403 0.07487763 -0.062498476 -0.036685262 0.10282048 0.021444423 0.053565066 0.14217351
0.10421503 -0.010077292 0.05543783 -0.06728186 0.14661062 0.15631862 0.025166253 0.073216274
-0.12417838 0.07397654 0.11008923 0.058135312 -0.06691177 0.07384205 -0.014369403 0.08389719
0.15716012 0.0133665865 0.021465525 0.011096599 0.022908507 0.07048003 0.06494419 -0.05612854
-0.015599041 0.09540006 0.155249 0.12171207 0.16780844 0.023821179 -0.059938088 -0.010364046
0.055711478 -0.0064240755 -0.0794013 0.034671005 0.0018349739 0.05580629 0.142653 -0.014513612
0.04296062 0.0417448 0.19571431 -0.03936221 -0.010318315 0.081774645 0.035852227 0.10513659
1.0775287 1.0988423 1.051948 1.0544683 1.0728356 1.0978484 1.0081936 1.0393407
0.9807607 1.1484647 0.99039906 1.1211609 1.0822936 1.0743268 1.0700709 0.96716976
1.0452332 1.1222875 1.1252284 1.1008964 1.0571588 0.8943956 1.0795975 1.0449013
1.0376041 1.1185488 1.1107773 1.104829 0.9405419 0.9855872 1.0923836 1.0665222
1.0807142 1.0914037 1.0866958 1.0656803 1.0891566 0.986908 1.087396 1.13827
1.0647484 1.0686864 1.0930393 1.0007832 0.98103523 1.1293103 1.2054316 1.0356014
1.0667564 0.98600656 1.0447024 1.0810643 1.1135769 1.1132752 1.025154 1.0819584
1.1663556 1.0385548 1.0228708 1.0917019 1.0333508 1.0613798 1.0313234 1.1125982
0.039687924 -0.010382768 -0.017656352 -0.013934285 0.08679328 -0.06459628 0.008665443 0.025577446
-0.06865609 0.033098873 -0.0030795534 0.06924585 -0.07010429 0.043140072 0.008511939 -0.017576333
-0.0021282693 0.05796717 0.002099383 -0.062327426 0.011796363 0.027486183 -0.076800026 -0.05546393
0.05918361 -0.018269394 -0.086695425 0.053168066 0.028317906 0.036139056 -0.06411638 -0.064849734
-0.035442986 -0.06228631 -0.08967206 0.022719236 0.016839275 -0.030401582 -0.032261934 -0.01595671
-0.017367141 0.048469555 -0.08313506 -0.06561334 -0.05535042 -0.02216569 0.09034334 -0.0070193005
0.022114905 0.0395176 -0.05613396 0.07763098 0.009519396 -0.079861455 0.030235548 -0.070203185
0.08212478 -0.03592302 -0.0043847268 -0.006162864 -0.025730671 -0.055610493 -0.037091024 -0.032113474
0.11644574 0.075399265 0.122197956 0.17716812 0.19949618 0.10212239 0.15644659 0.1435928
0.1037105 0.22275028 0.12425856 0.102812074 0.2967776 0.13521463 0.16168919 0.21443054
0.15402912 0.18463506 0.10364666 0.033463836 0.17407373 0.15619189 0.11961811 0.29722196
-0.010087304 0.23145685 0.21604091 0.13711302 0.026821114 0.152398 0.1193558 0.31247675
0.17390254 0.21536958 0.13524316 0.17629129 0.10914917 0.06707849 0.0983165 0.08759416
0.0749898 0.24512851 0.11939241 0.29384187 0.228792 0.14489375 0.061868157 0.16207898
0.10521641 0.23446076 0.02714156 0.15388662 0.2007426 0.109595045 0.2742381 0.10553186
0.121614076 0.19861817 0.22203466 0.08696053 0.075648695 0.16163847 0.08329745 0.16272414

sequential/dense_1/BiasAdd/ReadVariableOp f4 [16]
00000000: 797f dc3d 2aac 203d 906b 0b3d 6f19 cebc
00000010: f470 3d3d 0c19 c2bc d0d9 0ebd 362e c03b
00000020: e6a0 dd3c b73f 22bd 1378 0bbd 4d72 aa3c
00000030: 9a22 3f3d e4b5 13bd c430 b7bd 4674 5b3c
0.10766501 0.03922669 0.034038126 -0.025158612 0.0462503 -0.023693584 -0.03487569 0.005864884
0.027054261 -0.039611544 -0.03405006 0.020806456 0.046663858 -0.036062136 -0.08944848 0.013394421

sequential/time_distributed/dense/MatMul i1 [64, 63] scale=0.0061909514 zero_point=0
00000000: f7f6 1de3 ea0e fe16 2ef7 0fe9 1711 dee5
00000010: 1bfe 18ea 11f2 19dc 271f fce4 e3ff 1912
00000020: e715 eb0b e3f0 1e14 08ed 0df6 1ce8 f214
00000030: ff00 ecea 01f1 1712 0b12 dd04 f6fe 0e07
00000040: eb11 f4dc 4fe7 e143 13ee 0118 f92d ecdc
00000050: d70c 1be4 fa15 22df 1b22 fc0e 0bf6 22df
00000060: f61e 000a 0f1b de0c dc18 f0de e406 02f4
00000070: 2203 0710 c61c f9d4 0f24 f81f fe23 180d
00000080: 05ea 0f25 0316 38e8 1143 01e9 2106 f851
00000090: 1c16 0df6 142c 0f17 3510 f537 dfee 1904
000000a0: fb13 05ea 2001 e615 040d 1b00 f00f 1500
000000b0: 10e4 f4f1 24e7 07f4 19e7 03ea da23 19f6
000000c0: efea 45f1 ee4d f8ff 3de4 e331 e81c 4bea
000000d0: f243 26eb ff05 f5f9 e9fd 1521 fa3b 0304
000000e0: 2311 081b e2fa 1dfd e3f1 f7fc ff21 fb00
000000f0: ff1e f92b 0bf2 1df5 1518 1001 ec1c fd27
-0.055718563 -0.061909515 0.1795376 -0.1795376 -0.13620093 0.08667332 -0.012381903 0.13620093
0.28478378 -0.055718563 0.092864275 -0.14239189 0.14239189 0.10524617 -0.21049234 -0.16715568
0.16715568 -0.012381903 0.14858283 -0.13620093 0.10524617 -0.08667332 0.15477379 -0.22287425
0.2414471 0.19191949 -0.024763806 -0.17334664 -0.1795376 -0.0061909514 0.15477379 0.11143713
-0.15477379 0.13000998 -0.13000998 0.06810047 -0.1795376 -0.09905522 0.18572855 0.12381903
0.04952761 -0.117628075 0.08048237 -0.061909515 0.17334664 -0.14858283 -0.08667332 0.12381903
-0.0061909514 0.0 -0.12381903 -0.13620093 0.0061909514 -0.092864275 0.14239189 0.11143713
0.06810047 0.11143713 -0.2166833 0.024763806 -0.061909515 -0.012381903 0.08667332 0.04333666
-0.13000998 0.10524617 -0.074291416 -0.22287425 0.48908517 -0.15477379 -0.19191949 0.41479376
0.117628075 -0.11143713 0.0061909514 0.14858283 -0.04333666 0.27859282 -0.12381903 -0.22287425
-0.253829 0.074291416 0.16715568 -0.17334664 -0.037145708 0.13000998 0.21049234 -0.2043014
0.16715568 0.21049234 -0.024763806 0.08667332 0.06810047 -0.061909515 0.21049234 -0.2043014
-0.061909515 0.18572855 0.0 0.061909515 0.092864275 0.16715568 -0.21049234 0.074291416
-0.22287425 0.14858283 -0.09905522 -0.21049234 -0.17334664 0.037145708 0.012381903 -0.074291416
0.21049234 0.018572854 0.04333666 0.09905522 -0.3590752 0.17334664 -0.04333666 -0.27240187
0.092864275 0.22287425 -0.04952761 0.19191949 -0.012381903 0.2166833 0.14858283 0.08048237
0.030954758 -0.13620093 0.092864275 0.22906521 0.018572854 0.13620093 0.34669328 -0.14858283
0.10524617 0.41479376 0.0061909514 -0.14239189 0.2043014 0.037145708 -0.04952761 0.50146705
0.17334664 0.13620093 0.08048237 -0.061909515 0.12381903 0.27240187 0.092864275 0.14239189
0.32812044 0.09905522 -0.06810047 0.34050232 -0.2043014 -0.11143713 0.15477379 0.024763806
-0.030954758 0.117628075 0.030954758 -0.13620093 0.19811045 0.0061909514 -0.16096474 0.13000998
0.024763806 0.08048237 0.16715568 0.0 -0.09905522 0.092864275 0.13000998 0.0
0.09905522 -0.17334664 -0.074291416 -0.092864275 0.22287425 -0.15477379 0.04333666 -0.074291416
0.15477379 -0.15477379 0.018572854 -0.13620093 -0.23525615 0.2166833 0.15477379 -0.061909515
-0.10524617 -0.13620093 0.42717564 -0.092864275 -0.11143713 0.47670326 -0.04952761 -0.0061909514
0.37764803 -0.17334664 -0.1795376 0.30335662 -0.14858283 0.17334664 0.46432135 -0.13620093
-0.08667332 0.41479376 0.23525615 -0.13000998 -0.0061909514 0.030954758 -0.06810047 -0.04333666
-0.14239189 -0.018572854 0.13000998 0.2043014 -0.037145708 0.36526614 0.018572854 0.024763806
0.2166833 0.10524617 0.04952761 0.16715568 -0.18572855 -0.037145708 0.1795376 -0.018572854
-0.1795376 -0.092864275 -0.055718563 -0.024763806 -0.0061909514 0.2043014 -0.030954758 0.0
-0.0061909514 0.18572855 -0.04333666 0.2662109 0.06810047 -0.08667332 0.1795376 -0.06810047
0.13000998 0.14858283 0.09905522 0.0061909514 -0.12381903 0.17334664 -0.018572854 0.2414471

sequential/dense_1/MatMul i1 [16, 64] scale=0.005718817 zero_point=0
00000000: 3513 ab6b 44c1 cfc1 b7b3 343c b2a3 d45f
00000010: 970b 34f3 c15f 079c 4cf5 d551 1745 2fef
00000020: 03e6 eaf6 a234 2b20 bcd0 c0c0 07fd 1ecf
00000030: 0c0c 34f4 4ec1 53bb 11c2 9c55 be3f 2bdd
00000040: fa14 2fc5 3213 2423 c734 e334 4d20 1200
00000050: f518 03d5 de39 c327 1223 c1c0 3711 d7cd
00000060: 2656 bc23 0ee9 f0c5 db05 1abf b44c d028
00000070: 1cb4 df18 e6f4 4415 1dd4 2d3d 2bf6 ed31
00000080: f81e f601 c741 0308 0134 ad2d eb94 c956
00000090: bb26 e0d5 19e8 0ad4 fc3c 2310 151e dbd6
000000a0: b7c1 ca20 352d f5c9 d324 c943 4c54 0627
000000b0: 591d 0a17 16ff c123 ead9 2409 18fa 08cd
000000c0: 3ff4 0cfb 2d1b f1ff 1802 212e c210 2ece
000000d0: f80d dddd 02d0 d637 e02f 1fe5 d218 e2cb
000000e0: 1805 d737 ba34 d8c9 e3b7 3f30 f211 d0f1
000000f0: fa37 11bc cc1c fefa 25d3 24b2 c93a fbb5
0.3030973 0.108657524 -0.48609945 0.61191344 0.38887957 -0.36028546 -0.28022203 -0.36028546
-0.41747364 -0.44034892 0.29737848 0.343129 -0.44606772 -0.53185 -0.25162795 0.54328763
-0.6004758 0.06290699 0.29737848 -0.07434462 -0.36028546 0.54328763 0.04003172 -0.5718817
0.4346301 -0.06290699 -0.24590912 0.46322417 0.13153279 0.39459836 0.2687844 -0.09721989
0.017156452 -0.14868924 -0.12581398 -0.05718817 -0.5375688 0.29737848 0.24590912 0.18300214
-0.38887957 -0.27450323 -0.3660043 -0.3660043 0.04003172 -0.017156452 0.1715645 -0.28022203
0.06862581 0.06862581 0.29737848 -0.06862581 0.44606772 -0.36028546 0.4746618 -0.39459836
0.09721989 -0.35456666 -0.5718817 0.48609945 -0.3774419 0.36028546 0.24590912 -0.2001586
-0.034312904 0.11437634 0.2687844 -0.3374102 0.28594086 0.108657524 0.20587741 0.2001586
-0.32597256 0.29737848 -0.16584569 0.29737848 0.44034892 0.18300214 0.102938704 0.0
-0.06290699 0.13725162 0.017156452 -0.24590912 -0.19443978 0.32597256 -0.34884784 0.22303386
0.102938704 0.2001586 -0.36028546 -0.3660043 0.31453493 0.09721989 -0.2344715 -0.29165965
0.21731505 0.49181825 -0.38887957 0.2001586 0.08006344 -0.13153279 -0.09150107 -0.3374102
-0.21159624 0.028594084 0.14868924 -0.37172312 -0.4346301 0.4346301 -0.27450323 0.22875267
0.16012688 -0.4346301 -0.18872096 0.13725162 -0.14868924 -0.06862581 0.38887957 0.120095156
0.16584569 -0.25162795 0.25734678 0.34884784 0.24590912 -0.05718817 -0.108657524 0.28022203
-0.045750536 0.1715645 -0.05718817 0.005718817 -0.32597256 0.37172312 0.017156452 0.045750536
0.005718817 0.29737848 -0.4746618 0.25734678 -0.120095156 -0.6176322 -0.31453493 0.49181825
-0.39459836 0.21731505 -0.18300214 -0.24590912 0.14297043 -0.13725162 0.05718817 -0.25162795
-0.022875268 0.343129 0.2001586 0.09150107 0.120095156 0.1715645 -0.21159624 -0.24019031
-0.41747364 -0.36028546 -0.3088161 0.18300214 0.3030973 0.25734678 -0.06290699 -0.31453493
-0.25734678 0.20587741 -0.31453493 0.38316074 0.4346301 0.48038062 0.034312904 0.22303386
0.50897473 0.16584569 0.05718817 0.13153279 0.12581398 -0.005718817 -0.36028546 0.2001586
-0.12581398 -0.22303386 0.20587741 0.051469352 0.13725162 -0.034312904 0.045750536 -0.29165965
0.36028546 -0.06862581 0.06862581 -0.028594084 0.25734678 0.15440805 -0.08578225 -0.005718817
0.13725162 0.011437634 0.18872096 0.26306558 -0.35456666 0.09150107 0.26306558 -0.28594086
-0.045750536 0.07434462 -0.2001586 -0.2001586 0.011437634 -0.27450323 -0.24019031 0.31453493
-0.18300214 0.2687844 0.17728333 -0.15440805 -0.26306558 0.13725162 -0.1715645 -0.3030973
0.13725162 0.028594084 -0.2344715 0.31453493 -0.4003172 0.29737848 -0.22875267 -0.31453493
-0.16584569 -0.41747364 0.36028546 0.27450323 -0.08006344 0.09721989 -0.27450323 -0.08578225
-0.034312904 0.31453493 0.09721989 -0.38887957 -0.29737848 0.16012688 -0.011437634 -0.034312904
0.21159624 -0.25734678 0.20587741 -0.44606772 -0.31453493 0.33169138 -0.028594084 -0.42891127

sequential/lstm/Read_2/ReadVariableOp1 f4 [512]
00000000: 3ec5 573d 761a 453c 4401 a3ba 55ee 92bd
00000010: 24be e7bd 1db0 ebbc bc5d 82bd 0002 ebbd
00000020: f9ae d1bd 79de f83c 8f5e b4bd 8db1 113d
00000030: fcb9 ddbd 39cc 5cbe 366e ccbc fcf6 10bd
00000040: 9ce4 6ebd 9ce4 8aba 057b e0bc 3555 0fbd
00000050: 60a5 23be 63b4 8cbb a5f2 3fbd a25a 2dbd
00000060: f412 7a3d 9938 8a3b eb73 3bbd 4a30 9dbd
00000070: 3757 45bd 7c63 503d 03fd bebd 997d 90bc
00000080: 9645 843a c6e8 92bd 675f a83c a8a6 0ebe
00000090: f7ec 61bd de2c 9fbd b6c6 e0bc b572 bcbd
000000a0: 8d7e 52bd f41c 203d 0a45 e1bd d84c e7bd
000000b0: 656f ddbd 68af a6bd 36d4 bb3a e3a2 88bd
000000c0: 3bf2 35bc 6d8d 853d 80f4 013d 8a71 7d3d
000000d0: 4c1c 00bd eefe 8dbd 65b8 5ebd 77b1 1abd
000000e0: ab76 ccbd 6425 51bd 1db0 7d3d fc64 24be
000000f0: ba14 213d 3d39 e0bd c8cb 3abc 13ec dcbd
00000100: 2c4f 7cbd a437 b23c ea7d 9cbd 58ee 76bc
00000110: 4b75 8bbb 5d3f 1dbe f728 423c 8d52 cfbd
00000120: 0023 d6bc 6c3a d2bc 5ac9 78bd 8a1f 343d
00000130: 03fd 80bd 5abf fabd 9986 36be b901 12bd
00000140: e1b4 28bd dabf 74bb d7b2 a2bd 5a9f 8ebd
00000150: 5a1a c33b 8db9 06be 55a4 94bd 9032 80bd
00000160: 7504 adbd a4e0 80bd 6bb7 f4bb 0f6f 813d
00000170: 65c1 b8bc 8d54 eabd 1383 b6bd fe88 19bd
00000180: ce16 16be ebc7 0ebe ea5e 0bbc e620 723d
00000190: 0a1f 4fbd 8a35 72bd c9c2 053b 8c44 46bd
000001a0: d1fc 24bd 4ec1 ed3b 7ddd 10bd 0466 edbd
000001b0: 1743 97bd 0684 84bb ed44 12be faf4 9cbd
000001c0: 63f9 15bd c98a bebd b75a 72bd 6d99 b5bd
000001d0: 0dec 9fbd 99c5 98bd e871 a8bd 25d7 c1bd
000001e0: 72d6 b8bd 52bf e0bd c928 eb3b 9cb1 1bbe
000001f0: a8ed 0abe c47b b0bd 9e6a abbd 5a7a 5fbd
00000200: 6772 883f 667a 893f 5cbf 7a3f 3f2a 793f
00000210: 91af 6c3f e7c1 813f 128a 7e3f 84df 613f
00000220: d0cc 8e3f d3ef 813f f895 643f 9fbb 803f
00000230: 0e52 713f 9dff 6d3f 053e 8d3f d282 6b3f
00000240: ad36 7c3f e00e 813f 432b 8c3f 4454 7e3f
00000250: df55 583f 8654 863f 2847 733f 30bd 763f
00000260: 2021 943f 7b05 843f 23a8 7b3f 4203 763f
00000270: fb9a 6d3f 0fcb 7e3f f0d0 7e3f a82b 8b3f
00000280: de3b 863f c696 783f bfd9 873f aea1 643f
00000290: 278f 7f3f 3858 703f 70ec 8a3f 1f00 753f
000002a0: 12cc 903f 30e6 883f 9189 663f 9c4a 703f
000002b0: 0528 753f e8f5 773f 6873 8f3f e05e 833f
000002c0: 3aec 783f dfba 883f 56b4 863f 029d 7a3f
000002d0: 4e9a 803f 9014 813f a8cd 6c3f 8434 7d3f
000002e0: ebd0 6c3f 692e 8d3f 749f 793f 4936 713f
000002f0: e079 903f 2014 743f 826b 853f b86b 6e3f
00000300: 8000 823f a57a 8b3f 26c5 6c3f c115 863f
00000310: 2589 763f fd42 763f e5d7 903f 9ff4 803f
00000320: 3816 863f aa44 863f 7a59 733f d0b9 873f
00000330: f49b 763f 07c9 753f 9166 573f 94dc 853f
00000340: 3292 7a3f cc29 7a3f a7a5 703f e96e 823f
00000350: c38b 773f 8301 7d3f f63d 793f 5f17 843f
00000360: d7d1 6d3f 074c 753f 441e 803f f18a 7d3f
00000370: e0bd 7a3f 842f 833f 27d3 863f 04b8 863f
00000380: 2e94 733f fc48 613f 332d 8c3f f5d9 833f
00000390: a3eb 8a3f 67cd 803f d2b7 7d3f ce35 6d3f
000003a0: 4050 883f fafc 7b3f 12cf 6d3f 2b61 693f
000003b0: 29b1 833f 0fac 8a3f 51c9 673f d828 703f
000003c0: 238d 833f d5bd 703f 5203 7e3f 8ded 793f
000003d0: 78af 7c3f e081 793f acbd 833f 1fb0 763f
000003e0: aa04 773f 09b8 6e3f ee0e a13f a30d 813f
000003f0: 79c1 7a3f dccd 833f b854 853f fab4 793f
0.05267834 0.012030235 -0.001243629 -0.071743645 -0.11315563 -0.0287705 -0.06365535 -0.11474991
-0.102384515 0.03037952 -0.08807098 0.035569716 -0.10826489 -0.2156228 -0.024954896 -0.035391793
-0.058323488 -0.0010596695 -0.02740241 -0.03499337 -0.15981054 -0.0042939647 -0.046862263 -0.042322762
0.06105323 0.0042181727 -0.045764845 -0.07675226 -0.048178878 0.050876126 -0.09325602 -0.017638015
0.0010091539 -0.07173304 0.020553304 -0.13930762 -0.055157628 -0.077722296 -0.027438503 -0.09201566
-0.05139022 0.03909011 -0.10999496 -0.11293954 -0.108122624 -0.08138925 0.0014330212 -0.06671693
-0.0111051155 0.065211155 0.031727314 0.061875857 -0.031276986 -0.069333896 -0.05437507 -0.0377669
-0.099835716 -0.05106105 0.061935533 -0.16054147 0.039326407 -0.10948417 -0.011401124 -0.10787215
-0.06159894 0.021755047 -0.07641204 -0.015071474 -0.004255926 -0.15356202 0.011850587 -0.10123167
-0.026139736 -0.025662623 -0.0607389 0.04397539 -0.06298258 -0.12243529 -0.17824782 -0.035646174
-0.041188125 -0.0037345798 -0.07944267 -0.06963988 0.005954069 -0.1315672 -0.07257906 -0.06259644
-0.08448116 -0.06292847 -0.007468154 0.06320011 -0.022553155 -0.11441908 -0.08911719 -0.03748416
-0.14657137 -0.1394345 -0.008506516 0.059113406 -0.05056671 -0.05913309 0.002041029 -0.048405215
-0.040280167 0.0072557097 -0.035367478 -0.115917236 -0.07385843 -0.0040440587 -0.14284106 -0.07663913
-0.036614787 -0.09303815 -0.059168544 -0.08867154 -0.07808695 -0.07459564 -0.08224851 -0.09464864
-0.09025277 -0.109739915 0.007176493 -0.15204471 -0.13567221 -0.086173564 -0.08369945 -0.054560043
1.0659913 1.0740478 0.9794824 0.9733009 0.92455393 1.0137299 0.9942943 0.8823168
1.1156254 1.0151314 0.89291334 1.0057257 0.9426583 0.9296816 1.1034552 0.9199649
0.9852093 1.0082664 1.0950702 0.9934733 0.8450603 1.0494545 0.9503045 0.9638243
1.1572609 1.0314173 0.9830343 0.9609872 0.92814606 0.9952859 0.99537563 1.0872698
1.048702 0.9710506 1.0613326 0.89309204 0.9982781 0.9388461 1.0853405 0.9570331
1.1312277 1.0695248 0.9005366 0.93863845 0.9576419 0.968596 1.1207094 1.0263329
0.97235453 1.0682029 1.0523784 0.97895825 1.004709 1.00844 0.92501307 0.9890826
0.92506284 1.1029788 0.9750893 0.9422346 1.1287193 0.9534321 1.0423434 0.93133116
1.0156403 1.0896803 0.92488325 1.0475389 0.96303016 0.96195966 1.1315886 1.0074652
1.0475531 1.0489705 0.95058405 1.060358 0.96331716 0.9600987 0.8414088 1.045794
0.97879326 0.97720027 0.94002765 1.0190097 0.96697634 0.9883043 0.9736017 1.0319632
0.92898315 0.95819134 1.0009236 0.9904013 0.97945976 1.0248876 1.0533189 1.0524907
0.9514798 0.8800199 1.0951294 1.030089 1.0853161 1.0062684 0.9910861 0.92660224
1.064949 0.98432887 0.9289409 0.9116389 1.028844 1.0833758 0.9054156 0.9381232
1.0277447 0.9403966 0.99223816 0.976281 0.98705244 0.974638 1.0292258 0.9636249
0.9649149 0.93249565 1.2582681 1.0082287 0.97951466 1.0297198 1.0416479 0.97541773

while/MatMul_11 i1 [512, 128] scale=0.0027215206 zero_point=0
00000000: fb19 0d02 250d f705 f4fe e5cb 38d2 f934
00000010: d5e9 0edd 0404 2a1e 3213 24fc f6f9 0407
00000020: da1c eee2 1134 07e9 ef12 fb0f d80e 32ea
00000030: 0209 f30d fbf9 0c02 1bfc edfa 3000 1eec
00000040: 19e6 11fe c01e 031f e8fe 2e0d f314 09a7
00000050: 2909 24e4 fde1 f206 fe02 e902 dbfe 35dc
00000060: 191d fc36 2c0c f5e5 150c fde3 d4f2 08ed
00000070: 2703 15ee 100a 1ffc 14e7 00ed ddf6 f7fb
00000080: 1d09 eef8 04ea c923 05ee 2203 1cb7 0b2a
00000090: 09f1 25d8 2a2d 1227 0815 4614 19e2 2dfa
000000a0: 0c25 ef21 e725 1ee6 06ea 14e1 19f0 07f3
000000b0: 261f e1e1 14ec ea03 f1fb 00e8 2a1a 27fc
000000c0: 0522 f130 ef23 dc25 0719 fdfa d824 f8ef
000000d0: eede 23fb 0106 0d01 cd0a 1b03 19f9 43ee
000000e0: f5fe 3d2a 11e7 e608 09f4 eed9 f347 ea08
000000f0: 0f1f 0ff5 fee7 0c00 0111 e103 18cf 0c17
-0.013607603 0.06803802 0.035379767 0.005443041 0.100696266 0.035379767 -0.024493685 0.013607603
-0.03265825 -0.005443041 -0.07348105 -0.14424059 0.15240516 -0.12518995 -0.019050645 0.14151907
-0.11702538 -0.06259497 0.03810129 -0.09525322 0.010886082 0.010886082 0.114303865 0.081645615
0.13607603 0.051708892 0.09797474 -0.010886082 -0.027215205 -0.019050645 0.010886082 0.019050645
-0.103417784 0.07620258 -0.04898737 -0.081645615 0.04626585 0.14151907 0.019050645 -0.06259497
-0.04626585 0.04898737 -0.013607603 0.040822808 -0.10886082 0.03810129 0.13607603 -0.059873454
0.005443041 0.024493685 -0.035379767 0.035379767 -0.013607603 -0.019050645 0.03265825 0.005443041
0.07348105 -0.010886082 -0.051708892 -0.016329125 0.130633 0.0 0.081645615 -0.05443041
0.06803802 -0.070759535 0.04626585 -0.005443041 -0.17417732 0.081645615 0.008164562 0.08436714
-0.0653165 -0.005443041 0.12518995 0.035379767 -0.035379767 0.05443041 0.024493685 -0.24221534
0.111582346 0.024493685 0.09797474 -0.07620258 -0.008164562 -0.08436714 -0.03810129 0.016329125
-0.005443041 0.005443041 -0.06259497 0.005443041 -0.100696266 -0.005443041 0.14424059 -0.09797474
0.06803802 0.0789241 -0.010886082 0.1469621 0.11974691 0.03265825 -0.029936727 -0.07348105
0.057151932 0.03265825 -0.008164562 -0.0789241 -0.11974691 -0.03810129 0.021772165 -0.051708892
0.1061393 0.008164562 0.057151932 -0.04898737 0.04354433 0.027215205 0.08436714 -0.010886082
0.05443041 -0.06803802 0.0 -0.051708892 -0.09525322 -0.027215205 -0.024493685 -0.013607603
0.0789241 0.024493685 -0.04898737 -0.021772165 0.010886082 -0.059873454 -0.14968364 0.09525322
0.013607603 -0.04898737 0.0925317 0.008164562 0.07620258 -0.198671 0.029936727 0.114303865
0.024493685 -0.040822808 0.100696266 -0.10886082 0.114303865 0.12246843 0.04898737 0.1061393
0.021772165 0.057151932 0.19050644 0.05443041 0.06803802 -0.081645615 0.12246843 -0.016329125
0.03265825 0.100696266 -0.04626585 0.08981018 -0.06803802 0.100696266 0.081645615 -0.070759535
0.016329125 -0.059873454 0.05443041 -0.08436714 0.06803802 -0.04354433 0.019050645 -0.035379767
0.103417784 0.08436714 -0.08436714 -0.08436714 0.05443041 -0.05443041 -0.059873454 0.008164562
-0.040822808 -0.013607603 0.0 -0.0653165 0.114303865 0.070759535 0.1061393 -0.010886082
0.013607603 0.0925317 -0.040822808 0.130633 -0.04626585 0.09525322 -0.09797474 0.100696266
0.019050645 0.06803802 -0.008164562 -0.016329125 -0.10886082 0.09797474 -0.021772165 -0.04626585
-0.04898737 -0.0925317 0.09525322 -0.013607603 0.0027215206 0.016329125 0.035379767 0.0027215206
-0.13879755 0.027215205 0.07348105 0.008164562 0.06803802 -0.019050645 0.18234187 -0.04898737
-0.029936727 -0.005443041 0.16601276 0.114303865 0.04626585 -0.06803802 -0.070759535 0.021772165
0.024493685 -0.03265825 -0.04898737 -0.1061393 -0.035379767 0.19322796 -0.059873454 0.021772165
0.040822808 0.08436714 0.040822808 -0.029936727 -0.005443041 -0.06803802 0.03265825 0.0
0.0027215206 0.04626585 -0.08436714 0.008164562 0.0653165 -0.13335451 0.03265825 0.06259497

while/MatMul i1 [512, 64] scale=0.0044295564 zero_point=0
00000000: 100f 0efb fa27 e02e ebcb 12ef e01c e70e
00000010: 0005 1cf4 24f4 13cc fb0c ecd8 f3e6 fbec
00000020: 13d9 dfe6 20f3 0c25 19ce c4fe edec e9e4
00000030: d501 fded 0be4 ddf0 fbd6 0b22 080e 142a
00000040: 0a04 10ef e810 1508 ffde 1911 eded 0013
00000050: 0d0f 07ec 382b f416 fd13 e713 0103 f7ef
00000060: ffe3 0106 1803 2007 0822 0701 fee4 07ea
00000070: eb1f eade e9fd d60b f2d4 f613 f70c 00ee
00000080: 021f 06f8 28d1 e6c7 14f3 fe21 04e8 09f3
00000090: fee8 f414 f704 1cd0 0b14 0613 0fe1 f81c
000000a0: f3f7 0f28 0cdf e7f7 d3f2 e11d 16f3 fad5
000000b0: 07dd 3b1c 0edf ffce 3015 352b dc09 f40b
000000c0: 0713 ee1d 1e07 c3f0 f5f1 0508 0621 2110
000000d0: 2ee5 fa24 e7e3 0fee 21fb 15ea 2305 090d
000000e0: 07ee 0829 0201 05eb 11f5 ea0b 05e6 1200
000000f0: fdcf 1d22 1006 1303 ffef 0027 fd0f cd1a
0.0708729 0.06644335 0.06201379 -0.022147782 -0.026577339 0.17275271 -0.1417458 0.2037596
-0.093020685 -0.23476648 0.079732016 -0.07530246 -0.1417458 0.12402758 -0.11073891 0.06201379
0.0 0.022147782 0.12402758 -0.053154677 0.15946403 -0.053154677 0.08416157 -0.23033693
-0.022147782 0.053154677 -0.08859113 -0.17718226 -0.057584234 -0.11516847 -0.022147782 -0.08859113
0.08416157 -0.17275271 -0.14617535 -0.11516847 0.1417458 -0.057584234 0.053154677 0.16389358
0.11073891 -0.22147782 -0.2657734 -0.008859113 -0.08416157 -0.08859113 -0.1018798 -0.12402758
-0.19047093 0.0044295564 -0.013288669 -0.08416157 0.04872512 -0.12402758 -0.15503448 -0.0708729
-0.022147782 -0.18604137 0.04872512 0.15060492 0.03543645 0.06201379 0.08859113 0.18604137
0.044295564 0.017718226 0.0708729 -0.07530246 -0.106309354 0.0708729 0.093020685 0.03543645
-0.0044295564 -0.15060492 0.11073891 0.07530246 -0.08416157 -0.08416157 0.0 0.08416157
0.057584234 0.06644335 0.031006895 -0.08859113 0.24805516 0.19047093 -0.053154677 0.09745024
-0.013288669 0.08416157 -0.11073891 0.08416157 0.0044295564 0.013288669 -0.039866008 -0.07530246
-0.0044295564 -0.12845713 0.0044295564 0.026577339 0.106309354 0.013288669 0.1417458 0.031006895
0.03543645 0.15060492 0.031006895 0.0044295564 -0.008859113 -0.12402758 0.031006895 -0.09745024
-0.093020685 0.13731626 -0.09745024 -0.15060492 -0.1018798 -0.013288669 -0.18604137 0.04872512
-0.06201379 -0.19490048 -0.044295564 0.08416157 -0.039866008 0.053154677 0.0 -0.079732016
0.008859113 0.13731626 0.026577339 -0.03543645 0.17718226 -0.20818916 -0.11516847 -0.2524847
0.08859113 -0.057584234 -0.008859113 0.14617535 0.017718226 -0.106309354 0.039866008 -0.057584234
-0.008859113 -0.106309354 -0.053154677 0.08859113 -0.039866008 0.017718226 0.12402758 -0.21261871
0.04872512 0.08859113 0.026577339 0.08416157 0.06644335 -0.13731626 -0.03543645 0.12402758
-0.057584234 -0.039866008 0.06644335 0.17718226 0.053154677 -0.14617535 -0.11073891 -0.039866008
-0.19933003 -0.06201379 -0.13731626 0.12845713 0.09745024 -0.057584234 -0.026577339 -0.19047093
0.031006895 -0.15503448 0.26134384 0.12402758 0.06201379 -0.14617535 -0.0044295564 -0.22147782
0.21261871 0.093020685 0.23476648 0.19047093 -0.15946403 0.039866008 -0.053154677 0.04872512
0.031006895 0.08416157 -0.079732016 0.12845713 0.1328867 0.031006895 -0.27020293 -0.0708729
-0.04872512 -0.06644335 0.022147782 0.03543645 0.026577339 0.14617535 0.14617535 0.0708729
0.2037596 -0.11959802 -0.026577339 0.15946403 -0.11073891 -0.12845713 0.06644335 -0.079732016
0.14617535 -0.022147782 0.093020685 -0.09745024 0.15503448 0.022147782 0.039866008 0.057584234
0.031006895 -0.079732016 0.03543645 0.1816118 0.008859113 0.0044295564 0.022147782 -0.093020685
0.07530246 -0.04872512 -0.09745024 0.04872512 0.022147782 -0.11516847 0.079732016 0.0
-0.013288669 -0.21704826 0.12845713 0.15060492 0.0708729 0.026577339 0.08416157 0.013288669
-0.0044295564 -0.07530246 0.0 0.17275271 -0.013288669 0.06644335 -0.22590739 0.11516847

sequential/lstm_1/Read_2/ReadVariableOp1 f4 [256]
00000000: 5bf4 c33b ccca 9abd f897 b93d a9b8 8f3d
00000010: f98e 043d f3d6 8f3d 75b7 c03d ae32 783d
00000020: 01a3 843d 7159 993d 67fe 7fbd 4943 16bd
00000030: 8b93 d23d 37ac af3c 0b67 5b3d ef95 113e
00000040: b16e d53d 3a1b 25bc c712 633d 12cb 89bd
00000050: 1821 163e fd11 203e 7529 ce3c 6af2 953d
00000060: 3c51 febd 0381 973d 7676 e13d 4b1f 6e3d
00000070: 0a09 89bd 803a 973d a56d 6bbc 4ad2 ab3d
00000080: 95ee 203e 87ff 5a3c 78d8 af3c 82ce 353c
00000090: 9faa bb3c d557 903d 7601 853d 0ae7 65bd
000000a0: 1f93 7fbc 1b61 c33d 98f9 1e3e 2e44 f93d
000000b0: fad5 2b3e a224 c33c a481 75bd f6cd 29bc
000000c0: b831 643d 0d81 d2bb 269d a2bd 2f03 0e3d
000000d0: 8283 f03a 2395 643d a113 123e 80ca 6dbc
000000e0: 7af7 2f3d 98fc 2a3d 5569 483e 453a 21bd
000000f0: 260e 29bc 7779 a73d c9d9 123d da51 d73d
00000100: 76ec 893f dda6 8c3f 3ba6 863f d1f8 863f
00000110: ad52 893f 4c86 8c3f 7d0c 813f 1e09 853f
00000120: 2213 7b3f e400 933f cb8a 7d3f 3382 8f3f
00000130: 9988 8a3f 8a83 893f 15f8 883f 7098 773f
00000140: 34ca 853f 1ea7 8f3f 7c07 903f 2cea 8c3f
00000150: fb50 873f 1cf7 643f 4030 8a3f 53bf 853f
00000160: 36d0 843f 9b2c 8f3f f32d 8e3f 096b 8d3f
00000170: 5bc7 703f 714f 7c3f 3ad3 8b3f cd83 883f
00000180: d854 8a3f 1eb3 8b3f d918 8b3f 3668 883f
00000190: 7c69 8b3f 01a6 7c3f cb2f 8b3f d5b2 913f
000001a0: ad49 883f b7ca 883f b6e8 8b3f aa19 803f
000001b0: 2025 7b3f 3d8d 903f 954b 9a3f 968e 843f
000001c0: 798b 883f ed6a 7c3f cfb8 853f 5160 8a3f
000001d0: b089 8e3f cd7f 8e3f 3f38 833f 9d7d 8a3f
000001e0: 244b 953f 5def 843f 6eed 823f e3bc 8b3f
000001f0: d744 843f 4bdb 873f 6802 843f 9e69 8e3f
00000200: ce8f 223d 7c1c 2abc 0ea4 90bc a14c 64bc
00000210: adc0 b13d 0e4b 84bd 81f9 0d3c cb87 d13c
00000220: 909b 8cbd af92 073d 55d2 49bb c5d0 8d3d
00000230: d792 8fbd a5b3 303d a975 0b3c 3efc 8fbc
00000240: 6f7a 0bbb fc6e 6d3d cd95 093b 0b4b 7fbd
00000250: 8845 413c b42a e13c 5549 9dbd 252e 63bd
00000260: 836a 723d b2a9 95bc 5f8d b1bd c2c6 593d
00000270: f4fa e73c 8c06 143d 734f 83bd f0cf 84bd
00000280: aa2c 11bd ee1f 7fbd fca5 b7bd b11d ba3c
00000290: 85f2 893c bd0c f9bc 1725 04bd a5b7 82bc
000002a0: 8945 8ebc 0388 463d b742 aabd 4960 86bd
000002b0: 1fb7 62bd d294 b5bc ee05 b93d 2902 e6bb
000002c0: 512a b53c 35dd 213d b9ec 65bd fefc 9e3d
000002d0: 3ef7 1b3c 678e a3bd 8ab0 f73c b0c6 8fbd
000002e0: 0931 a83d 0424 13bd c1ad 8fbb daf1 c9bb
000002f0: 21c9 d2bc d4c7 63bd c2ec 17bd 6b89 03bd
00000300: 1b7b ee3d ee6a 9a3d ec42 fa3d 8f6b 353e
00000310: ba48 4c3e 8b25 d13d 8933 203e fe09 133e
00000320: 2c66 d43d a618 643e 467b fe3d 238f d23d
00000330: 3cf3 973e b475 0a3e da91 253e ae93 5b3e
00000340: cfb9 1d3e f910 3d3e b344 d43d 6011 093d
00000350: 6240 323e c4f0 1f3e 57fa f43d 7a2d 983e
00000360: 3845 25bc 0603 6d3e d439 5d3e 5b67 0c3e
00000370: f4b7 db3c 390e 1c3e d070 f43d f4fc 9f3e
00000380: 8213 323e d889 5c3e 2f7d 0a3e b485 343e
00000390: 9a89 df3d 7360 893d 295a c93d 9164 b33d
000003a0: 4194 993d f802 7b3e 0284 f43d 7172 963e
000003b0: 7348 6a3e 075f 143e 7769 7d3d 08f8 253e
000003c0: b37b d73d 7b16 703e fa57 de3c 7494 1d3e
000003d0: 788f 4d3e 5e73 e03d f068 8c3e 1621 d83d
000003e0: cd10 f93d 9062 4b3e 0e5d 633e 5d18 b23d
000003f0: b4ed 9a3d 8e84 253e da97 aa3d 28a1 263e
0.005980057 -0.07558212 0.09062189 0.07017643 0.03236291 0.0702342 0.09409992 0.060595207
0.06476403 0.07487763 -0.062498476 -0.036685262 0.10282048 0.021444423 0.053565066 0.14217351
0.10421503 -0.010077292 0.05543783 -0.06728186 0.14661062 0.15631862 0.025166253 0.073216274
-0.12417838 0.07397654 0.11008923 0.058135312 -0.06691177 0.07384205 -0.014369403 0.08389719
0.15716012 0.0133665865 0.021465525 0.011096599 0.022908507 0.07048003 0.06494419 -0.05612854
-0.015599041 0.09540006 0.155249 0.12171207 0.16780844 0.023821179 -0.059938088 -0.010364046
0.055711478 -0.0064240755 -0.0794013 0.034671005 0.0018349739 0.05580629 0.142653 -0.014513612
0.04296062 0.0417448 0.19571431 -0.03936221 -0.010318315 0.081774645 0.035852227 0.10513659
1.0775287 1.0988423 1.051948 1.0544683 1.0728356 1.0978484 1.0081936 1.0393407
0.9807607 1.1484647 0.99039906 1.1211609 1.0822936 1.0743268 1.0700709 0.96716976
1.0452332 1.1222875 1.1252284 1.1008964 1.0571588 0.8943956 1.0795975 1.0449013
1.0376041 1.1185488 1.1107773 1.104829 0.9405419 0.9855872 1.0923836 1.0665222
1.0807142 1.0914037 1.0866958 1.0656803 1.0891566 0.986908 1.087396 1.13827
1.0647484 1.0686864 1.0930393 1.0007832 0.98103523 1.1293103 1.2054316 1.0356014
1.0667564 0.98600656 1.0447024 1.0810643 1.1135769 1.1132752 1.025154 1.0819584
1.1663556 1.0385548 1.0228708 1.0917019 1.0333508 1.0613798 1.0313234 1.1125982
0.039687924 -0.010382768 -0.017656352 -0.013934285 0.08679328 -0.06459628 0.008665443 0.025577446
-0.06865609 0.033098873 -0.0030795534 0.06924585 -0.07010429 0.043140072 0.008511939 -0.017576333
-0.0021282693 0.05796717 0.002099383 -0.062327426 0.011796363 0.027486183 -0.076800026 -0.05546393
0.05918361 -0.018269394 -0.086695425 0.053168066 0.028317906 0.036139056 -0.06411638 -0.064849734
-0.035442986 -0.06228631 -0.08967206 0.022719236 0.016839275 -0.030401582 -0.032261934 -0.01595671
-0.017367141 0.048469555 -0.08313506 -0.06561334 -0.05535042 -0.02216569 0.09034334 -0.0070193005
0.022114905 0.0395176 -0.05613396 0.07763098 0.009519396 -0.079861455 0.030235548 -0.070203185
0.08212478 -0.03592302 -0.0043847268 -0.006162864 -0.025730671 -0.055610493 -0.037091024 -0.032113474
0.11644574 0.075399265 0.122197956 0.17716812 0.19949618 0.10212239 0.15644659 0.1435928
0.1037105 0.22275028 0.12425856 0.102812074 0.2967776 0.13521463 0.16168919 0.21443054
0.15402912 0.18463506 0.10364666 0.033463836 0.17407373 0.15619189 0.11961811 0.29722196
-0.010087304 0.23145685 0.21604091 0.13711302 0.026821114 0.152398 0.1193558 0.31247675
0.17390254 0.21536958 0.13524316 0.17629129 0.10914917 0.06707849 0.0983165 0.08759416
0.0749898 0.24512851 0.11939241 0.29384187 0.228792 0.14489375 0.061868157 0.16207898
0.10521641 0.23446076 0.02714156 0.15388662 0.2007426 0.109595045 0.2742381 0.10553186
0.121614076 0.19861817 0.22203466 0.08696053 0.075648695 0.16163847 0.08329745 0.16272414

while/MatMul_14 i1 [256, 64] scale=0.003099904 zero_point=0
00000000: f7e5 0fd5 dacc 1fe8 2a14 0d2c 0217 34e7
00000010: f302 45e2 1115 fa08 03e6 fbf8 052e 1fee
00000020: 05e9 eff8 30f7 e101 f4ee e9d1 d4ad 1af6
00000030: e2ca 11df fdd6 28b7 2002 14ec 2ae2 10f1
00000040: bc15 f20b eaf0 d9f6 fed6 19f2 d0d2 0c07
00000050: 09fe 2526 edf8 1d25 f92b 1327 e7fe 2b01
00000060: 07e6 0a26 e929 24ff 07f4 29e3 e00d f3f5
00000070: e41a 04e1 2614 29c6 fb09 d90d 40ee 202a
00000080: 0548 0edb 3dfa ef01 0fe9 e2fe 1c19 dcd8
00000090: d5c7 1df9 231b fb02 0ade e910 f017 4c18
000000a0: f208 eddd f7dd e734 f004 27d6 e1ee df0e
000000b0: 00ce 2711 d1f8 0102 f223 e0ea 35f4 e31e
000000c0: 3821 df0a 09f8 00e8 f21b d8f9 0b03 28cd
000000d0: 2614 f011 cf42 f321 34f9 221b 2033 05f0
000000e0: 08ea f9fa ee14 2bd5 ebfa f301 efcd 23da
000000f0: e7e6 2df0 08d5 f306 020e 2b17 11d6 162c
-0.027899135 -0.08369741 0.04649856 -0.13329586 -0.11779635 -0.16119501 0.09609702 -0.0743977
0.13019596 0.061998077 0.040298752 0.13639577 0.006199808 0.07129779 0.16119501 -0.0774976
-0.040298752 0.006199808 0.21389337 -0.09299712 0.052698366 0.06509798 -0.018599425 0.024799231
0.009299712 -0.080597505 -0.015499519 -0.024799231 0.015499519 0.14259557 0.09609702 -0.05579827
0.015499519 -0.07129779 -0.052698366 -0.024799231 0.1487954 -0.027899135 -0.09609702 0.003099904
-0.03719885 -0.05579827 -0.07129779 -0.14569548 -0.13639577 -0.25729203 0.080597505 -0.030999038
-0.09299712 -0.16739482 0.052698366 -0.10229683 -0.009299712 -0.13019596 0.12399615 -0.22629298
0.099196926 0.006199808 0.061998077 -0.061998077 0.13019596 -0.09299712 0.049598463 -0.04649856
-0.21079347 0.06509798 -0.043398656 0.03409894 -0.06819788 -0.049598463 -0.12089625 -0.030999038
-0.006199808 -0.13019596 0.0774976 -0.043398656 -0.1487954 -0.14259557 0.03719885 0.021699328
0.027899135 -0.006199808 0.11469644 0.11779635 -0.058898173 -0.024799231 0.089897215 0.11469644
-0.021699328 0.13329586 0.058898173 0.12089625 -0.0774976 -0.006199808 0.13329586 0.003099904
0.021699328 -0.080597505 0.030999038 0.11779635 -0.07129779 0.12709606 0.11159654 -0.003099904
0.021699328 -0.03719885 0.12709606 -0.089897215 -0.099196926 0.040298752 -0.040298752 -0.03409894
-0.08679731 0.080597505 0.012399616 -0.09609702 0.11779635 0.061998077 0.12709606 -0.17979443
-0.015499519 0.027899135 -0.12089625 0.040298752 0.19839385 -0.05579827 0.099196926 0.13019596
0.015499519 0.22319308 0.043398656 -0.11469644 0.18909414 -0.018599425 -0.052698366 0.003099904
0.04649856 -0.07129779 -0.09299712 -0.006199808 0.08679731 0.0774976 -0.11159654 -0.12399615
-0.13329586 -0.17669453 0.089897215 -0.021699328 0.108496636 0.08369741 -0.015499519 0.006199808
0.030999038 -0.10539673 -0.07129779 0.049598463 -0.049598463 0.07129779 0.2355927 0.0743977
-0.043398656 0.024799231 -0.058898173 -0.108496636 -0.027899135 -0.108496636 -0.0774976 0.16119501
-0.049598463 0.012399616 0.12089625 -0.13019596 -0.09609702 -0.05579827 -0.10229683 0.043398656
0.0 -0.1549952 0.12089625 0.052698366 -0.14569548 -0.024799231 0.003099904 0.006199808
-0.043398656 0.108496636 -0.099196926 -0.06819788 0.16429491 -0.03719885 -0.089897215 0.09299712
0.17359462 0.10229683 -0.10229683 0.030999038 0.027899135 -0.024799231 0.0 -0.0743977
-0.043398656 0.08369741 -0.12399615 -0.021699328 0.03409894 0.009299712 0.12399615 -0.1580951
0.11779635 0.061998077 -0.049598463 0.052698366 -0.1518953 0.20459366 -0.040298752 0.10229683
0.16119501 -0.021699328 0.10539673 0.08369741 0.099196926 0.1580951 0.015499519 -0.049598463
0.024799231 -0.06819788 -0.021699328 -0.018599425 -0.05579827 0.061998077 0.13329586 -0.13329586
-0.06509798 -0.018599425 -0.040298752 0.003099904 -0.052698366 -0.1580951 0.108496636 -0.11779635
-0.0774976 -0.080597505 0.13949567 -0.049598463 0.024799231 -0.13329586 -0.040298752 0.018599425
0.006199808 0.043398656 0.13329586 0.07129779 0.052698366 -0.13019596 0.06819788 0.13639577

while/MatMul2 i1 [256, 128] scale=0.0043633683 zero_point=0
00000000: f10f 0a17 edf7 22e2 1f26 0c0b e7fb 0ee4
00000010: f7d3 d518 07e8 e9dd 1821 0a28 efe5 01bd
00000020: fa1c dae8 05dc 080a f90c 0cfa 2322 11e2
00000030: 1fb3 1c2d 031c 0e05 fb1a fc17 15e7 0cdd
00000040: e502 20fd 33f6 060e fe11 0334 f4f1 e3d8
00000050: fd22 f302 def1 c508 1ce3 eae6 eeef bcc4
00000060: 2417 e7e8 0d1d 0dfe 2133 4ce4 f1ce db17
00000070: 0af1 f8d6 2f1a ed1b 0429 fb10 2704 0ffe
00000080: c80b da32 fd0e 28ed ecec 0f11 2224 0de5
00000090: 3010 f219 09e3 0025 e4c2 ef32 f618 0205
000000a0: fee9 16ea 07d2 0217 ec07 e9f1 fffe ff04
000000b0: ecf5 f0f9 080e e9fb e7f1 f7e9 f410 c2f4
000000c0: f7f1 07e0 ebe7 dcf0 363a fad9 e419 0d1a
000000d0: d5e2 eedc 20f5 0dd6 0904 3333 f025 eaf2
000000e0: e90c f9d2 efe4 1c11 edde eb1d 23d3 1711
000000f0: fc18 0b35 1d28 e406 fb28 ecf1 fdf6 faf1
-0.06545053 0.06545053 0.043633685 0.10035747 -0.082903996 -0.039270315 0.14835452 -0.13090105
0.13526441 0.16580799 0.05236042 0.04799705 -0.109084204 -0.021816842 0.061087154 -0.12217431
-0.039270315 -0.19635157 -0.18762484 0.10472084 0.030543577 -0.10472084 -0.10035747 -0.15271789
0.10472084 0.14399116 0.043633685 0.17453474 -0.07417726 -0.11781094 0.0043633683 -0.29234567
-0.02618021 0.12217431 -0.16580799 -0.10472084 0.021816842 -0.15708126 0.034906946 0.043633685
-0.030543577 0.05236042 0.05236042 -0.02618021 0.15271789 0.14835452 0.07417726 -0.13090105
0.13526441 -0.33597934 0.12217431 0.19635157 0.013090105 0.12217431 0.061087154 0.021816842
-0.021816842 0.11344758 -0.017453473 0.10035747 0.091630735 -0.109084204 0.05236042 -0.15271789
-0.11781094 0.0087267365 0.13962778 -0.013090105 0.22253178 -0.043633685 0.02618021 0.061087154
-0.0087267365 0.07417726 0.013090105 0.22689515 -0.05236042 -0.06545053 -0.12653768 -0.17453474
-0.013090105 0.14835452 -0.05672379 0.0087267365 -0.14835452 -0.06545053 -0.25743872 0.034906946
0.12217431 -0.12653768 -0.0959941 -0.11344758 -0.07854063 -0.07417726 -0.29670903 -0.2618021
0.15708126 0.10035747 -0.109084204 -0.10472084 0.05672379 0.12653768 0.05672379 -0.0087267365
0.14399116 0.22253178 0.33161598 -0.12217431 -0.06545053 -0.21816841 -0.16144462 0.10035747
0.043633685 -0.06545053 -0.034906946 -0.18326147 0.2050783 0.11344758 -0.082903996 0.11781094
0.017453473 0.1788981 -0.021816842 0.06981389 0.17017137 0.017453473 0.06545053 -0.0087267365
-0.24434862 0.04799705 -0.16580799 0.21816841 -0.013090105 0.061087154 0.17453474 -0.082903996
-0.08726737 -0.08726737 0.06545053 0.07417726 0.14835452 0.15708126 0.05672379 -0.11781094
0.20944168 0.06981389 -0.061087154 0.109084204 0.039270315 -0.12653768 0.0 0.16144462
-0.12217431 -0.27052882 -0.07417726 0.21816841 -0.043633685 0.10472084 0.0087267365 0.021816842
-0.0087267365 -0.10035747 0.0959941 -0.0959941 0.030543577 -0.20071495 0.0087267365 0.10035747
-0.08726737 0.030543577 -0.10035747 -0.06545053 -0.0043633683 -0.0087267365 -0.0043633683 0.017453473
-0.08726737 -0.04799705 -0.06981389 -0.030543577 0.034906946 0.061087154 -0.10035747 -0.021816842
-0.109084204 -0.06545053 -0.039270315 -0.10035747 -0.05236042 0.06981389 -0.27052882 -0.05236042
-0.039270315 -0.06545053 0.030543577 -0.13962778 -0.091630735 -0.109084204 -0.15708126 -0.06981389
0.23562188 0.25307536 -0.02618021 -0.17017137 -0.12217431 0.109084204 0.05672379 0.11344758
-0.18762484 -0.13090105 -0.07854063 -0.15708126 0.13962778 -0.04799705 0.05672379 -0.18326147
0.039270315 0.017453473 0.22253178 0.22253178 -0.06981389 0.16144462 -0.0959941 -0.061087154
-0.10035747 0.05236042 -0.030543577 -0.20071495 -0.07417726 -0.12217431 0.12217431 0.07417726
-0.082903996 -0.14835452 -0.091630735 0.12653768 0.15271789 -0.19635157 0.10035747 0.07417726
-0.017453473 0.10472084 0.04799705 0.23125851 0.12653768 0.17453474 -0.12217431 0.02618021
-0.021816842 0.17453474 -0.08726737 -0.06545053 -0.013090105 -0.043633685 -0.02618021 -0.06545053
