LSTM_Quantized_Model.tflite (tflite, 613472 bytes, 10 tensors)

sequential/lstm/Read_2/ReadVariableOp f4 [1024]
00000000: a84f 33bd fbd7 2dbd 9969 5cbd a8c9 13bd
00000010: eb9b 69bb c6f2 d1bc 5b4d a83c f666 843c
00000020: 41de 07bd 2638 bcbd 9a27 0b3d d8e7 f23a
00000030: 9ddc a9bd 6e9f 44bd 1813 ac3c b614 01bd
00000040: abd4 1bbc 646b 22bd 39a6 a73d 32bb efbc
00000050: 7710 913d 09ce 00bd eb9c e93c 1716 57bd
00000060: 527c ffbd 01b1 99bd e440 8ebd b79b b9bd
00000070: 5648 e3bb 6099 82bc ca86 fdbd ccd3 893c
00000080: 2788 933c f3f8 0ebe 5363 3bbd 1d0e 36bc
00000090: 9bdf b2bd 4663 35bd acc4 76bd 2e58 9c3d
000000a0: 98cd 9fbd df01 8b3c 4939 a4bd 6993 d9bd
000000b0: 9ded 72bc 3c98 a5bd 2690 5dbd cfb6 b9bd
000000c0: 2f49 19bc fe8f 81bd 40c6 cdbc 53cb 9b3c
000000d0: 0c24 fbbc 7c49 883c e33f 0bbd b432 05be
000000e0: 688d 8bbd bd8f 13be fb63 dfb9 ac9f 18bd
000000f0: 5187 04be 2004 35bd d65d cabb cafb 293a
00000100: 96ad d73c 1467 90bc d8a2 4bbd c851 d4bd
00000110: 582c 18bd 80ca 893c 8683 5ebd b203 96bb
00000120: 2e56 d4bc 9488 dd3d 0a34 f4bd f162 23bd
00000130: e233 853b 8497 c5bd eab7 c4bd d501 28bd
00000140: 1ccb b4bd 0c59 97bc c2c6 a3bd f594 64bd
00000150: db3d 20bd 9b07 a9bd edd8 bcbb 4d40 b9bd
00000160: d772 b4bd b295 d4bb 6cd5 883c 7125 cdbc
00000170: c4e7 b4bd 93a1 f9bd 9700 28bd 4ab8 12bd
00000180: f5f3 91bd 33d1 c4bc 4092 00be bb93 a8bd
00000190: deeb 9c3c 8d6f 80bd 0577 92bd 8948 4d3c
000001a0: 0726 c43b 402e ff3a b99f a93c d2b1 ecbc
000001b0: 5e96 c3bc 0a15 33bd 676b 883c f27d 81bd
000001c0: 220f 05bd fd59 a23c 4446 b33d c64d 75bd
000001d0: 4578 39bc 53a0 a1bd 14e4 0f3d 5139 95bd
000001e0: 6a8e c2bd 283a b6bd 6e03 b13b ae6e 1b3d
000001f0: f7f5 aabc 9c4d bfbd 09dd 5ebd c1ae 2e3d
00000200: 6413 08be 42b7 473c 9608 3fbd 91ee d8bc
00000210: 6208 3bbd 3363 d2bb 52b0 50bd 88dd 863d
00000220: 616a 91bd 70c4 08bc 6fad 2fbd d03c a5bd
00000230: 115f 9bbd 1431 85bd ab9a 2ebd 28a0 11bd
00000240: b57a 7fbd 76fa d13c 06f5 a1bd 1547 f3bc
00000250: 6334 8cbd 0709 a1bd 7a8a 1fbd ce60 8a3d
00000260: bda0 18bc 8824 17bd 0252 2fbb 64a3 f3bd
00000270: 9c9e 4ebc 3257 babc 5c64 e13c ff65 9ebd
00000280: 11c7 99bd ea8e efbc 8d80 8cbd 91b1 983d
00000290: 6d93 aa3b 4812 c1bb 8d18 2ebc 2653 d2bd
000002a0: 69e8 7f3d 9849 e7bd a48e 7bbd 3aa7 e33c
000002b0: 3398 8abd 78aa 083c 9a51 debd f14a 6cbc
000002c0: 19a4 f7bd f74a fcbc 3029 8cbd 1c0b 90bd
000002d0: 78a5 5f3c a6d7 6ebd 6aa3 c2bc 3ec3 f9bd
000002e0: 6e3d f5bd 96a0 3dbd 219d 92bd e7bd 66bd
000002f0: 30b7 6c3d 0b87 e8bd 5012 e4bc d23f 3b3d
00000300: 0a5c eabd 0410 45bd b930 91bd 8e44 4d3d
00000310: c292 eebd c827 6a3b d6ca 30bd 3a12 283d
00000320: 0311 40bd 454b 4cbd 4870 113d e109 353c
00000330: e397 dcbd 5293 c5bd 057c 8d3c c900 073d
00000340: 0b50 debc 0d55 9fbc 4df5 553b df17 7bbd
00000350: 3448 9fbd 96c6 9f3c d555 7cbd 4cd7 0cbe
00000360: ab9a 87bd 3d69 da3c 778e e63c ff71 79bc
00000370: 3114 e439 679e dabd a3df 28bd 593a bebd
00000380: 911c e1bd 6577 babd 418c eebb fcfd f53c
00000390: d939 7bbb e679 43bd de3d ebbc af8a acbd
000003a0: 3393 0fbc 6637 5abd 471e 71bd 7283 57bc
000003b0: 3d1a 0cbd 9b51 ddbc 32eb cdbc b4fb 96bd
000003c0: 53a1 7cbc 5270 99bd c072 ecbd 470d 9dbb
000003d0: ff7b f33c daa5 21be 0453 87bd f7b5 95bc
000003e0: b036 85bd 0e5d 72bd 5ad3 99bd b31d abbd
000003f0: 83e2 48bd 63bc b0bd ebe1 9e3d ee41 95bd
-0.043777138 -0.042442303 -0.053811643 -0.036080986 -0.0035645913 -0.025628459 0.020544698 0.016162377
-0.033170942 -0.09190397 0.033973314 0.001853223 -0.08294032 -0.048003606 0.021005198 -0.031513892
-0.009511153 -0.039653197 0.08186001 -0.029264066 0.070832185 -0.03144649 0.028517207 -0.0525113
-0.12474884 -0.07504464 -0.06945971 -0.090629034 -0.0069361134 -0.015942276 -0.123792246 0.016824625
0.018009258 -0.13962154 -0.04574902 -0.011111763 -0.087340556 -0.044284128 -0.060246155 0.076340064
-0.07802886 0.016968666 -0.08018739 -0.106238194 -0.014827159 -0.08085677 -0.05409255 -0.09068071
-0.009355827 -0.063262925 -0.025118947 0.019017851 -0.030656837 0.016636603 -0.033996474 -0.13007623
-0.068140805 -0.144103 -0.00042608366 -0.03726165 -0.12942244 -0.044193387 -0.006175737 0.0006484358
0.02632789 -0.017627276 -0.049715847 -0.10367161 -0.037151664 0.016820192 -0.05432465 -0.0045780772
-0.02592 0.10817066 -0.11923988 -0.03988928 0.004065023 -0.0964804 -0.09605391 -0.041017372
-0.088278025 -0.018475078 -0.079968944 -0.05580612 -0.03912149 -0.08253404 -0.0057631643 -0.090454675
-0.088109665 -0.0064875716 0.01670333 -0.025042268 -0.08833268 -0.12189021 -0.041016188 -0.035820283
-0.07126609 -0.024025535 -0.1255579 -0.08231302 0.019155439 -0.062712766 -0.071516074 0.012529501
0.0059859785 0.001946874 0.020706045 -0.028893385 -0.023875412 -0.043721236 0.016652776 -0.0632285
-0.032485135 0.0198183 0.087536365 -0.059888624 -0.011320178 -0.078919075 0.03512962 -0.07286323
-0.094998196 -0.08897811 0.00540202 0.03794735 -0.020869238 -0.09340975 -0.054410014 0.042647127
-0.13288647 0.012189688 -0.046639048 -0.026480945 -0.04566229 -0.006420517 -0.050949402 0.065852225
-0.07100368 -0.008347616 -0.04289001 -0.0806824 -0.07586492 -0.065035015 -0.04262797 -0.035553128
-0.062372882 0.025632124 -0.07908063 -0.02969698 -0.068459295 -0.0786305 -0.03895042 0.06756745
-0.009315667 -0.036900073 -0.0026751761 -0.11896399 -0.012611058 -0.022746656 0.027513675 -0.07734298
-0.07508672 -0.029242951 -0.068604566 0.07455743 0.005205563 -0.005892072 -0.010625971 -0.102697656
0.062477503 -0.11293334 -0.06141533 0.0277897 -0.06767311 0.008341424 -0.10855408 -0.014422164
-0.12091846 -0.030797465 -0.068437934 -0.07033369 0.013650291 -0.058311127 -0.023759563 -0.121954426
-0.119746074 -0.046295725 -0.07158876 -0.05633345 0.05779189 -0.113538824 -0.027840763 0.04571516
-0.11443336 -0.048110977 -0.07089371 0.050114207 -0.116490856 0.0035729278 -0.04316219 0.041033007
-0.046891224 -0.04987647 0.03550747 0.011049719 -0.107711576 -0.0964724 0.017271051 0.032959733
-0.027137777 -0.019449735 0.0032647431 -0.061302062 -0.077774435 0.019503873 -0.061605293 -0.13754004
-0.066212974 0.02666151 0.028144104 -0.015224933 0.00043502593 -0.10674744 -0.0412289 -0.09288473
-0.10991777 -0.09104804 -0.007279903 0.030028336 -0.003833404 -0.047723673 -0.028716024 -0.08424889
-0.008763122 -0.05327549 -0.058866765 -0.013153898 -0.03420471 -0.027016452 -0.025136564 -0.07372227
-0.015419322 -0.074921265 -0.11545324 -0.0047928425 0.029722212 -0.15785924 -0.06607631 -0.018275244
-0.065045714 -0.059170775 -0.07511015 -0.08355274 -0.049044143 -0.08629682 0.07757934 -0.07287966

sequential/lstm_1/Read_2/ReadVariableOp f4 [512]
00000000: 3f5b 07be ee4b 86be 8bb5 d8bd 7b69 c2bd
00000010: a95f 0abe c8ec 67be 80c1 39bc 641e cdbd
00000020: 9609 f1bd 21bb 28be 218d 813d fe26 2dbe
00000030: 0808 8bbd ebcc 0cbe 41ae 003d 9bf9 953c
00000040: 6a7b 48be 06bc 77be 834a 1bbe 1d54 65bc
00000050: 2c4d 453d 5087 debd b667 49be 04dc b1bd
00000060: 717b ecbd 9c04 14be 8831 6e3d 051d d63b
00000070: 2483 ccbd 6bb2 e6bd 528b 2fbd 48a2 15be
00000080: a2b5 d9bd 2e99 f7bd a75d 1abe 1410 e8bd
00000090: a881 333d e1d0 85be a4a1 b6bd 3783 36be
000000a0: 1e99 ac3c 7445 933d b77f 073d f9e0 51bd
000000b0: edaa b13d 7eb7 9ebe 8077 52be 3a4d 54be
000000c0: 7277 54bd 8aad 30be 6bb5 d8bd 497b 21be
000000d0: 08e5 b8bd cfc6 b7bc 3d6c dd3c 9ed9 e8bd
000000e0: a31c 1dbd 4711 01be d5a9 f5bd d64a 5cbe
000000f0: e6a5 2dbe f464 36bd 59d6 1fbe aa80 233d
00000100: 564e a8be 7010 b93d b238 d0bd f2e4 ebbc
00000110: 06b8 47bd 13d9 b9bd 7254 34be 0bad 2abe
00000120: 501c f8bd 70c8 06be cafa f5bd 0cbd b4bd
00000130: c7e8 643b 12f4 6e3d fed6 2dbc b60a 423d
00000140: 0a74 f7bd 245c 423d 09ab 25be d416 0ebe
00000150: ee31 3dbd 17e2 2bbe 195d b4bd 9042 4dbc
00000160: 7d1f ed3b f72e b9bc 6081 9cbd c8de f0bc
00000170: 886f 23bc 0638 3cbe 8f73 b73c d672 813d
00000180: 2d68 4abd 4e7b e0bc 86f9 7ebc 5e6c 4abe
00000190: d169 b8bd e643 673d 052f 14bd 4cbd 7bbc
000001a0: a25e 75be 6f7e 4f3d c5a7 ac3d 5d72 8dbd
000001b0: fa5a 05be e1f9 81bd 8c4d 01be 8ad0 1cbe
000001c0: 4ebe 79bc 8ef1 92bd c5ea 1cbd 4950 8dbc
000001d0: 9615 97bd abc2 fcbd f9a6 da3b 2666 f9bb
000001e0: 1324 2fbe 4a22 6ebe e7ac 0cbe 2ab7 14be
000001f0: 9cb8 873c 7992 1ebd 40cb 23bd 0fcc c73b
00000200: f586 523f ce56 3d3f 57be 613f 0d6f 573f
00000210: 6fd7 533f a0b7 453f 2df9 633f 6517 633f
00000220: a5ae 5c3f 4966 553f edb7 783f 40fc 5f3f
00000230: 30d1 653f f555 5c3f e676 793f b857 6f3f
00000240: 4e2a 4c3f 57b2 4a3f fafe 543f f4a8 853f
00000250: 86f4 663f a2bd 5c3f ecc6 533f 4779 663f
00000260: bc39 603f 458e 5c3f 8e9c 863f 4e65 663f
00000270: 211c 653f e889 5f3f 5fb8 653f cf50 513f
00000280: f209 633f 6aa1 593f fe53 583f fd2f 613f
00000290: ab3d 7f3f b664 4c3f 21a9 623f 15c0 643f
000002a0: 1c3d 713f 1564 813f 5aa8 5d3f bd33 753f
000002b0: 8e9f 7b3f ac03 383f ad6b 463f 522e 4e3f
000002c0: 0d75 693f 7b85 5e3f b598 663f 52f5 593f
000002d0: 7d08 6e3f db73 603f 3cbd 623f bc92 5e3f
000002e0: 89a1 843f b264 603f edeb 583f e722 3c3f
000002f0: 3cfe 563f 954d 643f 2ae0 483f d3ad 703f
00000300: d03c 353f 4982 873f 60d0 5c3f f81d 6b3f
00000310: 7cb8 783f a7a9 5d3f 7d26 503f 0bca 4a3f
00000320: c5a8 583f e66c 5a3f 7f71 573f 1554 6e3f
00000330: 201b 6e3f 3698 6f3f 60b4 743f 5983 6b3f
00000340: 9ad1 673f f766 833f 070a 6a3f cc7e 5f3f
00000350: f8d3 6d3f 60ef 523f 2e52 643f 0cb2 6e3f
00000360: fbc4 7a3f f541 6f3f 5e48 673f 7fc7 693f
00000370: 49bd 683f 58a4 4c3f 54ca 763f da8b 763f
00000380: e832 813f 6619 713f 12d5 783f ca60 523f
00000390: 0922 5b3f 99b5 863f 35d3 6c3f 1952 7b3f
000003a0: 4c27 473f 49c2 7d3f be10 733f 3c95 7b3f
000003b0: 6024 5d3f 4f59 623f fcb4 5d3f 37c7 593f
000003c0: 923a 753f 0070 673f 6cd7 6b3f 2139 663f
000003d0: 88fa 5c3f a494 593f c605 6b3f e906 773f
000003e0: d790 4b3f 0f39 493f 7c2d 5c3f 1e9d 4f3f
000003f0: 45e7 773f 9334 733f ae42 6c3f 336a 723f
-0.13218401 -0.26229805 -0.105815016 -0.09492775 -0.13513054 -0.22648919 -0.011337638 -0.10015562
-0.117694065 -0.16477634 0.06325746 -0.16909406 -0.06788641 -0.13750045 0.03141618 0.018307498
-0.19578329 -0.24192819 -0.15165143 -0.013997105 0.0481693 -0.108656526 -0.19668469 -0.08684543
-0.11546982 -0.14454883 0.058152705 0.006534221 -0.099859506 -0.11264499 -0.042857476 -0.14612687
-0.10630347 -0.120897636 -0.15074788 -0.11331192 0.04382482 -0.26135924 -0.08917549 -0.17823492
0.021069106 0.071909815 0.033080783 -0.05123994 0.0867518 -0.30999368 -0.20553398 -0.20732585
-0.051871724 -0.172537 -0.10581478 -0.15769686 -0.09028059 -0.022433667 0.027029151 -0.11369632
-0.03835739 -0.12604247 -0.119952835 -0.21512923 -0.16957816 -0.04452987 -0.15609111 0.039917625
-0.32872266 0.09036338 -0.10167064 -0.028795693 -0.048759483 -0.09074607 -0.17610338 -0.16667573
-0.12114775 -0.13162398 -0.12010725 -0.0882512 0.0034928785 0.058338232 -0.01061034 0.047373496
-0.120826796 0.047451153 -0.16178526 -0.13875896 -0.046190195 -0.16785465 -0.088068195 -0.012528077
0.0072364197 -0.022605402 -0.07641864 -0.029403105 -0.009975322 -0.18380746 0.02239397 0.06320731
-0.049415756 -0.027402546 -0.015562421 -0.19767901 -0.09004558 0.056461237 -0.036177654 -0.015364956
-0.23961881 0.050657686 0.08430437 -0.06906579 -0.13022986 -0.06346489 -0.12627238 -0.15313926
-0.015243126 -0.07174979 -0.03830983 -0.017250197 -0.07377164 -0.123418175 0.0066727367 -0.007611054
-0.17103605 -0.23255268 -0.13737832 -0.14522997 0.01656752 -0.038713906 -0.039988756 0.0060973237
0.8223718 0.7396058 0.8818106 0.84153825 0.827506 0.77233315 0.8905209 0.8870757
0.86203986 0.833592 0.9715565 0.8749428 0.8977232 0.8606866 0.9744705 0.93493223
0.7975205 0.79178375 0.83201563 1.0442185 0.90216863 0.86226857 0.82725406 0.90028805
0.87588096 0.86154586 1.0516527 0.8999833 0.89496046 0.87319803 0.8973445 0.8176393
0.8868705 0.85011923 0.8450316 0.8796385 0.9970347 0.7984117 0.8853932 0.89355594
0.9423387 1.0108668 0.8658501 0.9578207 0.98290336 0.718806 0.7750805 0.8053943
0.9119423 0.86922425 0.9007676 0.85139954 0.929817 0.8767678 0.8857 0.8694265
1.0361797 0.8765365 0.84734994 0.73490757 0.8398168 0.8918088 0.7846705 0.94015235
0.7079592 1.0586635 0.86255455 0.91842604 0.971565 0.86586994 0.8130873 0.79214543
0.8463252 0.85322416 0.84157556 0.9309705 0.9301014 0.9359163 0.9558773 0.91997296
0.905542 1.0265797 0.9142155 0.8730285 0.92901564 0.8239651 0.89187896 0.9324043
0.9795682 0.9346002 0.903448 0.9132003 0.90913826 0.7993827 0.9640248 0.96307147
1.009366 0.9417938 0.9720012 0.8217894 0.8559881 1.0524169 0.92509776 0.98172146
0.7779434 0.9912458 0.9494742 0.9827459 0.8638363 0.88417524 0.86604285 0.850696
0.95792496 0.90405273 0.9212558 0.8993092 0.8631978 0.8499243 0.91805685 0.9649492
0.79517883 0.7860269 0.86006904 0.81099117 0.96837264 0.95002097 0.92289245 0.946933

sequential/dense/BiasAdd/ReadVariableOp f4 [16]
00000000: 29de 223d 9cc6 b53d 55a5 0bbd 5a89 a5bb
00000010: 1086 943d 9ad9 b13d 1a23 83bd 9251 113d
00000020: c938 4fbd 19a9 61bd 463f dd3c 2593 a2bc
00000030: d068 fe3c 88de dbbc 6691 ccbd a503 41bd
0.03976265 0.08875772 -0.03409322 -0.005051774 0.07252133 0.08684082 -0.064031795 0.035478182
-0.050591264 -0.055092905 0.02700771 -0.019845555 0.031055838 -0.02683951 -0.0998867 -0.047122616

sequential/dense/MatMul i1 [16, 3840] scale=0.004872346 zero_point=0
00000000: f3e8 18fa 08e9 eff2 17f7 0f0e fa15 e91d
00000010: eeff ed0f fada 160b f528 fff5 0be6 1af8
00000020: f0dd fbdf d805 180e 19ef fa1c ed0e fbef
00000030: ea05 f1f3 0527 2118 200b eaf6 ed17 f71b
00000040: f3fd f6e7 fc13 07f7 0ae3 efff 1500 ed11
00000050: fa21 ff12 fcfa eced e629 0923 e6de e7f2
00000060: e0ec f4e4 0bfe ea0f 0aea 1113 e914 0bf4
00000070: 29eb 09ea 0f0d 0524 0cfe ebe8 1421 0de9
00000080: f3f3 1cfe 0df5 f1fa 1405 0a19 ff1b f824
00000090: eef8 f711 08e9 130d f522 fcf4 11eb 0eed
000000a0: f8f2 02e9 db12 0508 12fb fa0d ed11 e8e5
000000b0: f00b e8e5 ff23 1810 20f4 f5fd ea19 0017
000000c0: fefd f4f0 0119 1002 06f2 00fc 0d00 f31a
000000d0: f621 0d0e f609 e4e1 fb21 0e17 f6ea e8f8
000000e0: f0f9 f5de 02f1 f01f 09ed 021a f30a 16fd
000000f0: 17eb 0bef 0f0c 051c 0903 f6ea 0b1f 08f3
-0.06334049 -0.116936296 0.116936296 -0.029234074 0.038978767 -0.11206395 -0.08282988 -0.068212844
0.11206395 -0.04385111 0.07308519 0.068212844 -0.029234074 0.10231926 -0.11206395 0.14129803
-0.08770222 -0.004872346 -0.092574574 0.07308519 -0.029234074 -0.18514915 0.10719161 0.053595804
-0.053595804 0.19489384 -0.004872346 -0.053595804 0.053595804 -0.12668099 0.12668099 -0.038978767
-0.07795753 -0.1705321 -0.02436173 -0.16078742 -0.19489384 0.02436173 0.116936296 0.068212844
0.12180865 -0.08282988 -0.029234074 0.13642569 -0.092574574 0.068212844 -0.02436173 -0.08282988
-0.10719161 0.02436173 -0.07308519 -0.06334049 0.02436173 0.19002149 0.16078742 0.116936296
0.15591507 0.053595804 -0.10719161 -0.04872346 -0.092574574 0.11206395 -0.04385111 0.13155334
-0.06334049 -0.014617037 -0.04872346 -0.12180865 -0.019489383 0.092574574 0.034106422 -0.04385111
0.04872346 -0.14129803 -0.08282988 -0.004872346 0.10231926 0.0 -0.092574574 0.08282988
-0.029234074 0.16078742 -0.004872346 0.08770222 -0.019489383 -0.029234074 -0.09744692 -0.092574574
-0.12668099 0.19976617 0.04385111 0.1705321 -0.12668099 -0.16565976 -0.12180865 -0.068212844
-0.15591507 -0.09744692 -0.058468148 -0.13642569 0.053595804 -0.009744692 -0.10719161 0.07308519
0.04872346 -0.10719161 0.08282988 0.092574574 -0.11206395 0.09744692 0.053595804 -0.058468148
0.19976617 -0.10231926 0.04385111 -0.10719161 0.07308519 0.06334049 0.02436173 0.17540444
0.058468148 -0.009744692 -0.10231926 -0.116936296 0.09744692 0.16078742 0.06334049 -0.11206395
-0.06334049 -0.06334049 0.13642569 -0.009744692 0.06334049 -0.053595804 -0.07308519 -0.029234074
0.09744692 0.02436173 0.04872346 0.12180865 -0.004872346 0.13155334 -0.038978767 0.17540444
-0.08770222 -0.038978767 -0.04385111 0.08282988 0.038978767 -0.11206395 0.092574574 0.06334049
-0.053595804 0.16565976 -0.019489383 -0.058468148 0.08282988 -0.10231926 0.068212844 -0.092574574
-0.038978767 -0.068212844 0.009744692 -0.11206395 -0.1802768 0.08770222 0.02436173 0.038978767
0.08770222 -0.02436173 -0.029234074 0.06334049 -0.092574574 0.08282988 -0.116936296 -0.13155334
-0.07795753 0.053595804 -0.116936296 -0.13155334 -0.004872346 0.1705321 0.116936296 0.07795753
0.15591507 -0.058468148 -0.053595804 -0.014617037 -0.10719161 0.12180865 0.0 0.11206395
-0.009744692 -0.014617037 -0.058468148 -0.07795753 0.004872346 0.12180865 0.07795753 0.009744692
0.029234074 -0.068212844 0.0 -0.019489383 0.06334049 0.0 -0.06334049 0.12668099
-0.04872346 0.16078742 0.06334049 0.068212844 -0.04872346 0.04385111 -0.13642569 -0.15104271
-0.02436173 0.16078742 0.068212844 0.11206395 -0.04872346 -0.10719161 -0.116936296 -0.038978767
-0.07795753 -0.034106422 -0.053595804 -0.16565976 0.009744692 -0.07308519 -0.07795753 0.15104271
0.04385111 -0.092574574 0.009744692 0.12668099 -0.06334049 0.04872346 0.10719161 -0.014617037
0.11206395 -0.10231926 0.053595804 -0.08282988 0.07308519 0.058468148 0.02436173 0.13642569
0.04385111 0.014617037 -0.04872346 -0.10719161 0.053595804 0.15104271 0.038978767 -0.06334049

sequential/lstm/Read_2/ReadVariableOp1 f4 [1024]
00000000: a84f 33bd fbd7 2dbd 9969 5cbd a8c9 13bd
00000010: eb9b 69bb c6f2 d1bc 5b4d a83c f666 843c
00000020: 41de 07bd 2638 bcbd 9a27 0b3d d8e7 f23a
00000030: 9ddc a9bd 6e9f 44bd 1813 ac3c b614 01bd
00000040: abd4 1bbc 646b 22bd 39a6 a73d 32bb efbc
00000050: 7710 913d 09ce 00bd eb9c e93c 1716 57bd
00000060: 527c ffbd 01b1 99bd e440 8ebd b79b b9bd
00000070: 5648 e3bb 6099 82bc ca86 fdbd ccd3 893c
00000080: 2788 933c f3f8 0ebe 5363 3bbd 1d0e 36bc
00000090: 9bdf b2bd 4663 35bd acc4 76bd 2e58 9c3d
000000a0: 98cd 9fbd df01 8b3c 4939 a4bd 6993 d9bd
000000b0: 9ded 72bc 3c98 a5bd 2690 5dbd cfb6 b9bd
000000c0: 2f49 19bc fe8f 81bd 40c6 cdbc 53cb 9b3c
000000d0: 0c24 fbbc 7c49 883c e33f 0bbd b432 05be
000000e0: 688d 8bbd bd8f 13be fb63 dfb9 ac9f 18bd
000000f0: 5187 04be 2004 35bd d65d cabb cafb 293a
00000100: 96ad d73c 1467 90bc d8a2 4bbd c851 d4bd
00000110: 582c 18bd 80ca 893c 8683 5ebd b203 96bb
00000120: 2e56 d4bc 9488 dd3d 0a34 f4bd f162 23bd
00000130: e233 853b 8497 c5bd eab7 c4bd d501 28bd
00000140: 1ccb b4bd 0c59 97bc c2c6 a3bd f594 64bd
00000150: db3d 20bd 9b07 a9bd edd8 bcbb 4d40 b9bd
00000160: d772 b4bd b295 d4bb 6cd5 883c 7125 cdbc
00000170: c4e7 b4bd 93a1 f9bd 9700 28bd 4ab8 12bd
00000180: f5f3 91bd 33d1 c4bc 4092 00be bb93 a8bd
00000190: deeb 9c3c 8d6f 80bd 0577 92bd 8948 4d3c
000001a0: 0726 c43b 402e ff3a b99f a93c d2b1 ecbc
000001b0: 5e96 c3bc 0a15 33bd 676b 883c f27d 81bd
000001c0: 220f 05bd fd59 a23c 4446 b33d c64d 75bd
000001d0: 4578 39bc 53a0 a1bd 14e4 0f3d 5139 95bd
000001e0: 6a8e c2bd 283a b6bd 6e03 b13b ae6e 1b3d
000001f0: f7f5 aabc 9c4d bfbd 09dd 5ebd c1ae 2e3d
00000200: 6413 08be 42b7 473c 9608 3fbd 91ee d8bc
00000210: 6208 3bbd 3363 d2bb 52b0 50bd 88dd 863d
00000220: 616a 91bd 70c4 08bc 6fad 2fbd d03c a5bd
00000230: 115f 9bbd 1431 85bd ab9a 2ebd 28a0 11bd
00000240: b57a 7fbd 76fa d13c 06f5 a1bd 1547 f3bc
00000250: 6334 8cbd 0709 a1bd 7a8a 1fbd ce60 8a3d
00000260: bda0 18bc 8824 17bd 0252 2fbb 64a3 f3bd
00000270: 9c9e 4ebc 3257 babc 5c64 e13c ff65 9ebd
00000280: 11c7 99bd ea8e efbc 8d80 8cbd 91b1 983d
00000290: 6d93 aa3b 4812 c1bb 8d18 2ebc 2653 d2bd
000002a0: 69e8 7f3d 9849 e7bd a48e 7bbd 3aa7 e33c
000002b0: 3398 8abd 78aa 083c 9a51 debd f14a 6cbc
000002c0: 19a4 f7bd f74a fcbc 3029 8cbd 1c0b 90bd
000002d0: 78a5 5f3c a6d7 6ebd 6aa3 c2bc 3ec3 f9bd
000002e0: 6e3d f5bd 96a0 3dbd 219d 92bd e7bd 66bd
000002f0: 30b7 6c3d 0b87 e8bd 5012 e4bc d23f 3b3d
00000300: 0a5c eabd 0410 45bd b930 91bd 8e44 4d3d
00000310: c292 eebd c827 6a3b d6ca 30bd 3a12 283d
00000320: 0311 40bd 454b 4cbd 4870 113d e109 353c
00000330: e397 dcbd 5293 c5bd 057c 8d3c c900 073d
00000340: 0b50 debc 0d55 9fbc 4df5 553b df17 7bbd
00000350: 3448 9fbd 96c6 9f3c d555 7cbd 4cd7 0cbe
00000360: ab9a 87bd 3d69 da3c 778e e63c ff71 79bc
00000370: 3114 e439 679e dabd a3df 28bd 593a bebd
00000380: 911c e1bd 6577 babd 418c eebb fcfd f53c
00000390: d939 7bbb e679 43bd de3d ebbc af8a acbd
000003a0: 3393 0fbc 6637 5abd 471e 71bd 7283 57bc
000003b0: 3d1a 0cbd 9b51 ddbc 32eb cdbc b4fb 96bd
000003c0: 53a1 7cbc 5270 99bd c072 ecbd 470d 9dbb
000003d0: ff7b f33c daa5 21be 0453 87bd f7b5 95bc
000003e0: b036 85bd 0e5d 72bd 5ad3 99bd b31d abbd
000003f0: 83e2 48bd 63bc b0bd ebe1 9e3d ee41 95bd
-0.043777138 -0.042442303 -0.053811643 -0.036080986 -0.0035645913 -0.025628459 0.020544698 0.016162377
-0.033170942 -0.09190397 0.033973314 0.001853223 -0.08294032 -0.048003606 0.021005198 -0.031513892
-0.009511153 -0.039653197 0.08186001 -0.029264066 0.070832185 -0.03144649 0.028517207 -0.0525113
-0.12474884 -0.07504464 -0.06945971 -0.090629034 -0.0069361134 -0.015942276 -0.123792246 0.016824625
0.018009258 -0.13962154 -0.04574902 -0.011111763 -0.087340556 -0.044284128 -0.060246155 0.076340064
-0.07802886 0.016968666 -0.08018739 -0.106238194 -0.014827159 -0.08085677 -0.05409255 -0.09068071
-0.009355827 -0.063262925 -0.025118947 0.019017851 -0.030656837 0.016636603 -0.033996474 -0.13007623
-0.068140805 -0.144103 -0.00042608366 -0.03726165 -0.12942244 -0.044193387 -0.006175737 0.0006484358
0.02632789 -0.017627276 -0.049715847 -0.10367161 -0.037151664 0.016820192 -0.05432465 -0.0045780772
-0.02592 0.10817066 -0.11923988 -0.03988928 0.004065023 -0.0964804 -0.09605391 -0.041017372
-0.088278025 -0.018475078 -0.079968944 -0.05580612 -0.03912149 -0.08253404 -0.0057631643 -0.090454675
-0.088109665 -0.0064875716 0.01670333 -0.025042268 -0.08833268 -0.12189021 -0.041016188 -0.035820283
-0.07126609 -0.024025535 -0.1255579 -0.08231302 0.019155439 -0.062712766 -0.071516074 0.012529501
0.0059859785 0.001946874 0.020706045 -0.028893385 -0.023875412 -0.043721236 0.016652776 -0.0632285
-0.032485135 0.0198183 0.087536365 -0.059888624 -0.011320178 -0.078919075 0.03512962 -0.07286323
-0.094998196 -0.08897811 0.00540202 0.03794735 -0.020869238 -0.09340975 -0.054410014 0.042647127
-0.13288647 0.012189688 -0.046639048 -0.026480945 -0.04566229 -0.006420517 -0.050949402 0.065852225
-0.07100368 -0.008347616 -0.04289001 -0.0806824 -0.07586492 -0.065035015 -0.04262797 -0.035553128
-0.062372882 0.025632124 -0.07908063 -0.02969698 -0.068459295 -0.0786305 -0.03895042 0.06756745
-0.009315667 -0.036900073 -0.0026751761 -0.11896399 -0.012611058 -0.022746656 0.027513675 -0.07734298
-0.07508672 -0.029242951 -0.068604566 0.07455743 0.005205563 -0.005892072 -0.010625971 -0.102697656
0.062477503 -0.11293334 -0.06141533 0.0277897 -0.06767311 0.008341424 -0.10855408 -0.014422164
-0.12091846 -0.030797465 -0.068437934 -0.07033369 0.013650291 -0.058311127 -0.023759563 -0.121954426
-0.119746074 -0.046295725 -0.07158876 -0.05633345 0.05779189 -0.113538824 -0.027840763 0.04571516
-0.11443336 -0.048110977 -0.07089371 0.050114207 -0.116490856 0.0035729278 -0.04316219 0.041033007
-0.046891224 -0.04987647 0.03550747 0.011049719 -0.107711576 -0.0964724 0.017271051 0.032959733
-0.027137777 -0.019449735 0.0032647431 -0.061302062 -0.077774435 0.019503873 -0.061605293 -0.13754004
-0.066212974 0.02666151 0.028144104 -0.015224933 0.00043502593 -0.10674744 -0.0412289 -0.09288473
-0.10991777 -0.09104804 -0.007279903 0.030028336 -0.003833404 -0.047723673 -0.028716024 -0.08424889
-0.008763122 -0.05327549 -0.058866765 -0.013153898 -0.03420471 -0.027016452 -0.025136564 -0.07372227
-0.015419322 -0.074921265 -0.11545324 -0.0047928425 0.029722212 -0.15785924 -0.06607631 -0.018275244
-0.065045714 -0.059170775 -0.07511015 -0.08355274 -0.049044143 -0.08629682 0.07757934 -0.07287966

while/MatMul_11 i1 [1024, 256] scale=0.0030457564 zero_point=0
00000000: fb15 061c ff15 f518 fdf9 1105 e402 ec08
00000010: 01dd 280a 0bf3 ee12 0101 0905 0bfd f2f2
00000020: e91f fd0c 0d13 0419 26f1 1420 0afc 0103
00000030: 150e f8fc f121 e7f9 e00e 150a 0504 f106
00000040: 110f 0107 11f4 ebfb f2f6 f7fd 0af7 ffc6
00000050: 090d 2006 dffc f11c 12fe 05f5 eefe f7f6
00000060: f900 fbcb eef9 f1eb e524 e6f8 f0e6 f62d
00000070: 01fa eb14 12ed 09f8 0c06 fa23 f7f6 0ae5
00000080: 17fd d9fa def1 1718 0cff fef9 1be7 1208
00000090: e000 ebfc 0a05 ece6 e4f5 e8f9 f10c f2eb
000000a0: 07fa f524 fe14 f309 20ff 0e0f 0800 fd18
000000b0: 0801 001a 1500 ea09 f81a 1204 f20e 0418
000000c0: 0cec fdf3 f5fe efdc 01f7 1df5 0203 1105
000000d0: e8f0 0df6 1404 fe15 efe6 f5fc f0ff 0707
000000e0: f5e6 eefe 0ee6 f925 f4f4 f3f5 100f 0209
000000f0: f9f8 0f07 16f5 f418 07e4 e2f8 fc15 060e
-0.015228782 0.06396088 0.018274538 0.08528118 -0.0030457564 0.06396088 -0.03350332 0.07309815
-0.009137269 -0.021320295 0.05177786 0.015228782 -0.08528118 0.0060915127 -0.060915127 0.024366051
0.0030457564 -0.10660148 0.121830255 0.030457564 0.03350332 -0.039594833 -0.054823615 0.054823615
0.0030457564 0.0030457564 0.027411807 0.015228782 0.03350332 -0.009137269 -0.04264059 -0.04264059
-0.0700524 0.09441845 -0.009137269 0.036549076 0.039594833 0.05786937 0.0121830255 0.076143906
0.11573874 -0.045686346 0.060915127 0.097464204 0.030457564 -0.0121830255 0.0030457564 0.009137269
0.06396088 0.04264059 -0.024366051 -0.0121830255 -0.045686346 0.10050996 -0.076143906 -0.021320295
-0.097464204 0.04264059 0.06396088 0.030457564 0.015228782 0.0121830255 -0.045686346 0.018274538
0.05177786 0.045686346 0.0030457564 0.021320295 0.05177786 -0.036549076 -0.06396088 -0.015228782
-0.04264059 -0.030457564 -0.027411807 -0.009137269 0.030457564 -0.027411807 -0.0030457564 -0.17665386
0.027411807 0.039594833 0.097464204 0.018274538 -0.10050996 -0.0121830255 -0.045686346 0.08528118
0.054823615 -0.0060915127 0.015228782 -0.03350332 -0.054823615 -0.0060915127 -0.027411807 -0.030457564
-0.021320295 0.0 -0.015228782 -0.16142508 -0.054823615 -0.021320295 -0.045686346 -0.06396088
-0.082235426 0.10964723 -0.079189666 -0.024366051 -0.048732102 -0.079189666 -0.030457564 0.13705903
0.0030457564 -0.018274538 -0.06396088 0.060915127 0.054823615 -0.05786937 0.027411807 -0.024366051
0.036549076 0.018274538 -0.018274538 0.10660148 -0.027411807 -0.030457564 0.030457564 -0.082235426
0.0700524 -0.009137269 -0.1187845 -0.018274538 -0.10355572 -0.045686346 0.0700524 0.07309815
0.036549076 -0.0030457564 -0.0060915127 -0.021320295 0.082235426 -0.076143906 0.054823615 0.024366051
-0.097464204 0.0 -0.06396088 -0.0121830255 0.030457564 0.015228782 -0.060915127 -0.079189666
-0.08528118 -0.03350332 -0.07309815 -0.021320295 -0.045686346 0.036549076 -0.04264059 -0.06396088
0.021320295 -0.018274538 -0.03350332 0.10964723 -0.0060915127 0.060915127 -0.039594833 0.027411807
0.097464204 -0.0030457564 0.04264059 0.045686346 0.024366051 0.0 -0.009137269 0.07309815
0.024366051 0.0030457564 0.0 0.079189666 0.06396088 0.0 -0.06700664 0.027411807
-0.024366051 0.079189666 0.054823615 0.0121830255 -0.04264059 0.04264059 0.0121830255 0.07309815
0.036549076 -0.060915127 -0.009137269 -0.039594833 -0.03350332 -0.0060915127 -0.05177786 -0.10964723
0.0030457564 -0.027411807 0.08832693 -0.03350332 0.0060915127 0.009137269 0.05177786 0.015228782
-0.07309815 -0.048732102 0.039594833 -0.030457564 0.060915127 0.0121830255 -0.0060915127 0.06396088
-0.05177786 -0.079189666 -0.03350332 -0.0121830255 -0.048732102 -0.0030457564 0.021320295 0.021320295
-0.03350332 -0.079189666 -0.054823615 -0.0060915127 0.04264059 -0.079189666 -0.021320295 0.11269298
-0.036549076 -0.036549076 -0.039594833 -0.03350332 0.048732102 0.045686346 0.0060915127 0.027411807
-0.021320295 -0.024366051 0.045686346 0.021320295 0.06700664 -0.03350332 -0.036549076 0.07309815
0.021320295 -0.08528118 -0.09137269 -0.024366051 -0.0121830255 0.06396088 0.018274538 0.04264059

while/MatMul i1 [1024, 63] scale=0.0048043346 zero_point=0
00000000: 04f6 08fc f8ea fe04 f9e6 fdff e8fd 10f1
00000010: fbfe e8ff 1ef4 f71c fef1 0cea ff0f f6f5
00000020: 1ce5 f215 e4dd 07fe fd08 f600 05e3 ec08
00000030: f0ff 02e5 f023 e7fa 19ef fbfd e2f5 0eea
00000040: fcfa fdf0 0bf9 ed1e 01f3 23fb f50e fc07
00000050: 31ea ff12 f6f0 15ed 0c18 0602 28fe f411
00000060: f0fd 0bf8 0004 f6ff 21ed ec17 fef8 1200
00000070: f524 0aee 1bf2 f811 f2eb 0ef3 ef20 f7ea
00000080: 08ee 02e7 06ff eae7 eeef f4ff 05f5 00e6
00000090: f1fd e0f4 faff f7f0 01f2 04df f6f4 ebe4
000000a0: f601 f0fb 05e7 f1fd f5f6 00e6 fff1 e9f8
000000b0: f7f8 030d feec 00fa 0203 e1f3 fded e808
000000c0: eddf 04e8 d9f3 f4dc 11eb e314 dddd f8dc
000000d0: d80a eae7 f8e2 f304 e4ee f1db ec10 f5de
000000e0: f9e5 e80e e9ef 04de f717 e9de 1bf5 d907
000000f0: e9e9 14f9 e820 def3 24de e00d f6fa 0c08
0.019217338 -0.048043348 0.038434677 -0.019217338 -0.038434677 -0.10569536 -0.009608669 0.019217338
-0.03363034 -0.1249127 -0.014413004 -0.0048043346 -0.11530403 -0.014413004 0.07686935 -0.07206502
-0.024021674 -0.009608669 -0.11530403 -0.0048043346 0.14413004 -0.057652015 -0.043239012 0.13452137
-0.009608669 -0.07206502 0.057652015 -0.10569536 -0.0048043346 0.07206502 -0.048043348 -0.05284768
0.13452137 -0.12971704 -0.06726068 0.100891024 -0.13452137 -0.1681517 0.03363034 -0.009608669
-0.014413004 0.038434677 -0.048043348 0.0 0.024021674 -0.13932571 -0.096086696 0.038434677
-0.07686935 -0.0048043346 0.009608669 -0.12971704 -0.07686935 0.1681517 -0.120108366 -0.028826008
0.120108366 -0.08167369 -0.024021674 -0.014413004 -0.14413004 -0.05284768 0.06726068 -0.10569536
-0.019217338 -0.028826008 -0.014413004 -0.07686935 0.05284768 -0.03363034 -0.09128236 0.14413004
0.0048043346 -0.06245635 0.1681517 -0.024021674 -0.05284768 0.06726068 -0.019217338 0.03363034
0.23541239 -0.10569536 -0.0048043346 0.086478025 -0.048043348 -0.07686935 0.100891024 -0.09128236
0.057652015 0.11530403 0.028826008 0.009608669 0.19217339 -0.009608669 -0.057652015 0.08167369
-0.07686935 -0.014413004 0.05284768 -0.038434677 0.0 0.019217338 -0.048043348 -0.0048043346
0.15854304 -0.09128236 -0.096086696 0.110499695 -0.009608669 -0.038434677 0.086478025 0.0
-0.05284768 0.17295605 0.048043348 -0.086478025 0.12971704 -0.06726068 -0.038434677 0.08167369
-0.06726068 -0.100891024 0.06726068 -0.06245635 -0.08167369 0.1537387 -0.043239012 -0.10569536
0.038434677 -0.086478025 0.009608669 -0.120108366 0.028826008 -0.0048043346 -0.10569536 -0.120108366
-0.086478025 -0.08167369 -0.057652015 -0.0048043346 0.024021674 -0.05284768 0.0 -0.1249127
-0.07206502 -0.014413004 -0.1537387 -0.057652015 -0.028826008 -0.0048043346 -0.043239012 -0.07686935
0.0048043346 -0.06726068 0.019217338 -0.15854304 -0.048043348 -0.057652015 -0.100891024 -0.13452137
-0.048043348 0.0048043346 -0.07686935 -0.024021674 0.024021674 -0.120108366 -0.07206502 -0.014413004
-0.05284768 -0.048043348 0.0 -0.1249127 -0.0048043346 -0.07206502 -0.110499695 -0.038434677
-0.043239012 -0.038434677 0.014413004 0.06245635 -0.009608669 -0.096086696 0.0 -0.028826008
0.009608669 0.014413004 -0.14893438 -0.06245635 -0.014413004 -0.09128236 -0.11530403 0.038434677
-0.09128236 -0.15854304 0.019217338 -0.11530403 -0.18736905 -0.06245635 -0.057652015 -0.17295605
0.08167369 -0.100891024 -0.13932571 0.096086696 -0.1681517 -0.1681517 -0.038434677 -0.17295605
-0.19217339 0.048043348 -0.10569536 -0.120108366 -0.038434677 -0.14413004 -0.06245635 0.019217338
-0.13452137 -0.086478025 -0.07206502 -0.17776038 -0.096086696 0.07686935 -0.05284768 -0.16334738
-0.03363034 -0.12971704 -0.11530403 0.06726068 -0.110499695 -0.08167369 0.019217338 -0.16334738
-0.043239012 0.110499695 -0.110499695 -0.16334738 0.12971704 -0.05284768 -0.18736905 0.03363034
-0.110499695 -0.110499695 0.096086696 -0.03363034 -0.11530403 0.1537387 -0.16334738 -0.06245635
0.17295605 -0.16334738 -0.1537387 0.06245635 -0.048043348 -0.028826008 0.057652015 0.038434677

sequential/lstm_1/Read_2/ReadVariableOp1 f4 [512]
00000000: 3f5b 07be ee4b 86be 8bb5 d8bd 7b69 c2bd
00000010: a95f 0abe c8ec 67be 80c1 39bc 641e cdbd
00000020: 9609 f1bd 21bb 28be 218d 813d fe26 2dbe
00000030: 0808 8bbd ebcc 0cbe 41ae 003d 9bf9 953c
00000040: 6a7b 48be 06bc 77be 834a 1bbe 1d54 65bc
00000050: 2c4d 453d 5087 debd b667 49be 04dc b1bd
00000060: 717b ecbd 9c04 14be 8831 6e3d 051d d63b
00000070: 2483 ccbd 6bb2 e6bd 528b 2fbd 48a2 15be
00000080: a2b5 d9bd 2e99 f7bd a75d 1abe 1410 e8bd
00000090: a881 333d e1d0 85be a4a1 b6bd 3783 36be
000000a0: 1e99 ac3c 7445 933d b77f 073d f9e0 51bd
000000b0: edaa b13d 7eb7 9ebe 8077 52be 3a4d 54be
000000c0: 7277 54bd 8aad 30be 6bb5 d8bd 497b 21be
000000d0: 08e5 b8bd cfc6 b7bc 3d6c dd3c 9ed9 e8bd
000000e0: a31c 1dbd 4711 01be d5a9 f5bd d64a 5cbe
000000f0: e6a5 2dbe f464 36bd 59d6 1fbe aa80 233d
00000100: 564e a8be 7010 b93d b238 d0bd f2e4 ebbc
00000110: 06b8 47bd 13d9 b9bd 7254 34be 0bad 2abe
00000120: 501c f8bd 70c8 06be cafa f5bd 0cbd b4bd
00000130: c7e8 643b 12f4 6e3d fed6 2dbc b60a 423d
00000140: 0a74 f7bd 245c 423d 09ab 25be d416 0ebe
00000150: ee31 3dbd 17e2 2bbe 195d b4bd 9042 4dbc
00000160: 7d1f ed3b f72e b9bc 6081 9cbd c8de f0bc
00000170: 886f 23bc 0638 3cbe 8f73 b73c d672 813d
00000180: 2d68 4abd 4e7b e0bc 86f9 7ebc 5e6c 4abe
00000190: d169 b8bd e643 673d 052f 14bd 4cbd 7bbc
000001a0: a25e 75be 6f7e 4f3d c5a7 ac3d 5d72 8dbd
000001b0: fa5a 05be e1f9 81bd 8c4d 01be 8ad0 1cbe
000001c0: 4ebe 79bc 8ef1 92bd c5ea 1cbd 4950 8dbc
000001d0: 9615 97bd abc2 fcbd f9a6 da3b 2666 f9bb
000001e0: 1324 2fbe 4a22 6ebe e7ac 0cbe 2ab7 14be
000001f0: 9cb8 873c 7992 1ebd 40cb 23bd 0fcc c73b
00000200: f586 523f ce56 3d3f 57be 613f 0d6f 573f
00000210: 6fd7 533f a0b7 453f 2df9 633f 6517 633f
00000220: a5ae 5c3f 4966 553f edb7 783f 40fc 5f3f
00000230: 30d1 653f f555 5c3f e676 793f b857 6f3f
00000240: 4e2a 4c3f 57b2 4a3f fafe 543f f4a8 853f
00000250: 86f4 663f a2bd 5c3f ecc6 533f 4779 663f
00000260: bc39 603f 458e 5c3f 8e9c 863f 4e65 663f
00000270: 211c 653f e889 5f3f 5fb8 653f cf50 513f
00000280: f209 633f 6aa1 593f fe53 583f fd2f 613f
00000290: ab3d 7f3f b664 4c3f 21a9 623f 15c0 643f
000002a0: 1c3d 713f 1564 813f 5aa8 5d3f bd33 753f
000002b0: 8e9f 7b3f ac03 383f ad6b 463f 522e 4e3f
000002c0: 0d75 693f 7b85 5e3f b598 663f 52f5 593f
000002d0: 7d08 6e3f db73 603f 3cbd 623f bc92 5e3f
000002e0: 89a1 843f b264 603f edeb 583f e722 3c3f
000002f0: 3cfe 563f 954d 643f 2ae0 483f d3ad 703f
00000300: d03c 353f 4982 873f 60d0 5c3f f81d 6b3f
00000310: 7cb8 783f a7a9 5d3f 7d26 503f 0bca 4a3f
00000320: c5a8 583f e66c 5a3f 7f71 573f 1554 6e3f
00000330: 201b 6e3f 3698 6f3f 60b4 743f 5983 6b3f
00000340: 9ad1 673f f766 833f 070a 6a3f cc7e 5f3f
00000350: f8d3 6d3f 60ef 523f 2e52 643f 0cb2 6e3f
00000360: fbc4 7a3f f541 6f3f 5e48 673f 7fc7 693f
00000370: 49bd 683f 58a4 4c3f 54ca 763f da8b 763f
00000380: e832 813f 6619 713f 12d5 783f ca60 523f
00000390: 0922 5b3f 99b5 863f 35d3 6c3f 1952 7b3f
000003a0: 4c27 473f 49c2 7d3f be10 733f 3c95 7b3f
000003b0: 6024 5d3f 4f59 623f fcb4 5d3f 37c7 593f
000003c0: 923a 753f 0070 673f 6cd7 6b3f 2139 663f
000003d0: 88fa 5c3f a494 593f c605 6b3f e906 773f
000003e0: d790 4b3f 0f39 493f 7c2d 5c3f 1e9d 4f3f
000003f0: 45e7 773f 9334 733f ae42 6c3f 336a 723f
-0.13218401 -0.26229805 -0.105815016 -0.09492775 -0.13513054 -0.22648919 -0.011337638 -0.10015562
-0.117694065 -0.16477634 0.06325746 -0.16909406 -0.06788641 -0.13750045 0.03141618 0.018307498
-0.19578329 -0.24192819 -0.15165143 -0.013997105 0.0481693 -0.108656526 -0.19668469 -0.08684543
-0.11546982 -0.14454883 0.058152705 0.006534221 -0.099859506 -0.11264499 -0.042857476 -0.14612687
-0.10630347 -0.120897636 -0.15074788 -0.11331192 0.04382482 -0.26135924 -0.08917549 -0.17823492
0.021069106 0.071909815 0.033080783 -0.05123994 0.0867518 -0.30999368 -0.20553398 -0.20732585
-0.051871724 -0.172537 -0.10581478 -0.15769686 -0.09028059 -0.022433667 0.027029151 -0.11369632
-0.03835739 -0.12604247 -0.119952835 -0.21512923 -0.16957816 -0.04452987 -0.15609111 0.039917625
-0.32872266 0.09036338 -0.10167064 -0.028795693 -0.048759483 -0.09074607 -0.17610338 -0.16667573
-0.12114775 -0.13162398 -0.12010725 -0.0882512 0.0034928785 0.058338232 -0.01061034 0.047373496
-0.120826796 0.047451153 -0.16178526 -0.13875896 -0.046190195 -0.16785465 -0.088068195 -0.012528077
0.0072364197 -0.022605402 -0.07641864 -0.029403105 -0.009975322 -0.18380746 0.02239397 0.06320731
-0.049415756 -0.027402546 -0.015562421 -0.19767901 -0.09004558 0.056461237 -0.036177654 -0.015364956
-0.23961881 0.050657686 0.08430437 -0.06906579 -0.13022986 -0.06346489 -0.12627238 -0.15313926
-0.015243126 -0.07174979 -0.03830983 -0.017250197 -0.07377164 -0.123418175 0.0066727367 -0.007611054
-0.17103605 -0.23255268 -0.13737832 -0.14522997 0.01656752 -0.038713906 -0.039988756 0.0060973237
0.8223718 0.7396058 0.8818106 0.84153825 0.827506 0.77233315 0.8905209 0.8870757
0.86203986 0.833592 0.9715565 0.8749428 0.8977232 0.8606866 0.9744705 0.93493223
0.7975205 0.79178375 0.83201563 1.0442185 0.90216863 0.86226857 0.82725406 0.90028805
0.87588096 0.86154586 1.0516527 0.8999833 0.89496046 0.87319803 0.8973445 0.8176393
0.8868705 0.85011923 0.8450316 0.8796385 0.9970347 0.7984117 0.8853932 0.89355594
0.9423387 1.0108668 0.8658501 0.9578207 0.98290336 0.718806 0.7750805 0.8053943
0.9119423 0.86922425 0.9007676 0.85139954 0.929817 0.8767678 0.8857 0.8694265
1.0361797 0.8765365 0.84734994 0.73490757 0.8398168 0.8918088 0.7846705 0.94015235
0.7079592 1.0586635 0.86255455 0.91842604 0.971565 0.86586994 0.8130873 0.79214543
0.8463252 0.85322416 0.84157556 0.9309705 0.9301014 0.9359163 0.9558773 0.91997296
0.905542 1.0265797 0.9142155 0.8730285 0.92901564 0.8239651 0.89187896 0.9324043
0.9795682 0.9346002 0.903448 0.9132003 0.90913826 0.7993827 0.9640248 0.96307147
1.009366 0.9417938 0.9720012 0.8217894 0.8559881 1.0524169 0.92509776 0.98172146
0.7779434 0.9912458 0.9494742 0.9827459 0.8638363 0.88417524 0.86604285 0.850696
0.95792496 0.90405273 0.9212558 0.8993092 0.8631978 0.8499243 0.91805685 0.9649492
0.79517883 0.7860269 0.86006904 0.81099117 0.96837264 0.95002097 0.92289245 0.946933

while/MatMul_14 i1 [512, 128] scale=0.002688854 zero_point=0
00000000: f2ac 310c f4f2 f8cc 29cc fcf5 0cf3 e706
00000010: 31f7 1cf5 1523 19d4 ee03 f600 36f9 0b02
00000020: 0916 3403 161a 0c30 e404 02e2 efe4 05ec
00000030: 0422 161e ea2b edd8 02f0 c908 0815 1800
00000040: eee6 0606 1a20 f811 41fe 12bc f8c4 0a0a
00000050: cc11 ef24 e8dc 02e6 12df 09f3 06c2 df09
00000060: f9fd 06e6 f1fe 2518 1d12 d637 0fec 1e15
00000070: 150e eaeb f206 e010 06eb c700 f20c 1afe
00000080: fbf7 fb05 0b12 edd2 18f7 20f6 e81d 1007
00000090: 230d 29fb fc0d 15ed 0ee6 efc3 fc0e fe16
000000a0: f3fa 13e5 0c05 fd25 ce12 ee3b e5e4 ecf4
000000b0: d607 0e14 f10b 14fa 0c04 fc0f f215 f3da
000000c0: f3dd e1f6 f126 fa08 1cf1 17b9 02dd 1d0f
000000d0: d0fe f701 00e9 f2fc e905 2313 efdd e108
000000e0: 0ffd efeb f420 14f3 d817 ec19 f2c4 2b18
000000f0: 32f2 f2fa 1115 ee19 e21b ceec d606 3fe5
-0.037643954 -0.22586374 0.13175385 0.032266248 -0.032266248 -0.037643954 -0.021510832 -0.13982041
0.110243015 -0.13982041 -0.010755416 -0.029577393 0.032266248 -0.034955103 -0.06722135 0.016133124
0.13175385 -0.024199687 0.07528791 -0.029577393 0.056465935 0.09410989 0.06722135 -0.11830957
-0.048399374 0.008066562 -0.02688854 0.0 0.14519812 -0.018821977 0.029577393 0.005377708
0.024199687 0.059154786 0.13982041 0.008066562 0.059154786 0.069910206 0.032266248 0.12906499
-0.07528791 0.010755416 0.005377708 -0.08066562 -0.04571052 -0.07528791 0.01344427 -0.05377708
0.010755416 0.09142104 0.059154786 0.08066562 -0.059154786 0.115620725 -0.051088225 -0.10755416
0.005377708 -0.043021664 -0.14788698 0.021510832 0.021510832 0.056465935 0.064532496 0.0
-0.048399374 -0.069910206 0.016133124 0.016133124 0.069910206 0.08604333 -0.021510832 0.04571052
0.17477551 -0.005377708 0.048399374 -0.18284208 -0.021510832 -0.16133124 0.02688854 0.02688854
-0.13982041 0.04571052 -0.04571052 0.09679875 -0.064532496 -0.09679875 0.005377708 -0.069910206
0.048399374 -0.08873218 0.024199687 -0.034955103 0.016133124 -0.16670895 -0.08873218 0.024199687
-0.018821977 -0.008066562 0.016133124 -0.069910206 -0.04033281 -0.005377708 0.099487595 0.064532496
0.07797676 0.048399374 -0.11293187 0.14788698 0.04033281 -0.05377708 0.08066562 0.056465935
0.056465935 0.037643954 -0.059154786 -0.056465935 -0.037643954 0.016133124 -0.08604333 0.043021664
0.016133124 -0.056465935 -0.15326467 0.0 -0.037643954 0.032266248 0.069910206 -0.005377708
-0.01344427 -0.024199687 -0.01344427 0.01344427 0.029577393 0.048399374 -0.051088225 -0.12368728
0.064532496 -0.024199687 0.08604333 -0.02688854 -0.064532496 0.07797676 0.043021664 0.018821977
0.09410989 0.034955103 0.110243015 -0.01344427 -0.010755416 0.034955103 0.056465935 -0.051088225
0.037643954 -0.069910206 -0.04571052 -0.16402009 -0.010755416 0.037643954 -0.005377708 0.059154786
-0.034955103 -0.016133124 0.051088225 -0.07259906 0.032266248 0.01344427 -0.008066562 0.099487595
-0.1344427 0.048399374 -0.048399374 0.15864238 -0.07259906 -0.07528791 -0.05377708 -0.032266248
-0.11293187 0.018821977 0.037643954 0.05377708 -0.04033281 0.029577393 0.05377708 -0.016133124
0.032266248 0.010755416 -0.010755416 0.04033281 -0.037643954 0.056465935 -0.034955103 -0.10217645
-0.034955103 -0.09410989 -0.08335447 -0.02688854 -0.04033281 0.10217645 -0.016133124 0.021510832
0.07528791 -0.04033281 0.06184364 -0.19090864 0.005377708 -0.09410989 0.07797676 0.04033281
-0.12906499 -0.005377708 -0.024199687 0.002688854 0.0 -0.06184364 -0.037643954 -0.010755416
-0.06184364 0.01344427 0.09410989 0.051088225 -0.04571052 -0.09410989 -0.08335447 0.021510832
0.04033281 -0.008066562 -0.04571052 -0.056465935 -0.032266248 0.08604333 0.05377708 -0.034955103
-0.10755416 0.06184364 -0.05377708 0.06722135 -0.037643954 -0.16133124 0.115620725 0.064532496
0.1344427 -0.037643954 -0.037643954 -0.016133124 0.04571052 0.056465935 -0.048399374 0.06722135
-0.08066562 0.07259906 -0.1344427 -0.05377708 -0.11293187 0.016133124 0.1693978 -0.07259906

while/MatMul2 i1 [512, 256] scale=0.0034535215 zero_point=0
00000000: edf1 ea24 0eff ecda 0afd ea10 df06 c91f
00000010: f8fb 0018 f600 f81d 1501 250c 0308 05f2
00000020: fa18 f9df 0004 23ff f920 fa00 e1f7 0018
00000030: 100a 3712 d31d f706 f90d 17fa f7fe 0bfa
00000040: 112d f30d 3423 12f1 edd2 f030 200d 0dd0
00000050: 1ef1 0ff5 ec0c e9f8 1814 f0f2 e2ef e1f9
00000060: fdf1 f8e9 ecee 0d27 2638 f4fe 0212 e408
00000070: 1c0b f5fe f9fc de14 1d02 02e2 03e6 1418
00000080: 02fb d906 dce2 1c20 f5cf ec02 1bee 1911
00000090: e5ff f126 f10a d62d 0d0a ff03 0d22 fd07
000000a0: 18f9 d722 0e03 0bed f9f7 fefa e2f4 09f9
000000b0: eedc 0507 1415 fd05 110a e623 f9e7 0cd4
000000c0: f0f6 080b f4fe 23df 0ef4 e723 f6e9 d8fa
000000d0: 15f4 0b14 2bf4 1703 ec07 e8fa 16ea cfe8
000000e0: f8fe df03 f1fc fd0c 0404 1b02 faf2 e61a
000000f0: fa0e 1409 feed 18fa 0905 0ce0 c0e6 f70c
-0.065616906 -0.05180282 -0.075977474 0.12432677 0.048349302 -0.0034535215 -0.06907043 -0.13123381
0.034535214 -0.010360565 -0.075977474 0.055256344 -0.11396621 0.02072113 -0.18994369 0.107059166
-0.027628172 -0.017267607 0.0 0.08288452 -0.034535214 0.0 -0.027628172 0.10015213
0.07252395 0.0034535215 0.1277803 0.04144226 0.010360565 0.027628172 0.017267607 -0.048349302
-0.02072113 0.08288452 -0.024174651 -0.11396621 0.0 0.013814086 0.12087325 -0.0034535215
-0.024174651 0.11051269 -0.02072113 0.0 -0.107059166 -0.031081693 0.0 0.08288452
0.055256344 0.034535214 0.18994369 0.062163386 -0.15540847 0.10015213 -0.031081693 0.02072113
-0.024174651 0.04489578 0.079431 -0.02072113 -0.031081693 -0.006907043 0.037988737 -0.02072113
0.058709867 0.15540847 -0.04489578 0.04489578 0.17958312 0.12087325 0.062163386 -0.05180282
-0.065616906 -0.158862 -0.055256344 0.16576904 0.11051269 0.04489578 0.04489578 -0.16576904
0.10360564 -0.05180282 0.05180282 -0.037988737 -0.06907043 0.04144226 -0.079431 -0.027628172
0.08288452 0.06907043 -0.055256344 -0.048349302 -0.10360564 -0.058709867 -0.107059166 -0.024174651
-0.010360565 -0.05180282 -0.027628172 -0.079431 -0.06907043 -0.062163386 0.04489578 0.13468733
0.13123381 0.19339721 -0.04144226 -0.006907043 0.006907043 0.062163386 -0.096698605 0.027628172
0.096698605 0.037988737 -0.037988737 -0.006907043 -0.024174651 -0.013814086 -0.117419735 0.06907043
0.10015213 0.006907043 0.006907043 -0.10360564 0.010360565 -0.08979156 0.06907043 0.08288452
0.006907043 -0.017267607 -0.13468733 0.02072113 -0.12432677 -0.10360564 0.096698605 0.11051269
-0.037988737 -0.16922255 -0.06907043 0.006907043 0.09324508 -0.062163386 0.086338036 0.058709867
-0.09324508 -0.0034535215 -0.05180282 0.13123381 -0.05180282 0.034535214 -0.1450479 0.15540847
0.04489578 0.034535214 -0.0034535215 0.010360565 0.04489578 0.117419735 -0.010360565 0.024174651
0.08288452 -0.024174651 -0.14159438 0.117419735 0.048349302 0.010360565 0.037988737 -0.065616906
-0.024174651 -0.031081693 -0.006907043 -0.02072113 -0.10360564 -0.04144226 0.031081693 -0.024174651
-0.062163386 -0.12432677 0.017267607 0.024174651 0.06907043 0.07252395 -0.010360565 0.017267607
0.058709867 0.034535214 -0.08979156 0.12087325 -0.024174651 -0.086338036 0.04144226 -0.15195495
-0.055256344 -0.034535214 0.027628172 0.037988737 -0.04144226 -0.006907043 0.12087325 -0.11396621
0.048349302 -0.04144226 -0.086338036 0.12087325 -0.034535214 -0.079431 -0.13814086 -0.02072113
0.07252395 -0.04144226 0.037988737 0.06907043 0.14850143 -0.04144226 0.079431 0.010360565
-0.06907043 0.024174651 -0.08288452 -0.02072113 0.075977474 -0.075977474 -0.16922255 -0.08288452
-0.027628172 -0.006907043 -0.11396621 0.010360565 -0.05180282 -0.013814086 -0.010360565 0.04144226
0.013814086 0.013814086 0.09324508 0.006907043 -0.02072113 -0.048349302 -0.08979156 0.08979156
-0.02072113 0.048349302 0.06907043 0.031081693 -0.006907043 -0.065616906 0.08288452 -0.02072113
0.031081693 0.017267607 0.04144226 -0.11051269 -0.22102538 -0.08979156 -0.031081693 0.04144226
