RNN_Quantized_Model.tflite (tflite, 207952 bytes, 8 tensors)

sequential/dense/BiasAdd/ReadVariableOp f4 [16]
0	0x3d9447fe	0.07240294
1	0x3cec3d34	0.028837778
2	0x3d18b344	0.037280336
3	0xbcabe03f	-0.020980952
4	0x3d9e6d90	0.07735741
5	0x3d4f55ad	0.050618816
6	0x3d790963	0.060799967
7	0x3c543dbd	0.012954173
8	0x3d86de58	0.065853775
9	0x3c0276af	0.007962867
10	0x3c104981	0.008806587
11	0xbd240113	-0.040040087
12	0xbd31e4be	-0.043431036
13	0x3c8370b2	0.016044948
14	0x3daf86e9	0.08570654
15	0x3c8280c7	0.015930546

sequential/dense/MatMul i1 [16, 3840] scale=0.0016424302 zero_point=0
0	0x16	0.036133464
1	0xe2	-0.049272906
2	0xdf	-0.054200195
3	0xcb	-0.0870488
4	0x00	0.0
5	0xc3	-0.10018824
6	0xf9	-0.011497011
7	0x3f	0.103473105
8	0x37	0.09033366
9	0xc6	-0.09526095
10	0x4c	0.124824695
11	0xec	-0.032848604
12	0x43	0.110042825
13	0xe9	-0.037775896
14	0xd6	-0.068982065
15	0xc4	-0.09854581
16	0xff	-0.0016424302
17	0x32	0.08212151
18	0x42	0.10840039
19	0xdf	-0.054200195
20	0xe7	-0.041060753
21	0xe9	-0.037775896
22	0xcf	-0.08047908
23	0x2c	0.07226693
24	0xcf	-0.08047908
25	0xf4	-0.019709162
26	0xe7	-0.041060753
27	0xb0	-0.13139442
28	0xf3	-0.021351593
29	0x21	0.054200195
30	0x49	0.1198974
31	0xd5	-0.0706245
32	0xf3	-0.021351593
33	0xc2	-0.101830676
34	0xd8	-0.06569721
35	0xf2	-0.022994023
36	0x51	0.13303685
37	0x11	0.027921313
38	0x04	0.006569721
39	0xe4	-0.045988046
40	0x05	0.008212151
41	0x0c	0.019709162
42	0xc2	-0.101830676
43	0x48	0.118254974
44	0xfb	-0.008212151
45	0x23	0.05748506
46	0x43	0.110042825
47	0xee	-0.029563744
48	0x14	0.032848604
49	0xd8	-0.06569721
50	0xfe	-0.0032848604
51	0xb0	-0.13139442
52	0xce	-0.08212151
53	0x48	0.118254974
54	0x45	0.11332768
55	0xd7	-0.06733964
56	0x3e	0.101830676
57	0x10	0.026278883
58	0x25	0.060769916
59	0x04	0.006569721
60	0xff	-0.0016424302
61	0xc3	-0.10018824
62	0xd7	-0.06733964
63	0x18	0.039418325
64	0xe1	-0.050915338
65	0xda	-0.062412348
66	0xf5	-0.018066732
67	0x04	0.006569721
68	0x39	0.09361852
69	0x30	0.07883665
70	0x17	0.037775896
71	0xe2	-0.049272906
72	0xf6	-0.016424302
73	0xdf	-0.054200195
74	0x19	0.041060753
75	0xe1	-0.050915338
76	0xd8	-0.06569721
77	0x18	0.039418325
78	0xf2	-0.022994023
79	0x2e	0.07555179
80	0x1b	0.044345617
81	0x1d	0.047630474
82	0x30	0.07883665
83	0x45	0.11332768
84	0xe4	-0.045988046
85	0xcd	-0.08376394
86	0xc9	-0.09033366
87	0xe5	-0.044345617
88	0x03	0.0049272906
89	0x03	0.0049272906
90	0x2c	0.07226693
91	0x12	0.029563744
92	0x0e	0.022994023
93	0xf4	-0.019709162
94	0xdf	-0.054200195
95	0x27	0.06405478
96	0xc8	-0.09197609
97	0xfb	-0.008212151
98	0xeb	-0.034491032
99	0x17	0.037775896
100	0xfe	-0.0032848604
101	0xc8	-0.09197609
102	0xf6	-0.016424302
103	0xfc	-0.006569721
104	0x31	0.08047908
105	0xdb	-0.060769916
106	0x2e	0.07555179
107	0xfa	-0.009854581
108	0xdb	-0.060769916
109	0x05	0.008212151
110	0xe1	-0.050915338
111	0x58	0.14453386
112	0x13	0.031206174
113	0xef	-0.027921313
114	0x0d	0.021351593
115	0x1c	0.045988046
116	0x0f	0.024636453
117	0x46	0.11497012
118	0xef	-0.027921313
119	0x27	0.06405478
120	0x4b	0.12318227
121	0xcf	-0.08047908
122	0xfb	-0.008212151
123	0xe4	-0.045988046
124	0x2c	0.07226693
125	0xc3	-0.10018824
126	0xed	-0.031206174
127	0x34	0.08540637
128	0x3f	0.103473105
129	0xe6	-0.042703185
130	0xd7	-0.06733964
131	0xcb	-0.0870488
132	0xb9	-0.116612546
133	0xc5	-0.096903384
134	0x23	0.05748506
135	0x05	0.008212151
136	0x34	0.08540637
137	0x9c	-0.16424301
138	0xf9	-0.011497011
139	0xce	-0.08212151
140	0x18	0.039418325
141	0xeb	-0.034491032
142	0x38	0.09197609
143	0xd3	-0.07390936
144	0x1c	0.045988046
145	0x0d	0.021351593
146	0x0e	0.022994023
147	0x2d	0.07390936
148	0x37	0.09033366
149	0x14	0.032848604
150	0x1d	0.047630474
151	0x3a	0.09526095
152	0xaf	-0.13303685
153	0x17	0.037775896
154	0xd5	-0.0706245
155	0xec	-0.032848604
156	0x06	0.009854581
157	0xdf	-0.054200195
158	0x08	0.013139442
159	0xf9	-0.011497011
160	0xd0	-0.07883665
161	0xd9	-0.06405478
162	0x08	0.013139442
163	0xec	-0.032848604
164	0x0d	0.021351593
165	0xf9	-0.011497011
166	0xd2	-0.07555179
167	0xf2	-0.022994023
168	0xe7	-0.041060753
169	0x0f	0.024636453
170	0xc2	-0.101830676
171	0x53	0.13632171
172	0x47	0.116612546
173	0x12	0.029563744
174	0x46	0.11497012
175	0x15	0.034491032
176	0x01	0.0016424302
177	0xdc	-0.059127487
178	0x1d	0.047630474
179	0xc4	-0.09854581
180	0xd5	-0.0706245
181	0x0b	0.018066732
182	0x19	0.041060753
183	0xa9	-0.14289142
184	0x14	0.032848604
185	0x17	0.037775896
186	0xd6	-0.068982065
187	0x2c	0.07226693
188	0x2d	0.07390936
189	0xb7	-0.1198974
190	0xdb	-0.060769916
191	0x49	0.1198974
192	0x28	0.06569721
193	0xef	-0.027921313
194	0x2d	0.07390936
195	0xe1	-0.050915338
196	0x38	0.09197609
197	0x39	0.09361852
198	0x06	0.009854581
199	0xc5	-0.096903384
200	0xf5	-0.018066732
201	0xdc	-0.059127487
202	0xf3	-0.021351593
203	0xd6	-0.068982065
204	0x0b	0.018066732
205	0xd0	-0.07883665
206	0xe4	-0.045988046
207	0x3f	0.103473105
208	0xde	-0.055842627
209	0x0d	0.021351593
210	0x34	0.08540637
211	0x0b	0.018066732
212	0xd7	-0.06733964
213	0xa9	-0.14289142
214	0xaf	-0.13303685
215	0xe4	-0.045988046
216	0x26	0.062412348
217	0x19	0.041060753
218	0x1c	0.045988046
219	0xfa	-0.009854581
220	0xf8	-0.013139442
221	0x24	0.059127487
222	0xb6	-0.12153983
223	0x04	0.006569721
224	0xf5	-0.018066732
225	0x5a	0.14781871
226	0xe3	-0.047630474
227	0xed	-0.031206174
228	0xe9	-0.037775896
229	0xd3	-0.07390936
230	0x09	0.014781872
231	0xf6	-0.016424302
232	0x68	0.17081274
233	0x0e	0.022994023
234	0xe1	-0.050915338
235	0xe9	-0.037775896
236	0xc9	-0.09033366
237	0x25	0.060769916
238	0xce	-0.08212151
239	0x1d	0.047630474
240	0xfa	-0.009854581
241	0x05	0.008212151
242	0xf1	-0.024636453
243	0x2e	0.07555179
244	0xe2	-0.049272906
245	0x52	0.13467927
246	0xea	-0.036133464
247	0xe5	-0.044345617
248	0x47	0.116612546
249	0xcb	-0.0870488
250	0xf8	-0.013139442
251	0xd6	-0.068982065
252	0xf9	-0.011497011
253	0xa3	-0.152746
254	0xec	-0.032848604
255	0xe8	-0.039418325

sequential/simple_rnn/while/simple_rnn_cell/BiasAdd/ReadVariableOp f4 [256]
0	0xbcc44bb6	-0.023961883
1	0xbc2b92df	-0.0104720285
2	0xbd30fce3	-0.04320992
3	0xbc5d0039	-0.013488823
4	0xbcbaeb96	-0.022817414
5	0x3cabebca	0.020986456
6	0x39fa1281	0.00047697502
7	0xbdc29265	-0.09500579
8	0x3d16388a	0.036675014
9	0xbdbbb8ea	-0.09166129
10	0xbdad9f2f	-0.084776275
11	0xbc3d6a6b	-0.011561017
12	0x3ba08c1c	0.004899515
13	0x3c8e4fe6	0.017372083
14	0xbd276048	-0.040863305
15	0x3c30dbdd	0.010794607
16	0xbc59c436	-0.013291409
17	0x3c11c017	0.008895895
18	0xbdd436cb	-0.103620134
19	0xbd56ccc5	-0.052441377
20	0xbd9d5073	-0.0768136
21	0x3d289118	0.041153997
22	0xbd434ef5	-0.04768272
23	0xbd7f67eb	-0.062354963
24	0xbcf9a8db	-0.030476024
25	0x3daffa2b	0.08592638
26	0x3d3621ce	0.044465832
27	0x3d4538fb	0.048150044
28	0x3d93350e	0.07187854
29	0x3d8b5338	0.06802982
30	0xbbed388a	-0.007239406
31	0xbc955059	-0.01822679
32	0x3d22401b	0.039611917
33	0xbcda058c	-0.026613973
34	0xbb4f835f	-0.0031663997
35	0xbd73c5ad	-0.05951469
36	0xbd8da42c	-0.06916079
37	0x3c5bc385	0.013413315
38	0x3c448e65	0.01199684
39	0x3c029873	0.007970917
40	0xbbcc11cd	-0.006227708
41	0xbc9685f9	-0.01837443
42	0xbda1fdc5	-0.07909731
43	0xbcc4e1dd	-0.024033481
44	0xbd6dfe70	-0.05810398
45	0xbd7c9faf	-0.061675724
46	0xbd791509	-0.060811076
47	0xbd1567a8	-0.036475807
48	0x3dce0a46	0.10060553
49	0xbd89031b	-0.066900454
50	0x3ccec03c	0.025238149
51	0xbd2b1d4c	-0.041775987
52	0xbd035a47	-0.032068517
53	0x3d34c98c	0.044137523
54	0x3db66180	0.089053154
55	0xbdadb2e0	-0.08481383
56	0xbd9acb7d	-0.075583436
57	0x3c526039	0.012840324
58	0x3a9da7b0	0.0012028124
59	0x3d7b69e9	0.0613803
60	0x3d36bace	0.044611745
61	0xbd68ff86	-0.05688431
62	0x3da5ee28	0.08102065
63	0xbd1fb149	-0.03898743
64	0x3c476d9b	0.012172128
65	0x3b9b54c7	0.004740331
66	0x3cd4480d	0.025913263
67	0xbd2ac213	-0.04168899
68	0x3ce3725f	0.027764497
69	0xbcb24533	-0.021761512
70	0x3c09170a	0.008367309
71	0x3d5a601c	0.053314313
72	0x3cdd023d	0.026978606
73	0xbd23504c	-0.0398715
74	0xbd38156e	-0.044942312
75	0x3da14f5a	0.07876463
76	0x3c4fbfdc	0.01268002
77	0x3c1c8e71	0.009555445
78	0xb9979167	-0.00028909298
79	0xbd95f264	-0.07321623
80	0xbca9b8be	-0.020717975
81	0xbce0af97	-0.027427478
82	0xbb8f7243	-0.0043776347
83	0x3ae3810b	0.0017357183
84	0xbdb5c49f	-0.08875393
85	0x3d1d6942	0.03843046
86	0xbc6da3c8	-0.0145043805
87	0xbdb0ad3f	-0.08626794
88	0xbc7c9a0b	-0.015417586
89	0xbd130c7d	-0.03590058
90	0x3b64e6d6	0.0034927628
91	0x3d792878	0.06082961
92	0xbc90fc14	-0.017698325
93	0xbd56c8f4	-0.052437738
94	0xbdc4f583	-0.0961714
95	0xbca59873	-0.020214295
96	0x3d016a6e	0.03159564
97	0xbbd20a12	-0.006409892
98	0x3d6cb7a9	0.05779234
99	0xbbbac278	-0.005699452
100	0xbd3ee7fe	-0.046607964
101	0x3d06baed	0.03289311
102	0x3bd052ec	0.0063575413
103	0xbc67b129	-0.014141359
104	0xbd082109	-0.03323463
105	0xbd62bd73	-0.055356454
106	0x3d5155c3	0.05110718
107	0x3d07007b	0.032959443
108	0xbacdb0b2	-0.0015692918
109	0xbd21e3e5	-0.039523978
110	0xbca27a38	-0.019833669
111	0x3b8de8a5	0.004330712
112	0x3cdf66c4	0.027270682
113	0xbd407784	-0.04698898
114	0xbc977532	-0.0184885
115	0x3dacc7ec	0.084365696
116	0xbcdc6e45	-0.02690805
117	0x3c15ddf1	0.009147153
118	0x3c6e47f5	0.014543523
119	0xbc3a0097	-0.01135268
120	0x3c3137f6	0.010816565
121	0x3ceccfd7	0.0289077
122	0x3ca98d6e	0.020697322
123	0xb86cef66	-5.6489742e-05
124	0xbd6b983d	-0.057518233
125	0x3cb2c859	0.021824049
126	0xbb8afd50	-0.004241623
127	0xbbe15657	-0.0068767476
128	0xbd8ff822	-0.070297495
129	0xbbecbd1c	-0.007224692
130	0x3cc2bef8	0.023772702
131	0x3c8b35c8	0.016993418
132	0x3d9c0965	0.07618979
133	0x3d5bd453	0.053669285
134	0xbd35ed1d	-0.044415582
135	0xbddd96a1	-0.10819746
136	0xbcf5bf64	-0.029998489
137	0x3d94ccc3	0.07265618
138	0x3be73e80	0.007057011
139	0xbb418d78	-0.0029533785
140	0x3d8e5c12	0.06951155
141	0x3d284e61	0.041090373
142	0x3cde34da	0.027124811
143	0x3d61480b	0.055000346
144	0xbda01c03	-0.07817843
145	0xbbadf3ed	-0.0053086192
146	0x3c042505	0.008065467
147	0xbdb769d5	-0.08955733
148	0x3b8622b0	0.0040934905
149	0xbcfe9a5f	-0.03107947
150	0xbd9bd730	-0.07609403
151	0x3e0f86e7	0.14016305
152	0x3a25dfef	0.0006327619
153	0xbd27b072	-0.040939756
154	0xbccf67b1	-0.025317999
155	0xbd33d2f3	-0.04390235
156	0x3d8969d7	0.067096405
157	0x3cf1d482	0.029520277
158	0xbbc10231	-0.005890154
159	0x3d1a6ece	0.037703328
160	0xbb393472	-0.002826002
161	0x3cd12abb	0.02553307
162	0x3d71d8d4	0.059044674
163	0xbdaf021e	-0.08545326
164	0x3c9db632	0.019251917
165	0x3d48c0b5	0.049011905
166	0xbc45ccbb	-0.012072737
167	0xbc902156	-0.01759402
168	0x3cc9bfdd	0.02462762
169	0x3c7afb08	0.01531864
170	0x3cf3f37e	0.029779192
171	0xbd65cbde	-0.056102626
172	0xbd0eb260	-0.03483808
173	0xbd8400c4	-0.064454585
174	0xbd32f2f7	-0.04368874
175	0xbca5adb1	-0.020224424
176	0x3c9a3d8e	0.01882818
177	0x3d1c6d63	0.038190257
178	0xbd52eeb5	-0.05149718
179	0x3daca5d7	0.08430069
180	0x3d16a65d	0.03677975
181	0x3d685cc4	0.056729093
182	0x3d0b5233	0.03401394
183	0xbd53fb64	-0.051753417
184	0x3c3413bc	0.010991033
185	0x3bdce386	0.00674099
186	0xbd44ae38	-0.04801771
187	0xbd6f0149	-0.058350835
188	0xbd1ec2b9	-0.03875992
189	0xbcd7e0cb	-0.026352307
190	0x3d360749	0.04444054
191	0xbd3f311b	-0.04667769
192	0x3c4cd26f	0.012501343
193	0xbd912c75	-0.07088558
194	0xbb70863a	-0.00367011
195	0x3b8b307f	0.0042477245
196	0xbba2af31	-0.004964732
197	0xbbf4c208	-0.0074694194
198	0xbcf4621b	-0.029831937
199	0xbc4f5d1f	-0.012656479
200	0x3d22ce26	0.03974738
201	0xbd06c762	-0.03290499
202	0xbd2c1bf2	-0.04201884
203	0xbda2185b	-0.07914802
204	0xbbea1272	-0.007143312
205	0x3d26d195	0.040727217
206	0xbce4f463	-0.027948564
207	0xbd1aa1fb	-0.037752133
208	0xbd6c02e8	-0.05761996
209	0x3d5f5768	0.054526716
210	0x3b583acd	0.0032994032
211	0x3d192fa0	0.037398934
212	0xbcef33e5	-0.02919955
213	0x3b8a358e	0.00421781
214	0xbcec80fd	-0.0288701
215	0x3d13663e	0.035986178
216	0xbd0adda1	-0.033902768
217	0xbc44611b	-0.011986042
218	0x3cf26131	0.02958736
219	0xbd2ecbb9	-0.042674754
220	0xbd8179e6	-0.063220784
221	0x3d07695c	0.033059463
222	0xbd0de5af	-0.03464287
223	0x3c8a7478	0.01690124
224	0xbdc69ebd	-0.09698246
225	0xbca72e12	-0.02040771
226	0x3d1a8be7	0.037731078
227	0x3d2cb75b	0.04216705
228	0x3c935d5c	0.017988853
229	0x3d1c279e	0.03812372
230	0xbd0761cf	-0.033052262
231	0x3d7b7cb8	0.061398238
232	0xbd551be1	-0.05202854
233	0x3d884e93	0.06655612
234	0xbd135ee1	-0.035979155
235	0xbd0ff64b	-0.035146993
236	0x3cb50a74	0.022099711
237	0x3ccfe74e	0.02537885
238	0x3c226e2c	0.009913962
239	0xbcf1cf28	-0.029517725
240	0xbd4abca6	-0.049496315
241	0xbccce3f5	-0.025011042
242	0xbd380868	-0.04492989
243	0xbc199e56	-0.009376129
244	0xbd2a9160	-0.041642547
245	0x3cc76f2e	0.024345007
246	0x3d02c48d	0.031925727
247	0xbcd99f3b	-0.026565185
248	0x3c81a037	0.015823467
249	0x3d24e22e	0.040254764
250	0x3d96212d	0.073305465
251	0xbd66da88	-0.05636075
252	0xbc8a36d4	-0.016871847
253	0xbd0f6616	-0.035009466
254	0x3da57aca	0.08080061
255	0x3cfe2045	0.031021247

sequential/simple_rnn/while/simple_rnn_cell/MatMul_11 i1 [256, 256] scale=0.0025180453 zero_point=0
0	0xf1	-0.037770677
1	0xd3	-0.113312036
2	0x07	0.017626317
3	0xd6	-0.1057579
4	0xe7	-0.06295113
5	0xcd	-0.12842031
6	0x0a	0.025180452
7	0x0a	0.025180452
8	0x00	0.0
9	0x22	0.08561354
10	0x2d	0.113312036
11	0xd0	-0.12086617
12	0xfd	-0.0075541358
13	0x10	0.040288724
14	0xef	-0.04280677
15	0xf8	-0.020144362
16	0x02	0.0050360905
17	0x1d	0.07302331
18	0x16	0.055396996
19	0x0e	0.035252634
20	0x10	0.040288724
21	0x1e	0.075541355
22	0xc0	-0.1611549
23	0x13	0.04784286
24	0xe3	-0.07302331
25	0xe9	-0.05791504
26	0x35	0.1334564
27	0xf1	-0.037770677
28	0xf3	-0.032734588
29	0x2a	0.1057579
30	0xfc	-0.010072181
31	0xe2	-0.075541355
32	0xee	-0.045324814
33	0x0a	0.025180452
34	0x2b	0.10827594
35	0xe4	-0.07050527
36	0xd1	-0.11834813
37	0xf6	-0.025180452
38	0x09	0.022662407
39	0xbf	-0.16367294
40	0xf9	-0.017626317
41	0x22	0.08561354
42	0xfb	-0.012590226
43	0x31	0.123384215
44	0xed	-0.04784286
45	0xe3	-0.07302331
46	0xee	-0.045324814
47	0xce	-0.12590227
48	0x12	0.045324814
49	0xf7	-0.022662407
50	0x0d	0.032734588
51	0xdf	-0.08309549
52	0x11	0.04280677
53	0x2a	0.1057579
54	0xe7	-0.06295113
55	0xeb	-0.05287895
56	0xdd	-0.088131584
57	0xe7	-0.06295113
58	0xf5	-0.027698498
59	0xed	-0.04784286
60	0xf6	-0.025180452
61	0x1d	0.07302331
62	0x0c	0.030216543
63	0x20	0.08057745
64	0xf3	-0.032734588
65	0x14	0.050360903
66	0xf9	-0.017626317
67	0xfe	-0.0050360905
68	0xef	-0.04280677
69	0xf3	-0.032734588
70	0xcb	-0.1334564
71	0x0f	0.037770677
72	0x0a	0.025180452
73	0xda	-0.09568572
74	0xe7	-0.06295113
75	0x14	0.050360903
76	0xf4	-0.030216543
77	0x04	0.010072181
78	0x4a	0.18633536
79	0x19	0.06295113
80	0xfa	-0.0151082715
81	0x14	0.050360903
82	0x04	0.010072181
83	0xf4	-0.030216543
84	0xea	-0.055396996
85	0x0a	0.025180452
86	0xfd	-0.0075541358
87	0xf0	-0.040288724
88	0x05	0.012590226
89	0xd8	-0.10072181
90	0x01	0.0025180453
91	0x1b	0.06798722
92	0xea	-0.055396996
93	0xf3	-0.032734588
94	0x19	0.06295113
95	0xde	-0.08561354
96	0xfd	-0.0075541358
97	0xf0	-0.040288724
98	0xe6	-0.065469176
99	0xfa	-0.0151082715
100	0xf5	-0.027698498
101	0x17	0.05791504
102	0xa5	-0.22914211
103	0x1c	0.07050527
104	0xf4	-0.030216543
105	0x42	0.16619098
106	0xe7	-0.06295113
107	0x1d	0.07302331
108	0xff	-0.0025180453
109	0xef	-0.04280677
110	0x15	0.05287895
111	0x09	0.022662407
112	0x0b	0.027698498
113	0xe2	-0.075541355
114	0x39	0.14352858
115	0x0b	0.027698498
116	0x13	0.04784286
117	0x35	0.1334564
118	0xfd	-0.0075541358
119	0x16	0.055396996
120	0x2a	0.1057579
121	0x19	0.06295113
122	0xfe	-0.0050360905
123	0xe3	-0.07302331
124	0xbf	-0.16367294
125	0x09	0.022662407
126	0xf9	-0.017626317
127	0xe0	-0.08057745
128	0x2e	0.11583008
129	0xd9	-0.09820376
130	0xda	-0.09568572
131	0xce	-0.12590227
132	0x01	0.0025180453
133	0x2d	0.113312036
134	0xe0	-0.08057745
135	0x05	0.012590226
136	0x05	0.012590226
137	0xe9	-0.05791504
138	0x34	0.13093835
139	0xfe	-0.0050360905
140	0x47	0.17878121
141	0x02	0.0050360905
142	0xe0	-0.08057745
143	0xca	-0.13597444
144	0xf1	-0.037770677
145	0x0d	0.032734588
146	0xc4	-0.15108271
147	0x05	0.012590226
148	0x0b	0.027698498
149	0xfb	-0.012590226
150	0x13	0.04784286
151	0x23	0.088131584
152	0x0b	0.027698498
153	0xb8	-0.18129925
154	0xd7	-0.10323986
155	0xe9	-0.05791504
156	0xda	-0.09568572
157	0x32	0.12590227
158	0x2a	0.1057579
159	0x17	0.05791504
160	0x19	0.06295113
161	0xf4	-0.030216543
162	0x09	0.022662407
163	0xe9	-0.05791504
164	0xdb	-0.09316768
165	0xfa	-0.0151082715
166	0xe9	-0.05791504
167	0x11	0.04280677
168	0xd0	-0.12086617
169	0x10	0.040288724
170	0xf2	-0.035252634
171	0x21	0.08309549
172	0xfe	-0.0050360905
173	0x22	0.08561354
174	0xde	-0.08561354
175	0x27	0.09820376
176	0xe1	-0.078059405
177	0xe3	-0.07302331
178	0xb7	-0.1838173
179	0xe0	-0.08057745
180	0xfc	-0.010072181
181	0xa1	-0.2392143
182	0x27	0.09820376
183	0xf4	-0.030216543
184	0xd6	-0.1057579
185	0x04	0.010072181
186	0xfb	-0.012590226
187	0xcd	-0.12842031
188	0xe5	-0.06798722
189	0xf8	-0.020144362
190	0xf7	-0.022662407
191	0x03	0.0075541358
192	0x03	0.0075541358
193	0xf9	-0.017626317
194	0xe2	-0.075541355
195	0x0f	0.037770677
196	0x1b	0.06798722
197	0x12	0.045324814
198	0x2a	0.1057579
199	0x26	0.09568572
200	0x34	0.13093835
201	0xf1	-0.037770677
202	0xf9	-0.017626317
203	0x18	0.060433086
204	0xf8	-0.020144362
205	0xef	-0.04280677
206	0x30	0.12086617
207	0x01	0.0025180453
208	0xd5	-0.10827594
209	0xdd	-0.088131584
210	0xde	-0.08561354
211	0x10	0.040288724
212	0x19	0.06295113
213	0x1c	0.07050527
214	0xbb	-0.17374513
215	0xdc	-0.09064963
216	0x14	0.050360903
217	0xe7	-0.06295113
218	0xd8	-0.10072181
219	0xff	-0.0025180453
220	0x12	0.045324814
221	0xd9	-0.09820376
222	0xf9	-0.017626317
223	0xf3	-0.032734588
224	0xf2	-0.035252634
225	0x05	0.012590226
226	0xe3	-0.07302331
227	0x0f	0.037770677
228	0xc5	-0.14856467
229	0xd9	-0.09820376
230	0x0b	0.027698498
231	0xce	-0.12590227
232	0x00	0.0
233	0xfc	-0.010072181
234	0x0d	0.032734588
235	0xf6	-0.025180452
236	0x1e	0.075541355
237	0x26	0.09568572
238	0xed	-0.04784286
239	0xde	-0.08561354
240	0x16	0.055396996
241	0xf3	-0.032734588
242	0xe6	-0.065469176
243	0xf9	-0.017626317
244	0xdc	-0.09064963
245	0xe8	-0.060433086
246	0xf1	-0.037770677
247	0xfd	-0.0075541358
248	0xf9	-0.017626317
249	0xfd	-0.0075541358
250	0x13	0.04784286
251	0x19	0.06295113
252	0xea	-0.055396996
253	0x16	0.055396996
254	0x13	0.04784286
255	0x1d	0.07302331

sequential/simple_rnn/while/simple_rnn_cell/MatMul i1 [256, 63] scale=0.0023350779 zero_point=0
0	0x40	0.14944498
1	0xdf	-0.07705757
2	0x1f	0.07238741
3	0x3e	0.14477482
4	0x16	0.051371712
5	0xda	-0.08873296
6	0xcf	-0.11441881
7	0x22	0.07939265
8	0x15	0.049036633
9	0xea	-0.051371712
10	0xdf	-0.07705757
11	0x06	0.014010467
12	0xdc	-0.0840628
13	0xff	-0.0023350779
14	0x1f	0.07238741
15	0xcd	-0.11908897
16	0x1c	0.06538218
17	0xf2	-0.03269109
18	0x0d	0.030356012
19	0x23	0.08172773
20	0xfd	-0.0070052333
21	0x3e	0.14477482
22	0x18	0.056041867
23	0x18	0.056041867
24	0x00	0.0
25	0x15	0.049036633
26	0x12	0.0420314
27	0xf6	-0.023350779
28	0xe6	-0.060712025
29	0x15	0.049036633
30	0xfb	-0.0116753895
31	0x06	0.014010467
32	0xe6	-0.060712025
33	0x2f	0.10974866
34	0x03	0.0070052333
35	0x15	0.049036633
36	0x3f	0.14710991
37	0x3d	0.14243975
38	0xff	-0.0023350779
39	0xff	-0.0023350779
40	0xf4	-0.028020933
41	0x20	0.07472249
42	0xe7	-0.058376946
43	0x08	0.018680623
44	0x34	0.12142405
45	0x1c	0.06538218
46	0x14	0.046701558
47	0x25	0.08639788
48	0xf1	-0.035026167
49	0xe0	-0.07472249
50	0x15	0.049036633
51	0x24	0.0840628
52	0xe0	-0.07472249
53	0x0f	0.035026167
54	0xde	-0.07939265
55	0x2d	0.1050785
56	0xe0	-0.07472249
57	0xd3	-0.1050785
58	0x3a	0.13543451
59	0xf8	-0.018680623
60	0x12	0.0420314
61	0x2d	0.1050785
62	0x07	0.016345546
63	0xb6	-0.17279576
64	0x20	0.07472249
65	0x2f	0.10974866
66	0x08	0.018680623
67	0x0e	0.03269109
68	0xf4	-0.028020933
69	0x17	0.05370679
70	0x22	0.07939265
71	0x23	0.08172773
72	0xc8	-0.13076437
73	0xfa	-0.014010467
74	0x41	0.15178005
75	0xfa	-0.014010467
76	0x0e	0.03269109
77	0x31	0.11441881
78	0x25	0.08639788
79	0xd5	-0.100408345
80	0x3b	0.1377696
81	0x19	0.058376946
82	0xc7	-0.13309944
83	0xe0	-0.07472249
84	0xb6	-0.17279576
85	0xf3	-0.030356012
86	0x09	0.0210157
87	0xd7	-0.095738195
88	0xd6	-0.09807327
89	0x3e	0.14477482
90	0xf7	-0.0210157
91	0x23	0.08172773
92	0x35	0.12375913
93	0xd0	-0.11208373
94	0xf2	-0.03269109
95	0xfd	-0.0070052333
96	0xe7	-0.058376946
97	0x28	0.093403116
98	0x18	0.056041867
99	0xfb	-0.0116753895
100	0x0e	0.03269109
101	0x39	0.13309944
102	0x20	0.07472249
103	0xbe	-0.15411514
104	0xde	-0.07939265
105	0xe0	-0.07472249
106	0xe9	-0.05370679
107	0xd8	-0.093403116
108	0xcd	-0.11908897
109	0xf5	-0.025685856
110	0x03	0.0070052333
111	0xe6	-0.060712025
112	0xd6	-0.09807327
113	0x13	0.04436648
114	0xd8	-0.093403116
115	0x00	0.0
116	0x12	0.0420314
117	0xf0	-0.037361246
118	0xeb	-0.049036633
119	0x41	0.15178005
120	0xda	-0.08873296
121	0xc5	-0.1377696
122	0xdf	-0.07705757
123	0x07	0.016345546
124	0x1b	0.0630471
125	0xd7	-0.095738195
126	0x29	0.095738195
127	0x11	0.039696325
128	0x05	0.0116753895
129	0xcf	-0.11441881
130	0xd3	-0.1050785
131	0x1e	0.07005233
132	0xd8	-0.093403116
133	0xe1	-0.07238741
134	0xaa	-0.20081669
135	0xf2	-0.03269109
136	0x1a	0.060712025
137	0xcb	-0.12375913
138	0x1e	0.07005233
139	0x22	0.07939265
140	0xf9	-0.016345546
141	0xcc	-0.12142405
142	0xee	-0.0420314
143	0xd8	-0.093403116
144	0xd2	-0.10741358
145	0xdd	-0.08172773
146	0xf0	-0.037361246
147	0x33	0.11908897
148	0xf3	-0.030356012
149	0xf1	-0.035026167
150	0xd0	-0.11208373
151	0x12	0.0420314
152	0x12	0.0420314
153	0xfd	-0.0070052333
154	0x0b	0.025685856
155	0xaf	-0.1891413
156	0x38	0.13076437
157	0x31	0.11441881
158	0xc8	-0.13076437
159	0x1b	0.0630471
160	0xe5	-0.0630471
161	0x1f	0.07238741
162	0x03	0.0070052333
163	0x3b	0.1377696
164	0xc5	-0.1377696
165	0xd0	-0.11208373
166	0xfb	-0.0116753895
167	0xcd	-0.11908897
168	0x14	0.046701558
169	0x21	0.07705757
170	0xfb	-0.0116753895
171	0x04	0.009340311
172	0x2b	0.100408345
173	0xe3	-0.067717254
174	0x16	0.051371712
175	0xf6	-0.023350779
176	0xb0	-0.18680623
177	0xe2	-0.07005233
178	0xe9	-0.05370679
179	0x15	0.049036633
180	0xed	-0.04436648
181	0x43	0.15645021
182	0x1e	0.07005233
183	0xe5	-0.0630471
184	0xee	-0.0420314
185	0xe7	-0.058376946
186	0x32	0.11675389
187	0x17	0.05370679
188	0xf9	-0.016345546
189	0xaa	-0.20081669
190	0x17	0.05370679
191	0x21	0.07705757
192	0xb8	-0.1681256
193	0xb3	-0.17980099
194	0xb7	-0.17046069
195	0xe1	-0.07238741
196	0xc0	-0.14944498
197	0xbb	-0.16112037
198	0xc0	-0.14944498
199	0x05	0.0116753895
200	0xf1	-0.035026167
201	0xb4	-0.17746592
202	0xbb	-0.16112037
203	0x0e	0.03269109
204	0xbf	-0.15178005
205	0x20	0.07472249
206	0xd9	-0.09106804
207	0xe0	-0.07472249
208	0xd9	-0.09106804
209	0x14	0.046701558
210	0xf1	-0.035026167
211	0xca	-0.1260942
212	0x1c	0.06538218
213	0xa5	-0.21249208
214	0xf7	-0.0210157
215	0xcd	-0.11908897
216	0xff	-0.0023350779
217	0x0d	0.030356012
218	0x01	0.0023350779
219	0xc0	-0.14944498
220	0xd4	-0.102743424
221	0xf2	-0.03269109
222	0x9a	-0.23817794
223	0x11	0.039696325
224	0x33	0.11908897
225	0x9d	-0.23117271
226	0xd8	-0.093403116
227	0xd9	-0.09106804
228	0xa6	-0.210157
229	0x1e	0.07005233
230	0x04	0.009340311
231	0xf8	-0.018680623
232	0xde	-0.07939265
233	0x14	0.046701558
234	0xc5	-0.1377696
235	0x14	0.046701558
236	0x02	0.0046701557
237	0xe3	-0.067717254
238	0x30	0.11208373
239	0x47	0.16579053
240	0xd9	-0.09106804
241	0xfb	-0.0116753895
242	0x41	0.15178005
243	0xbc	-0.1587853
244	0x07	0.016345546
245	0x27	0.09106804
246	0xb0	-0.18680623
247	0xf0	-0.037361246
248	0xe2	-0.07005233
249	0x9e	-0.22883762
250	0xe4	-0.06538218
251	0xe5	-0.0630471
252	0xec	-0.046701558
253	0xe7	-0.058376946
254	0x37	0.12842928
255	0x02	0.0046701557

sequential/simple_rnn_1/while/simple_rnn_cell/BiasAdd/ReadVariableOp f4 [128]
0	0x3baf6a86	0.0053532748
1	0xbd82a048	-0.063782275
2	0xbd368838	-0.044563502
3	0xbdd409c4	-0.10353425
4	0xbd577a0c	-0.052606627
5	0xbdbdc24f	-0.09265577
6	0xbbf9b7a4	-0.0076207686
7	0x3d9c81b4	0.076419264
8	0x3c5945df	0.0132612875
9	0xbd650274	-0.055910543
10	0x3d86fb45	0.065908946
11	0xbd42d05a	-0.04756198
12	0x3bc4daa3	0.006007509
13	0xbce308e9	-0.02771421
14	0xbc80a24f	-0.015702395
15	0xbd92fa8b	-0.071766935
16	0xbd90ffdf	-0.070800535
17	0x3c176eea	0.009242753
18	0x3dd04678	0.10169691
19	0xbc248371	-0.010041104
20	0xbcbb6a0d	-0.022877717
21	0xbc4909db	-0.012270416
22	0xbcbb5dd7	-0.022871895
23	0x3d88411e	0.06653045
24	0xbdb35f13	-0.08758368
25	0xbc694128	-0.014236726
26	0x3c34abe4	0.01102731
27	0xbd0d3207	-0.034471538
28	0xbd958037	-0.07299846
29	0x3c6176fe	0.01376128
30	0x3dc89569	0.09794123
31	0xbd507b50	-0.05089885
32	0xbc4ad1dc	-0.012379136
33	0xbd411ec0	-0.047148466
34	0xbd39e777	-0.045386758
35	0x3b2d7489	0.0026467165
36	0x3db193e1	0.08670784
37	0xbcec18d2	-0.028820429
38	0x3b28b4b5	0.0025742475
39	0xbc4a8baf	-0.012362405
40	0xbd3575fc	-0.04430197
41	0x3ca96817	0.020679517
42	0xbd28f3d4	-0.041248158
43	0x3d4afee5	0.049559493
44	0x3c9034fa	0.017603386
45	0x3d9e441c	0.077278346
46	0x3dc9dc5e	0.09856485
47	0xbb637b22	-0.0034710844
48	0xbbc54e33	-0.006021285
49	0xbdecb82a	-0.11558564
50	0xba83ab56	-0.0010045569
51	0xbd53893a	-0.05164454
52	0xbd4f127e	-0.050554745
53	0x3da789ab	0.08180555
54	0xbc95bb0e	-0.018277671
55	0xbd96a91d	-0.073564745
56	0x3de68b04	0.11256984
57	0x3c2e28f8	0.010629885
58	0x3c5b1592	0.013371842
59	0x3c56a006	0.013099676
60	0x3d1766a3	0.036963116
61	0xbd4d745f	-0.05015981
62	0xbd956a6d	-0.0729569
63	0x3dc5020b	0.0961953
64	0x3d286940	0.041116
65	0xbdc1261e	-0.094310984
66	0x3d5b9831	0.053611938
67	0xbd19e466	-0.037571333
68	0x3cc2ffaf	0.02380356
69	0x3cb33e74	0.021880366
70	0x3d892757	0.066969566
71	0xbd17a7fd	-0.03702544
72	0xbd50ff11	-0.0510245
73	0x3c92acd1	0.01790467
74	0x3c7a29c3	0.015268746
75	0xbd47f54f	-0.04881793
76	0xbdb06a59	-0.08614034
77	0x3d15c823	0.03656782
78	0x3c65e581	0.014031769
79	0x3d86388d	0.06553755
80	0xbd5015dd	-0.0508021
81	0x3c9ae4a6	0.018907856
82	0x3de2ad72	0.11068238
83	0x3d3e365b	0.046438556
84	0xbcb8588f	-0.022503166
85	0xbd970e06	-0.07375722
86	0xbdfcd505	-0.12345318
87	0xbd958e30	-0.07302511
88	0x3d2727ef	0.040809568
89	0x3d3465ac	0.044042274
90	0xbd4420c1	-0.0478828
91	0xbca2427c	-0.019807093
92	0x3d3fbe4d	0.046812344
93	0xbce94449	-0.028474944
94	0xbd93a9e6	-0.0721014
95	0xbc573d90	-0.013137236
96	0xbde1b405	-0.11020664
97	0x3d734d07	0.05939963
98	0xbccac594	-0.024752416
99	0x3d409a13	0.047021937
100	0x3ca46bd7	0.020070953
101	0x3caa3503	0.020777231
102	0x3d0903f8	0.03345105
103	0x3c6f0822	0.014589341
104	0x3d96b200	0.073581696
105	0x3d34771a	0.044058897
106	0x3d3c1304	0.045916572
107	0xbbc261d3	-0.0059320717
108	0xbd8075b9	-0.06272454
109	0x3cad0df9	0.021124827
110	0xbe007728	-0.12545455
111	0x3d417cac	0.047238037
112	0x3cfa8ecc	0.030585669
113	0x3cd40997	0.025883479
114	0x3cc8b34c	0.024499558
115	0x3b4e1050	0.0031442828
116	0xbd81d048	-0.063385546
117	0x3d5023de	0.050815456
118	0x3d18e0f4	0.037323907
119	0x3d0a3e93	0.03375108
120	0x3d7c29f0	0.061563432
121	0xbdbb432c	-0.091436714
122	0xbd1e6478	-0.038670033
123	0x3bc92215	0.006138096
124	0x3d88da70	0.06682289
125	0xbcbf6a24	-0.023366041
126	0xbcc47ed9	-0.023986267
127	0xbbb9f004	-0.005674364

sequential/simple_rnn_1/while/simple_rnn_cell/MatMul_11 i1 [128, 128] scale=0.0033321967 zero_point=0
0	0x15	0.06997613
1	0xf0	-0.053315148
2	0xdf	-0.10996249
3	0xfa	-0.01999318
4	0x1e	0.0999659
5	0xec	-0.06664394
6	0xd3	-0.14994885
7	0x0e	0.046650752
8	0x0d	0.04331856
9	0x00	0.0
10	0x13	0.06331174
11	0xf6	-0.03332197
12	0x10	0.053315148
13	0xf9	-0.023325376
14	0x00	0.0
15	0xf4	-0.03998636
16	0xe9	-0.076640524
17	0x05	0.016660985
18	0xed	-0.06331174
19	0xdb	-0.12329128
20	0x1d	0.0966337
21	0xf7	-0.029989772
22	0xe3	-0.0966337
23	0x28	0.13328788
24	0xf9	-0.023325376
25	0xf7	-0.029989772
26	0x18	0.07997272
27	0xe9	-0.076640524
28	0x0b	0.036654163
29	0xe4	-0.093301505
30	0xb5	-0.24991475
31	0x00	0.0
32	0xef	-0.056647345
33	0xef	-0.056647345
34	0x27	0.12995568
35	0xec	-0.06664394
36	0x1b	0.089969315
37	0x05	0.016660985
38	0xff	-0.0033321967
39	0x20	0.106630296
40	0xe6	-0.08663712
41	0xec	-0.06664394
42	0xaf	-0.26990792
43	0x13	0.06331174
44	0x23	0.11662689
45	0x2a	0.13995226
46	0x03	0.00999659
47	0x02	0.0066643935
48	0x2d	0.14994885
49	0x2b	0.14328445
50	0x0f	0.04998295
51	0x08	0.026657574
52	0xeb	-0.06997613
53	0xbb	-0.22992158
54	0xe7	-0.08330492
55	0xda	-0.12662348
56	0x20	0.106630296
57	0x02	0.0066643935
58	0x06	0.01999318
59	0xc9	-0.18327083
60	0x15	0.06997613
61	0xee	-0.059979543
62	0xf8	-0.026657574
63	0x42	0.21992499
64	0xdd	-0.11662689
65	0xdf	-0.10996249
66	0x3d	0.203264
67	0x0e	0.046650752
68	0x16	0.07330833
69	0x30	0.15994544
70	0xf0	-0.053315148
71	0xf4	-0.03998636
72	0x00	0.0
73	0x07	0.023325376
74	0xfe	-0.0066643935
75	0x12	0.059979543
76	0x05	0.016660985
77	0xf3	-0.04331856
78	0x17	0.076640524
79	0x31	0.16327764
80	0xf9	-0.023325376
81	0xf6	-0.03332197
82	0x34	0.17327423
83	0x02	0.0066643935
84	0x08	0.026657574
85	0xec	-0.06664394
86	0x17	0.076640524
87	0xe2	-0.0999659
88	0xc6	-0.1932674
89	0x28	0.13328788
90	0x02	0.0066643935
91	0xf9	-0.023325376
92	0x0c	0.03998636
93	0x11	0.056647345
94	0x04	0.013328787
95	0x0e	0.046650752
96	0xe5	-0.089969315
97	0x0e	0.046650752
98	0xe7	-0.08330492
99	0xf9	-0.023325376
100	0x49	0.24325036
101	0xe9	-0.076640524
102	0x2e	0.15328105
103	0xe9	-0.076640524
104	0x32	0.16660984
105	0xec	-0.06664394
106	0x04	0.013328787
107	0xcc	-0.17327423
108	0xcc	-0.17327423
109	0x0a	0.03332197
110	0xe6	-0.08663712
111	0xe4	-0.093301505
112	0xf8	-0.026657574
113	0xfa	-0.01999318
114	0xf0	-0.053315148
115	0x30	0.15994544
116	0xd8	-0.13328788
117	0x0f	0.04998295
118	0xf1	-0.04998295
119	0x0b	0.036654163
120	0x41	0.21659279
121	0x1c	0.093301505
122	0xb6	-0.24658255
123	0xe8	-0.07997272
124	0xf5	-0.036654163
125	0xe4	-0.093301505
126	0xe0	-0.106630296
127	0x22	0.11329469
128	0x04	0.013328787
129	0xcf	-0.16327764
130	0xf4	-0.03998636
131	0x10	0.053315148
132	0xea	-0.07330833
133	0xeb	-0.06997613
134	0xfe	-0.0066643935
135	0xf0	-0.053315148
136	0x12	0.059979543
137	0xe7	-0.08330492
138	0xf4	-0.03998636
139	0x13	0.06331174
140	0xe7	-0.08330492
141	0x1a	0.08663712
142	0x0f	0.04998295
143	0xd9	-0.12995568
144	0xf1	-0.04998295
145	0x16	0.07330833
146	0x04	0.013328787
147	0x2a	0.13995226
148	0x0c	0.03998636
149	0x0d	0.04331856
150	0xe8	-0.07997272
151	0xe3	-0.0966337
152	0x17	0.076640524
153	0x1b	0.089969315
154	0x11	0.056647345
155	0xe9	-0.076640524
156	0x07	0.023325376
157	0xf6	-0.03332197
158	0x05	0.016660985
159	0xfa	-0.01999318
160	0x1a	0.08663712
161	0x1e	0.0999659
162	0x03	0.00999659
163	0x11	0.056647345
164	0xf5	-0.036654163
165	0xfe	-0.0066643935
166	0x0a	0.03332197
167	0xe9	-0.076640524
168	0xda	-0.12662348
169	0xff	-0.0033321967
170	0xc6	-0.1932674
171	0x49	0.24325036
172	0xfb	-0.016660985
173	0xd8	-0.13328788
174	0xfe	-0.0066643935
175	0xfc	-0.013328787
176	0x11	0.056647345
177	0x18	0.07997272
178	0xd2	-0.15328105
179	0x4d	0.25657916
180	0xe7	-0.08330492
181	0x19	0.08330492
182	0xec	-0.06664394
183	0xe2	-0.0999659
184	0x0a	0.03332197
185	0x11	0.056647345
186	0x15	0.06997613
187	0x2a	0.13995226
188	0xf5	-0.036654163
189	0x08	0.026657574
190	0xe1	-0.1032981
191	0x03	0.00999659
192	0x0e	0.046650752
193	0xf6	-0.03332197
194	0xf2	-0.046650752
195	0x2e	0.15328105
196	0xc7	-0.1899352
197	0xd4	-0.14661665
198	0x00	0.0
199	0xbf	-0.21659279
200	0x12	0.059979543
201	0x05	0.016660985
202	0x28	0.13328788
203	0x26	0.12662348
204	0x0f	0.04998295
205	0x32	0.16660984
206	0xe3	-0.0966337
207	0xe3	-0.0966337
208	0x27	0.12995568
209	0xfd	-0.00999659
210	0x1a	0.08663712
211	0xf5	-0.036654163
212	0xed	-0.06331174
213	0xe5	-0.089969315
214	0x24	0.119959086
215	0x26	0.12662348
216	0x02	0.0066643935
217	0xdb	-0.12329128
218	0xfb	-0.016660985
219	0x13	0.06331174
220	0x03	0.00999659
221	0xff	-0.0033321967
222	0xfb	-0.016660985
223	0x26	0.12662348
224	0xd6	-0.13995226
225	0xf1	-0.04998295
226	0xf4	-0.03998636
227	0x59	0.2965655
228	0xd2	-0.15328105
229	0xff	-0.0033321967
230	0xd4	-0.14661665
231	0x03	0.00999659
232	0x1a	0.08663712
233	0xd3	-0.14994885
234	0xe3	-0.0966337
235	0x02	0.0066643935
236	0xe2	-0.0999659
237	0x07	0.023325376
238	0x04	0.013328787
239	0xe3	-0.0966337
240	0xc7	-0.1899352
241	0xdb	-0.12329128
242	0xd2	-0.15328105
243	0x19	0.08330492
244	0x06	0.01999318
245	0x15	0.06997613
246	0x1c	0.093301505
247	0x18	0.07997272
248	0xf1	-0.04998295
249	0x02	0.0066643935
250	0xf0	-0.053315148
251	0xce	-0.16660984
252	0x33	0.16994204
253	0x01	0.0033321967
254	0x08	0.026657574
255	0xfb	-0.016660985

sequential/simple_rnn_1/while/simple_rnn_cell/MatMul i1 [128, 256] scale=0.0019313075 zero_point=0
0	0xca	-0.104290605
1	0xa2	-0.1815429
2	0xe5	-0.052145302
3	0x22	0.065664455
4	0xdb	-0.07145838
5	0x0a	0.019313075
6	0xf0	-0.03090092
7	0x13	0.036694843
8	0xe5	-0.052145302
9	0x0a	0.019313075
10	0x01	0.0019313075
11	0xdd	-0.067595765
12	0x0c	0.02317569
13	0xd9	-0.07532099
14	0xc1	-0.12167237
15	0x2f	0.09077145
16	0x1e	0.057939224
17	0xca	-0.104290605
18	0x06	0.011587845
19	0x05	0.009656537
20	0x0a	0.019313075
21	0x19	0.048282687
22	0x31	0.09463406
23	0xd2	-0.08884014
24	0x17	0.04442007
25	0x29	0.07918361
26	0xbf	-0.12553498
27	0x25	0.07145838
28	0xeb	-0.04055746
29	0xd9	-0.07532099
30	0x1e	0.057939224
31	0x22	0.065664455
32	0xed	-0.036694843
33	0xd9	-0.07532099
34	0xe3	-0.056007918
35	0xb7	-0.14098544
36	0xe1	-0.059870534
37	0x1e	0.057939224
38	0x33	0.09849668
39	0x0f	0.028969612
40	0x3d	0.11780976
41	0xea	-0.042488765
42	0x09	0.017381767
43	0xe0	-0.06180184
44	0x24	0.06952707
45	0x1c	0.05407661
46	0xef	-0.032832228
47	0xeb	-0.04055746
48	0xc9	-0.106221914
49	0xed	-0.036694843
50	0x1c	0.05407661
51	0xdd	-0.067595765
52	0xc2	-0.11974107
53	0xf6	-0.019313075
54	0x26	0.07338969
55	0xc0	-0.12360368
56	0x06	0.011587845
57	0x43	0.1293976
58	0xe3	-0.056007918
59	0xd7	-0.07918361
60	0xf7	-0.017381767
61	0xd7	-0.07918361
62	0x3d	0.11780976
63	0x1a	0.050213996
64	0x27	0.07532099
65	0xc6	-0.112015836
66	0x09	0.017381767
67	0xe1	-0.059870534
68	0x33	0.09849668
69	0x57	0.16802375
70	0x3f	0.12167237
71	0xe1	-0.059870534
72	0xeb	-0.04055746
73	0xe5	-0.052145302
74	0xcf	-0.09463406
75	0xeb	-0.04055746
76	0x17	0.04442007
77	0xe2	-0.057939224
78	0x14	0.03862615
79	0x47	0.13712282
80	0x15	0.04055746
81	0x01	0.0019313075
82	0x12	0.034763534
83	0x49	0.14098544
84	0xeb	-0.04055746
85	0x57	0.16802375
86	0xcd	-0.09849668
87	0xc4	-0.11587845
88	0x38	0.10815322
89	0xeb	-0.04055746
90	0x18	0.04635138
91	0xe6	-0.050213996
92	0x0b	0.021244382
93	0x2f	0.09077145
94	0xbf	-0.12553498
95	0x36	0.104290605
96	0x05	0.009656537
97	0xae	-0.15836722
98	0xcb	-0.102359295
99	0xa6	-0.17381768
100	0xdf	-0.063733146
101	0xef	-0.032832228
102	0xeb	-0.04055746
103	0x20	0.06180184
104	0xf2	-0.027038304
105	0xc0	-0.12360368
106	0x40	0.12360368
107	0x16	0.042488765
108	0x2a	0.08111492
109	0xc6	-0.112015836
110	0x1d	0.056007918
111	0x2a	0.08111492
112	0xe4	-0.05407661
113	0x36	0.104290605
114	0x0b	0.021244382
115	0xc3	-0.11780976
116	0x34	0.10042799
117	0x14	0.03862615
118	0x05	0.009656537
119	0xf0	-0.03090092
120	0xd1	-0.09077145
121	0x04	0.00772523
122	0xec	-0.03862615
123	0xdf	-0.063733146
124	0xef	-0.032832228
125	0x0c	0.02317569
126	0x3d	0.11780976
127	0x22	0.065664455
128	0x12	0.034763534
129	0xe9	-0.04442007
130	0xf9	-0.013519152
131	0xe2	-0.057939224
132	0xe3	-0.056007918
133	0x2f	0.09077145
134	0x14	0.03862615
135	0x19	0.048282687
136	0x1e	0.057939224
137	0xf8	-0.01545046
138	0xcc	-0.10042799
139	0x0d	0.025106998
140	0x18	0.04635138
141	0x21	0.063733146
142	0x0a	0.019313075
143	0x1c	0.05407661
144	0xdd	-0.067595765
145	0x26	0.07338969
146	0x18	0.04635138
147	0xbb	-0.13326022
148	0x26	0.07338969
149	0x1d	0.056007918
150	0xf3	-0.025106998
151	0x2b	0.08304622
152	0x20	0.06180184
153	0x27	0.07532099
154	0x01	0.0019313075
155	0x27	0.07532099
156	0xd2	-0.08884014
157	0xdc	-0.06952707
158	0xe5	-0.052145302
159	0xc5	-0.11394714
160	0xf4	-0.02317569
161	0xe0	-0.06180184
162	0xee	-0.034763534
163	0x3e	0.11974107
164	0x16	0.042488765
165	0x16	0.042488765
166	0x15	0.04055746
167	0x04	0.00772523
168	0xbb	-0.13326022
169	0x18	0.04635138
170	0xff	-0.0019313075
171	0x17	0.04442007
172	0xd8	-0.0772523
173	0xa8	-0.16995506
174	0x3d	0.11780976
175	0x12	0.034763534
176	0xef	-0.032832228
177	0x45	0.13326022
178	0x35	0.102359295
179	0x26	0.07338969
180	0x27	0.07532099
181	0x21	0.063733146
182	0x28	0.0772523
183	0x05	0.009656537
184	0xfa	-0.011587845
185	0x0f	0.028969612
186	0x2f	0.09077145
187	0xfd	-0.0057939226
188	0x0f	0.028969612
189	0xc1	-0.12167237
190	0x31	0.09463406
191	0x32	0.09656537
192	0x20	0.06180184
193	0x33	0.09849668
194	0xf2	-0.027038304
195	0x09	0.017381767
196	0xe7	-0.048282687
197	0x33	0.09849668
198	0x3d	0.11780976
199	0xf2	-0.027038304
200	0x1b	0.052145302
201	0x24	0.06952707
202	0xef	-0.032832228
203	0x02	0.003862615
204	0x03	0.0057939226
205	0x12	0.034763534
206	0x2f	0.09077145
207	0x1e	0.057939224
208	0x15	0.04055746
209	0xe3	-0.056007918
210	0xf6	-0.019313075
211	0x51	0.1564359
212	0x31	0.09463406
213	0xd3	-0.08690884
214	0x35	0.102359295
215	0x11	0.032832228
216	0x18	0.04635138
217	0xe3	-0.056007918
218	0xea	-0.042488765
219	0xff	-0.0019313075
220	0xb1	-0.15257329
221	0x1f	0.059870534
222	0x01	0.0019313075
223	0xd4	-0.08497753
224	0xc1	-0.12167237
225	0xf8	-0.01545046
226	0xbd	-0.1293976
227	0xfc	-0.00772523
228	0xea	-0.042488765
229	0x33	0.09849668
230	0x15	0.04055746
231	0x14	0.03862615
232	0x10	0.03090092
233	0x14	0.03862615
234	0xbd	-0.1293976
235	0xf5	-0.021244382
236	0x33	0.09849668
237	0x03	0.0057939226
238	0xde	-0.065664455
239	0x13	0.036694843
240	0x0f	0.028969612
241	0xd3	-0.08690884
242	0x0a	0.019313075
243	0xe5	-0.052145302
244	0x14	0.03862615
245	0xf7	-0.017381767
246	0xd4	-0.08497753
247	0xd5	-0.08304622
248	0xef	-0.032832228
249	0xde	-0.065664455
250	0x20	0.06180184
251	0xda	-0.07338969
252	0x04	0.00772523
253	0x07	0.013519152
254	0xfb	-0.009656537
255	0x1e	0.057939224
